models/model_2020-12-02_18-41-32/checkpoint.pt (torch, 179791 bytes, 16 tensors)

conv1.weight f4 [10, 1, 5, 5]
0	0xbd9d9afc	-0.076955765
1	0x3c272767	0.010202265
2	0xbdc9b2f0	-0.09848583
3	0x3d98e44e	0.07465421
4	0xbe3157fa	-0.17318717
5	0x3e1c1bea	0.15245023
6	0xbe1179b4	-0.14206582
7	0xbe22736d	-0.15864344
8	0xbe01e756	-0.12685904
9	0x3db1e762	0.08686711
10	0xbd8ceec9	-0.06881482
11	0x3d9edef8	0.07757372
12	0xbe2e0e8d	-0.16997738
13	0xbdfabeaa	-0.122433975
14	0xbd9af1a2	-0.07565619
15	0xbd1442bf	-0.036196467
16	0xbe1c852c	-0.15285176
17	0x3e03b9f0	0.12863898
18	0xbd48220c	-0.048860595
19	0x3d7f0667	0.062261965
20	0x3e11ae3c	0.14226621
21	0x3d1ac06c	0.037781164
22	0x3d54b84c	0.05193357
23	0x3e435736	0.19076237
24	0xbdb97702	-0.09055902
25	0x3d84beb6	0.06481688
26	0xbdb53d82	-0.08849622
27	0x3e118d6b	0.14214103
28	0x3e25599e	0.16147467
29	0xbe3a2cbc	-0.18181127
30	0x3e313849	0.17306627
31	0x3dc3f000	0.09567261
32	0x3db2c247	0.08728462
33	0x3dae8629	0.08521683
34	0x3e2d899a	0.16947022
35	0xbcb74071	-0.022369595
36	0xbe29da03	-0.16587071
37	0xbd587cf9	-0.05285356
38	0xbe09e063	-0.13464503
39	0x3cab8ce3	0.020941203
40	0xbd0be4af	-0.034153637
41	0xbdd8cc4b	-0.10585841
42	0xbc71be80	-0.014754891
43	0x3e48c59c	0.19606632
44	0xbc0f9604	-0.008763794
45	0x3bb68246	0.005569729
46	0xbd04b6d6	-0.03240093
47	0x3d0a7ef3	0.033812474
48	0x3e3b7555	0.18306477
49	0x3e02dcc1	0.12779523
50	0x3d97e67e	0.0741701
51	0x3d2d20bd	0.04226755
52	0x3d300c0c	0.04298024
53	0x3d9389c1	0.07204009
54	0xbcf23496	-0.02956609
55	0xbe3c2bba	-0.18376055
56	0xbdfdaeca	-0.12386854
57	0x3e2bed99	0.16789855
58	0x3c0f8d83	0.008761766
59	0xbe29589f	-0.16537713
60	0x3d0d39a6	0.034478806
61	0x3e2b2b42	0.1671572
62	0xbe42432c	-0.18970937
63	0xbe0b58a5	-0.13608034
64	0xbda9444e	-0.08264981
65	0x3c4ea1fb	0.012611861
66	0xbd308e85	-0.043104667
67	0xbcb0430c	-0.021516345
68	0xbe493d87	-0.19652377
69	0x3db628f4	0.0889453
70	0x3e3a6b21	0.18204929
71	0x3e00cf9a	0.12579194
72	0xbe112814	-0.14175445
73	0xbe2745a7	-0.16335164
74	0x3da15e56	0.07879321
75	0x3c21dea2	0.00987974
76	0x3dae7fe5	0.08520488
77	0xbe4540fa	-0.19263068
78	0xbbed0bb9	-0.0072340635
79	0x3e151afe	0.14561078
80	0x3dca24f3	0.09870329
81	0x3c18af75	0.009319176
82	0x3d2bf4af	0.041981395
83	0xbc559892	-0.013036864
84	0xbdd54250	-0.10413039
85	0xbd916c7e	-0.07100771
86	0xbdf0f648	-0.117657244
87	0x3e2ddf9b	0.1697983
88	0x3deb00fb	0.114747964
89	0x3d9a60b0	0.07537973
90	0xbe17e28f	-0.14832519
91	0x3e238793	0.15969686
92	0x3d8621f2	0.06549443
93	0x3e0e467d	0.13894077
94	0xbda0c59b	-0.0785019
95	0x3d40f51d	0.04710876
96	0x3e4b1d21	0.1983533
97	0x3e09b006	0.13446054
98	0x3e2244f2	0.15846613
99	0xbd2da38f	-0.04239231
100	0x3e17c636	0.14821705
101	0xbe226b96	-0.15861353
102	0x3c9cd76a	0.019145686
103	0xbddbe590	-0.10737145
104	0xbd1ba3d9	-0.037998054
105	0xbd69253b	-0.05692027
106	0x3c3fb38e	0.011700524
107	0x3e3be99c	0.18350834
108	0x3dd6ea84	0.10493949
109	0x3bb1ee9f	0.005430057
110	0x3e0c4b82	0.13700679
111	0xbdd4849f	-0.10376858
112	0x3dd5f7f0	0.10447681
113	0xbc4acd37	-0.012378029
114	0xbce728f1	-0.028217765
115	0x3ca0c36a	0.01962443
116	0xbe1d2cd7	-0.15349136
117	0x3cd7c8b7	0.026340825
118	0x3d984e6a	0.07436831
119	0x3e35600b	0.17712419
120	0xbd884e9f	-0.06655621
121	0x3d8d7103	0.06906321
122	0x3e50ffe3	0.20410113
123	0xbd9bf9a8	-0.076159775
124	0x3e4bef45	0.19915493
125	0xbdc74fca	-0.097320154
126	0x3dba4a92	0.090962544
127	0x3da74574	0.08167544
128	0x3d77b468	0.060474783
129	0x3e260db2	0.16216162
130	0xbda66a89	-0.08125789
131	0x3d5aaed5	0.05338939
132	0x3b821001	0.003969193
133	0xbe161751	-0.14657332
134	0xbd347cfe	-0.044064514
135	0xbe0aa2a3	-0.13538603
136	0x3db48015	0.08813492
137	0x3ca1d86f	0.019756524
138	0x3cc0b510	0.023523837
139	0xbd6929b5	-0.05692454
140	0xbb074134	-0.002063823
141	0xbd84846b	-0.06470569
142	0x3d76f211	0.060289446
143	0x3e4c2e1d	0.19939466
144	0x3d0e652d	0.034764457
145	0xbdb9af61	-0.09066654
146	0xbdfb21ff	-0.122623436
147	0x3c967f20	0.018371165
148	0xbe141c54	-0.14463931
149	0xbe171aa4	-0.14756256
150	0xbe09da9a	-0.13462296
151	0xbd91b3a7	-0.07114344
152	0x3c47e25f	0.012199967
153	0x3e0e9f67	0.13927995
154	0x3da3aff6	0.07992546
155	0x3e15e9fc	0.14640039
156	0xbe05ddc1	-0.13072874
157	0x3c5a5225	0.013325249
158	0xbe343e78	-0.17601955
159	0x3decd42a	0.115639046
160	0x3d12eca1	0.0358702
161	0x3e4145ea	0.18874326
162	0xbe1485d3	-0.14504175
163	0x3e23fb1c	0.1601376
164	0x3e2cef59	0.16888179
165	0x3e1e18f7	0.15439211
166	0x3cc13438	0.02358447
167	0x3e392ba2	0.18083051
168	0x3e0a2726	0.13491496
169	0x3e1b1742	0.15145591
170	0xbca37071	-0.019951077
171	0xbe1e38c6	-0.15451345
172	0xbb0b9cbc	-0.0021303138
173	0x3d2a87b8	0.041633338
174	0xbe09259d	-0.13393255
175	0xbde74c1a	-0.11293812
176	0xbe431f04	-0.190548
177	0xbd8d23c1	-0.06891585
178	0x3e310229	0.1728598
179	0x3d10302f	0.0352022
180	0xbc28ee13	-0.010310668
181	0x3c1e267a	0.009652728
182	0x3e016153	0.12634782
183	0xbe344f0e	-0.17608282
184	0xbe1bf4fc	-0.15230173
185	0xbd854126	-0.06506567
186	0xbde90a19	-0.11378879
187	0x3dd5c7d0	0.10438502
188	0x3e11e02b	0.1424567
189	0xbe4486f0	-0.191921
190	0xbe2c5581	-0.16829492
191	0xbe46bd51	-0.19408156
192	0x3d9ba5b2	0.07599963
193	0x3e2603a0	0.1621232
194	0xbe1d4fef	-0.15362523
195	0xbdbc59b3	-0.09196796
196	0x3d814ac8	0.063130915
197	0xbe053639	-0.13008966
198	0x3e2e0c1e	0.1699681
199	0x3d429daf	0.04751366
200	0xbd6e4930	-0.058175266
201	0x3c394f31	0.011310385
202	0x3d7fc023	0.062439095
203	0xbd929cfe	-0.0715885
204	0xbe229457	-0.158769
205	0xbb007228	-0.0019599292
206	0x3af9dd03	0.0019063059
207	0x3b806d8b	0.0039193085
208	0xbcedf9eb	-0.029049834
209	0x3e02b2c1	0.12763502
210	0xbd74940b	-0.059711497
211	0xbcafe6b1	-0.021472307
212	0x3da95136	0.08267443
213	0xbdff3c11	-0.12462629
214	0x3d5e1590	0.054219782
215	0xbd41289f	-0.04715788
216	0x3dc031e2	0.093845144
217	0xbddea7ec	-0.10871872
218	0x3c131170	0.008976325
219	0x3ca71360	0.02039498
220	0xbe263aa8	-0.16233313
221	0xbe15e4b2	-0.14638022
222	0x3d9be156	0.07611339
223	0xbd70b694	-0.05876787
224	0x3df5ad58	0.11995953
225	0xbe47f9db	-0.19528906
226	0xbdc82329	-0.09772331
227	0xbe28d56a	-0.16487661
228	0x3d9fbf9d	0.07800219
229	0xbb76d5f8	-0.0037664156
230	0xbd17bdb3	-0.037046146
231	0xbd073f4e	-0.033019356
232	0xbe2055b1	-0.15657689
233	0x3d6de74a	0.058081903
234	0x3c0e7ebf	0.008697211
235	0xbe0cc922	-0.13748601
236	0x3d9a2cc8	0.075280726
237	0xbb936433	-0.0044980287
238	0xbe45c785	-0.19314392
239	0x3de14ca5	0.11000947
240	0x3ddca45d	0.10773537
241	0xbd1b7115	-0.03794964
242	0xbe0f116b	-0.13971488
243	0x3c02c863	0.007982346
244	0x3e1dc8a2	0.15408567
245	0x3e3ca3b9	0.1842183
246	0xbe1b03b0	-0.15138125
247	0xbdbb5bca	-0.09148367
248	0x3e228398	0.15870512
249	0x3dd223cd	0.10260735

conv1.bias f4 [10]
0	0x3dfd8a53	0.12379899
1	0xbdc6f181	-0.09714032
2	0x3e34b220	0.17646074
3	0xbe2675c3	-0.1625586
4	0xbc48d28f	-0.012257232
5	0x3be9128f	0.007112808
6	0x3d0597ca	0.03261546
7	0xbe1d5442	-0.15364173
8	0x3e3f3505	0.18672569
9	0x3e4a0b93	0.19730978

conv2.weight f4 [20, 10, 5, 5]
0	0xbd2e46bf	-0.042547937
1	0x3b5aef00	0.0033406615
2	0xbd0011dc	-0.031267032
3	0x3d77b619	0.060476396
4	0x3d08d49b	0.03340588
5	0x3d111aab	0.035425823
6	0x3c9da8b8	0.01924549
7	0xbc02c859	-0.007982337
8	0x3d04e85e	0.032448165
9	0xbaa9dea0	-0.0012960024
10	0xbcba190e	-0.022717025
11	0x3d054781	0.032538895
12	0x3c94fc00	0.01818657
13	0xbc87c78b	-0.016574642
14	0xbc834e09	-0.016028421
15	0xbd66cbd1	-0.05634672
16	0xbca231f8	-0.019799218
17	0xbcf651cb	-0.030068299
18	0xbd135632	-0.035970874
19	0xbd6b4431	-0.05743808
20	0x3d3f226e	0.046663694
21	0xbd7c48f7	-0.061593022
22	0x3d6b1cdf	0.05740058
23	0xbd1085a5	-0.035283703
24	0xbbde4034	-0.006782556
25	0x3d435589	0.047688995
26	0x3c9cb8c4	0.019131072
27	0xbc7b0518	-0.015321039
28	0xbd57ae60	-0.05265653
29	0xbcf0d89c	-0.029400162
30	0x3d486593	0.048924994
31	0xbc9bd39f	-0.019021807
32	0x3d675a69	0.056482706
33	0xbc55d1b0	-0.013050482
34	0xbc0fc4c7	-0.008774943
35	0x3ce3ad9f	0.02779275
36	0xbb447ae0	-0.0029980466
37	0x3b351a74	0.0027634175
38	0x3d2b2ee3	0.04179276
39	0x3ca81031	0.020515533
40	0xbaf14679	-0.0018407843
41	0x3cebd453	0.028787768
42	0x3d636f0f	0.055525836
43	0x3c6d431b	0.014481331
44	0xbc9cd307	-0.019143594
45	0x3cad6e99	0.021170901
46	0xbb52de1a	-0.003217584
47	0xbd44bcd9	-0.04803166
48	0xbcca67af	-0.024707643
49	0x3cedce0f	0.02902892
50	0x3888059c	6.48603e-05
51	0x3cb63e7e	0.022246595
52	0xbd214e0b	-0.03938107
53	0x3d7567cd	0.059913445
54	0xbcbf5cd9	-0.023359703
55	0x3c4f710d	0.012661231
56	0xbd119670	-0.03554386
57	0xbd08fd26	-0.033444546
58	0x3cfe618c	0.031052373
59	0xbc7e4b1a	-0.015520835
60	0xbd2b97a9	-0.04189268
61	0xbd018636	-0.031622134
62	0x3d38cde7	0.04511824
63	0x3d306311	0.043063227
64	0x3d18a228	0.03726402
65	0xbd69fa4e	-0.057123475
66	0x3cbe2a57	0.023213549
67	0x3c7b4492	0.015336173
68	0xbd269bd3	-0.04067595
69	0xba837a23	-0.0010030906
70	0x3c1c122b	0.009525816
71	0xbd19ebf7	-0.03757855
72	0xbccc71e5	-0.024956653
73	0x3d56de37	0.052458014
74	0xbbd6fc77	-0.006560858
75	0xbb931cd1	-0.004489519
76	0xbd2aa3d3	-0.04166014
77	0xbd070002	-0.03295899
78	0x3d876e6b	0.066128574
79	0x3cb24ef5	0.021766165
80	0xbc8435b0	-0.016138881
81	0x3d19854d	0.03748064
82	0xbca98a9f	-0.020695983
83	0xbd5776c5	-0.0526035
84	0xbd8bafca	-0.068206385
85	0x3cb27474	0.021784045
86	0xbc96dd1d	-0.018415982
87	0x3d47564c	0.048666283
88	0x3d6197f6	0.055076562
89	0x3c91ec01	0.01781273
90	0x3d60c452	0.054874726
91	0xbbb6f283	-0.005583109
92	0x3d809c28	0.062797844
93	0xbd00d84f	-0.031456288
94	0xbc149153	-0.009067851
95	0x3d1b99ea	0.03798858
96	0xbcf60bdc	-0.030034952
97	0x3d3fe549	0.046849523
98	0x3c3a8d29	0.011386194
99	0xbb6d562a	-0.0036214688
100	0x3d58dac3	0.052943002
101	0x3d4744b5	0.04864951
102	0xbcb01b85	-0.021497497
103	0x3bcc52c7	0.0062354538
104	0x3ba17531	0.0049273004
105	0x3d538e14	0.051649168
106	0x3d211ca7	0.039333966
107	0x3d609a50	0.054834664
108	0x3d1b1a4c	0.037866876
109	0xbd67e09e	-0.056610696
110	0x3d2cee71	0.042219583
111	0xbc21341c	-0.009839084
112	0x3d6139f3	0.054986905
113	0x3d1fa5f2	0.038976617
114	0xbd1a5584	-0.03767921
115	0xbb68977e	-0.0035490687
116	0x3c7381e7	0.014862514
117	0x3cac6e07	0.021048559
118	0xbd720393	-0.05908544
119	0x3b170a30	0.0023046844
120	0x3d045421	0.032306794
121	0x3d17ca63	0.037058245
122	0x3cfc0e5f	0.030768571
123	0x3c04aabd	0.008097348
124	0xbd7cb6d8	-0.06169781
125	0x3d22bba9	0.039729748
126	0xbd52902c	-0.051407024
127	0xbd1cef14	-0.03831394
128	0x39b99329	0.00035395593
129	0x3c9c26f7	0.019061549
130	0x3d1290c7	0.0357826
131	0xbc10dc1b	-0.00884154
132	0xbd024246	-0.031801485
133	0xbbb29f61	-0.0054511284
134	0x3ca1968d	0.019725109
135	0xbd18045f	-0.037113544
136	0xbd64f063	-0.055893313
137	0x3d002c35	0.03129216
138	0xbd2f26ec	-0.04276173
139	0xbd18d72a	-0.03731457
140	0x3d50fdd4	0.05102332
141	0xbd2ae8a0	-0.041725755
142	0xbd511522	-0.051045544
143	0x3d3e52d3	0.046465706
144	0xbcfd9651	-0.030955466
145	0x3b8ac49a	0.0042348625
146	0x3d877b3a	0.066153005
147	0xbcc3ae5c	-0.023886852
148	0x3d705cd0	0.058682263
149	0x3d4e13dd	0.05031191
150	0x3d3bdbf0	0.045864046
151	0x3c92547e	0.017862555
152	0xbccdf06b	-0.025139054
153	0x3d2f0ded	0.04273789
154	0xbd378b52	-0.0448106
155	0xbd2679f9	-0.040643666
156	0xbce43b9e	-0.027860459
157	0x3d08cc56	0.033397995
158	0x3c000867	0.007814503
159	0x3d13d615	0.036092836
160	0x3d1f44dc	0.03888403
161	0x3c09dea0	0.008414894
162	0x3d295c3b	0.041347723
163	0xbd43898a	-0.04773859
164	0xbd8205dc	-0.06348774
165	0xbd43af04	-0.04777433
166	0x3d39910d	0.045304347
167	0x3d81250d	0.06305895
168	0xbc8a0d8d	-0.016852165
169	0x3d1944f0	0.03741926
170	0xbd276f16	-0.040877424
171	0x3ba9efab	0.0051860414
172	0x3ab0b2e6	0.001348105
173	0xbcaa5539	-0.02079259
174	0xbd03ee06	-0.03220942
175	0x3cee14e1	0.02906269
176	0xbb92dd40	-0.0044819415
177	0xbc3d0625	-0.0115371095
178	0x3d322d8c	0.043500468
179	0xbd4818ce	-0.04885178
180	0x3d25d185	0.040483017
181	0x3d65ca67	0.05610123
182	0xbd1f6e3b	-0.038923483
183	0xbd77b3ec	-0.06047432
184	0x3c01d3ad	0.007924003
185	0xbd456765	-0.048194308
186	0x3cd6b8a0	0.026211083
187	0xbd4a4da9	-0.04939047
188	0xbd4d6e32	-0.05015392
189	0x3c840f6f	0.01612064
190	0xbc99046f	-0.018678872
191	0xbd67f1e6	-0.056627177
192	0x3ccb0ec4	0.024787314
193	0x3cad4e00	0.021155357
194	0x3c031fb1	0.008003161
195	0x3d1eddfb	0.038785916
196	0xbcd4663e	-0.02592766
197	0x3d67389a	0.056450464
198	0xbd49617d	-0.049165238
199	0x3d6a318a	0.05717615
200	0x3d3f6d1e	0.04673492
201	0xbd62be1e	-0.05535709
202	0xbbad90ee	-0.005296818
203	0xbd1103ec	-0.03540413
204	0x3d76c36a	0.060244955
205	0xbb2a5bc1	-0.002599463
206	0x3d2052c7	0.039141443
207	0x3d5d1cf4	0.05398269
208	0xbd538958	-0.051644653
209	0x3d1a29bb	0.037637454
210	0xbd5eb7b4	-0.05437441
211	0xbc867f3a	-0.016418088
212	0xbcea4aaa	-0.028600056
213	0xbd7c3991	-0.061578337
214	0xbd7609cc	-0.060067937
215	0xbd77b25e	-0.06047284
216	0xbd4908f6	-0.04908081
217	0xbd1ad0f2	-0.037796922
218	0xbcb65324	-0.022256441
219	0x3d0de310	0.03464037
220	0xbc0d57cb	-0.0086268885
221	0xbd802182	-0.06256391
222	0xbd411d18	-0.047146887
223	0x3d37c0bd	0.044861544
224	0xbd7e1bec	-0.062038347
225	0xbcfc467e	-0.030795332
226	0xbd5e337e	-0.054248326
227	0x3d1b9ff1	0.03799433
228	0x3d2d1549	0.042256627
229	0x3b5f356d	0.0034058944
230	0xbd05643a	-0.032566287
231	0xbc5280b5	-0.012848069
232	0x3b314443	0.0027048744
233	0x3cb65759	0.022258447
234	0xb9a65578	-0.00031725666
235	0xbcd7df76	-0.026351672
236	0x3bba8381	0.005691946
237	0x3971a7c3	0.00023046047
238	0xbb2a6191	-0.0025998096
239	0x3ce95d25	0.028486798
240	0xbca94db3	-0.020666933
241	0x3b9f3ed6	0.0048597855
242	0xbb83bb5e	-0.0040201386
243	0x3cc8e39c	0.024522595
244	0xbd1f1c02	-0.03884507
245	0xbd451fb0	-0.048125923
246	0xbd5e6c76	-0.054302655
247	0x3cad401b	0.021148732
248	0x3d41c50b	0.047307055
249	0x3d7c79d7	0.061639633
250	0x3cc7c947	0.024387969
251	0xbc550b19	-0.013003134
252	0x3c47efb5	0.012203147
253	0xbd80ed11	-0.06295217
254	0x3c0863bc	0.00832456
255	0xbc975b9f	-0.018476306

conv2.bias f4 [20]
0	0xbcd0930a	-0.025460739
1	0xbd41181e	-0.04714214
2	0x3ce8a558	0.028399155
3	0xbb89933a	-0.004198459
4	0x3d1b6e46	0.03794696
5	0x3bdeaa65	0.006795215
6	0xbc21da5a	-0.009878719
7	0x3d5edb6e	0.054408483
8	0x3d15c4ec	0.036564752
9	0x3d6fd3cb	0.05855159
10	0xbd3a0372	-0.045413442
11	0x3cf20732	0.029544447
12	0xbd18d73b	-0.037314635
13	0xbd37b81d	-0.04485332
14	0x3d40945c	0.047016487
15	0x3ced149a	0.028940488
16	0xbd250814	-0.040290907
17	0xbd2c1d8a	-0.04202036
18	0xbd1e147d	-0.038593758
19	0x3d44ed09	0.048077617

fc1.weight f4 [50, 320]
0	0x3cb27085	0.02178217
1	0x3bcd24b0	0.006260477
2	0xbd1e5898	-0.03865871
3	0x3cd3d67a	0.025859106
4	0xbbd87263	-0.006605433
5	0x3d1bda30	0.038049877
6	0x3c58bca3	0.013228568
7	0x3d060490	0.032719195
8	0xbc4c5866	-0.012472248
9	0x3be7f766	0.0070790527
10	0xbce31b44	-0.027722962
11	0x3c8817d2	0.01661292
12	0xbafecd96	-0.0019439931
13	0xbd28a669	-0.041174326
14	0x3d1eb658	0.038748115
15	0x3cd00426	0.025392603
16	0x3d1552cd	0.036455918
17	0x3cbee03d	0.023300285
18	0x3c31336f	0.010815485
19	0x3d282969	0.041055117
20	0xbd35b007	-0.044357326
21	0x3c782533	0.015145588
22	0x3d5679c3	0.052362215
23	0xbbce9233	-0.0063040494
24	0x3d37aac3	0.044840585
25	0x3ccadbe4	0.024763055
26	0x3d59c28d	0.053164054
27	0x3d4ef96d	0.05053084
28	0x3ce1e527	0.027575089
29	0x3be5938d	0.007006115
30	0xbd3ccba7	-0.046092656
31	0xbca5979a	-0.02021389
32	0xbd486fdc	-0.048934802
33	0xbc0cc12d	-0.008590979
34	0x3d06bb70	0.032893598
35	0x3ce920d2	0.028458033
36	0x3b93563c	0.004496364
37	0xbd596ea4	-0.05308403
38	0x3cea5348	0.028604165
39	0x3ca10759	0.019656824
40	0xbceb674b	-0.028735777
41	0xbd4b7c87	-0.049679305
42	0xbd067c3e	-0.03283333
43	0x3c8c4a38	0.017125234
44	0xbcf7884a	-0.030216355
45	0xbd1f27ee	-0.03885644
46	0xbd37a203	-0.04483224
47	0xbd0354e3	-0.032063376
48	0xbbaba609	-0.005238299
49	0x3d3cec89	0.046124015
50	0xbd0d90da	-0.03456197
51	0xbd3153a1	-0.043292645
52	0x3d6014bf	0.054707285
53	0x3d0bbd23	0.03411592
54	0x3c921922	0.01783425
55	0xbcea3ee2	-0.028594438
56	0x3d3e7147	0.04649475
57	0x3ccfaac3	0.02534998
58	0x3c1cd535	0.009572317
59	0x3d479ff1	0.048736516
60	0x3ca7d9e0	0.020489633
61	0x3d1c7e06	0.038206123
62	0xbc445e65	-0.011985396
63	0x3d1a17e5	0.037620444
64	0xbcb83ac6	-0.022488963
65	0x3c2a7403	0.010403636
66	0xbd0cd6ed	-0.034384657
67	0xbd45cdb3	-0.048291873
68	0xbd26c203	-0.040712368
69	0xbd3760ca	-0.04477004
70	0x3cefecf8	0.0292878
71	0x3d623db1	0.055234615
72	0x3d1ed69b	0.038778882
73	0xbb41e6a0	-0.0029586926
74	0xba4d17da	-0.00078236836
75	0x3c12db73	0.008963454
76	0x3d66b1da	0.056321956
77	0x3cdfb7a1	0.02730924
78	0xbd05f919	-0.03270826
79	0xbcf67037	-0.030082805
80	0x3d3664c8	0.044529706
81	0x3cf73ee7	0.030181361
82	0xbd624394	-0.05524023
83	0xbd3dc0f7	-0.046326604
84	0x3cec8e85	0.028876552
85	0xbcd5bb19	-0.026090192
86	0x3d28770f	0.041129168
87	0x3d15463c	0.036443934
88	0xbd348a8d	-0.044077445
89	0x3c827fe1	0.015930118
90	0xbc1a00be	-0.009399591
91	0xbd5de153	-0.054169964
92	0x3c94e57e	0.018175837
93	0x3c2813d7	0.010258636
94	0x3c16feeb	0.009216051
95	0xbd3749df	-0.044748183
96	0xbc652b46	-0.013987368
97	0xbc1a7565	-0.009427403
98	0xbd454733	-0.048163604
99	0x3d2e6bb1	0.04258317
100	0xbc9e6cd9	-0.019339012
101	0x3ccfd324	0.025369234
102	0xbc6c9f6e	-0.014442308
103	0xbd372992	-0.04471738
104	0xbc9e0829	-0.019291
105	0x3c1b3ab9	0.00947445
106	0x3d387204	0.04503061
107	0x3bfe60a1	0.007762984
108	0x3d12b34c	0.035815522
109	0x3ccd8231	0.025086494
110	0xbd1cdcd3	-0.038296532
111	0x3a721025	0.0009233973
112	0x3d63f6a6	0.055655144
113	0xbc97abd6	-0.018514555
114	0x3cc9039d	0.024537856
115	0x3d5ba4ad	0.053623844
116	0x3ba718be	0.005099385
117	0xbcca181c	-0.0246697
118	0xbcf8a879	-0.030353772
119	0x3b5e3b6a	0.0033909925
120	0xbcf28319	-0.029603528
121	0x3d56cf92	0.05244405
122	0xbd31d5dc	-0.043416843
123	0x3d5a8a0a	0.0533543
124	0x3d25e0cd	0.04049759
125	0xbd4d46ac	-0.050116226
126	0xbd028103	-0.031861316
127	0x3d571e19	0.052518938
128	0xbb0d9a29	-0.002160678
129	0xbd0f5e2d	-0.035001922
130	0x3b9fac13	0.004872808
131	0xbbb3b4de	-0.0054842075
132	0x3c5fd4fc	0.013661619
133	0x3cf15f45	0.029464373
134	0xbd364d3d	-0.044507254
135	0xbca0e917	-0.019642396
136	0x3bd46f28	0.0064829774
137	0x3d771d06	0.060330413
138	0xbd28b5dd	-0.041189063
139	0xbcbefeb5	-0.023314813
140	0x3d1b081e	0.037849538
141	0x3d74b139	0.059739325
142	0x3c1e3981	0.009657265
143	0x3c0c7e52	0.008575039
144	0x3cccd70f	0.025004892
145	0xbc35bf1e	-0.011092929
146	0x3d00d8a0	0.03145659
147	0x3d62a53c	0.05533336
148	0x3d254d4e	0.040356927
149	0xbd616742	-0.055030115
150	0x3d2a8fdb	0.041641098
151	0x3d6025d6	0.054723583
152	0x3cbef644	0.023310788
153	0xbc968a65	-0.018376539
154	0xbc274134	-0.010208417
155	0xbd173a9b	-0.036921125
156	0xbc1245bf	-0.008927762
157	0x3d11c0c8	0.03558424
158	0xbc871e4b	-0.016493937
159	0xbc14f234	-0.009090949
160	0xbc195782	-0.009359242
161	0x3a971da5	0.001152922
162	0x3b95b4fb	0.0045686937
163	0xbc0892a4	-0.008335743
164	0xbd59426b	-0.053041857
165	0xbc4ded80	-0.012568831
166	0xbd02e300	-0.031954765
167	0xbc987e01	-0.01861477
168	0xbccc4e79	-0.024939762
169	0xbd08eb51	-0.03342754
170	0xbd3afbd7	-0.04565033
171	0xbc86ea82	-0.016469244
172	0x3c203e86	0.009780532
173	0x3d6fe00c	0.058563277
174	0x3bb094df	0.0053888406
175	0x3c06a1e8	0.008217312
176	0x3cdf8e94	0.027289666
177	0x3c4f8fff	0.012668609
178	0xbd37ed3b	-0.044903975
179	0xbd60b4f2	-0.054860063
180	0xbd0d91f6	-0.034563027
181	0xbc3a8b5d	-0.011385766
182	0xbd1edb19	-0.038783167
183	0x3d2a94f8	0.041645974
184	0xbc8d9db4	-0.017287113
185	0xbcd59db3	-0.026076173
186	0xbd2627e3	-0.040565383
187	0xbcc1877d	-0.023624176
188	0xbd2ce803	-0.04221345
189	0x3d427bc1	0.047481302
190	0x3c64899a	0.013948822
191	0xbd421058	-0.047378868
192	0x3d65369d	0.055960286
193	0xbc13a6e0	-0.009011954
194	0x3c8514a3	0.016245192
195	0xbbf88250	-0.007583894
196	0xbbf1205b	-0.0073585934
197	0x3d005abf	0.031336542
198	0x3d482f67	0.04887333
199	0x3ccada4a	0.024762291
200	0x3d67679f	0.056495305
201	0x3d53b7e4	0.051689044
202	0xbb27fd64	-0.002563321
203	0xba25a49a	-0.0006318778
204	0xbb830df1	-0.0039994647
205	0xbc6da125	-0.014503752
206	0xbca09ddd	-0.019606525
207	0xbd2f88bc	-0.04285501
208	0xbd527a11	-0.051385943
209	0xbcaf4b41	-0.021398189
210	0xbca6bfc4	-0.020355113
211	0xbd5689df	-0.052377578
212	0xbc169d6a	-0.009192804
213	0x3d177669	0.03697816
214	0xbbdfebf0	-0.006833546
215	0xbcb487e7	-0.02203746
216	0x3b2bdeaa	0.0026225247
217	0x3d175a97	0.036951628
218	0xbcbac877	-0.022800667
219	0xbcaa04ed	-0.020754302
220	0xba4aa8f0	-0.0007730862
221	0xba18545e	-0.00058109115
222	0x3d5e5dc7	0.05428865
223	0xbd3cfc82	-0.046139248
224	0x3b1e92df	0.0024196429
225	0x3ca9147c	0.02063965
226	0x3b890990	0.004182048
227	0x3d0d0f8c	0.034438655
228	0x3cd441b4	0.025910236
229	0x3d6436f4	0.05571647
230	0x3d526838	0.051368922
231	0xbd1e9a9d	-0.03872167
232	0x3c9ffbc4	0.01952923
233	0x3d6400e6	0.05566492
234	0xbd272118	-0.040803045
235	0xbc573c94	-0.013137002
236	0x3c14922c	0.009068053
237	0x3d4822fa	0.04886148
238	0x3ce96428	0.028490141
239	0x3cb6c07c	0.02230858
240	0xbd43d7bd	-0.047813166
241	0x3c8a6bf1	0.016897174
242	0x3c5cecf9	0.013484233
243	0xb9b482bd	-0.00034429683
244	0x3d05329c	0.032518968
245	0x3d3b41c4	0.045717016
246	0x3d3e6947	0.04648712
247	0xbd3a8f22	-0.04554666
248	0xbd2daa76	-0.042398892
249	0x3bb9bd37	0.005668308
250	0xbd33f11c	-0.04393111
251	0x3c17d4b0	0.009267017
252	0xbb9c7e4e	-0.004775799
253	0x3d5e2cb9	0.05424187
254	0x3cb0b6be	0.021571513
255	0xb9f95a4b	-0.00047560254

fc1.bias f4 [50]
0	0x3d198a73	0.03748555
1	0xbd48b9d6	-0.049005352
2	0x3c034047	0.00801093
3	0x3c957a5c	0.018246822
4	0xbcf395cb	-0.029734513
5	0xbd3a0ac2	-0.045420416
6	0xbcae0dc0	-0.02124679
7	0x3cb53f09	0.022124784
8	0x3be8db68	0.0071062334
9	0xbce682c8	-0.028138533
10	0xbc5cd5be	-0.0134786945
11	0xbcdbb139	-0.026817905
12	0x3c9cfa6e	0.019162383
13	0x3c5c490c	0.01344515
14	0x3d2fcca5	0.042919774
15	0x3c22194b	0.009893726
16	0x3ca44336	0.02005158
17	0xbc96d5dc	-0.018412523
18	0xbd41f81a	-0.04735575
19	0x3bca4160	0.006172344
20	0x3d434c91	0.04768044
21	0x3d12f7f8	0.035881013
22	0x3cab3794	0.020900525
23	0xbcdd0f5f	-0.026984869
24	0xbd3ee1e3	-0.04660214
25	0xbaee9878	-0.0018203398
26	0xbd0c2081	-0.034210686
27	0x3cf0450b	0.029329797
28	0xbd5ce2cb	-0.053927224
29	0xbcfd5820	-0.03092581
30	0xbd58844e	-0.05286055
31	0xbc9b3a39	-0.018948661
32	0x3b702bfe	0.0036647315
33	0xbd46534c	-0.04841928
34	0xbcc2b38b	-0.023767253
35	0xbc6faf60	-0.014629215
36	0x3d360690	0.044439852
37	0xbc20b480	-0.00980866
38	0x3cfa5c70	0.030561656
39	0x3cff06eb	0.031131228
40	0xbcc382d9	-0.023866104
41	0xbc0c3f8f	-0.008560075
42	0xbd1a64d7	-0.037693825
43	0xbcaf2c96	-0.021383565
44	0xbc7d6444	-0.0154658
45	0x3d13262d	0.03592508
46	0xbb35553d	-0.0027669214
47	0x3c9c4ed5	0.019080559
48	0x3b8d64be	0.004314988
49	0x3ac64ffe	0.0015130041

fc2.weight f4 [10, 50]
0	0x3e0bdc43	0.13658242
1	0xbdc474a7	-0.09592562
2	0x3d679144	0.05653502
3	0xbdd067d8	-0.101760566
4	0xbdbe6de5	-0.092983045
5	0x3b9c5a82	0.0047715316
6	0x3e09c491	0.1345389
7	0xbd8a467c	-0.06751725
8	0xbca471a5	-0.020073721
9	0x3ce0e487	0.02745272
10	0xbd92a904	-0.071611434
11	0x3d9aeb3f	0.07564401
12	0x3d416539	0.047215674
13	0xbc09c6b8	-0.008409195
14	0xbca494c9	-0.020090478
15	0x3ae874bc	0.0017734985
16	0xbe019de0	-0.12657881
17	0xbe0430ef	-0.12909292
18	0x3dd84768	0.10560495
19	0xbb79c3a0	-0.0038110986
20	0x3db5621f	0.08856606
21	0x3d2f2a22	0.04276479
22	0xbcf6876d	-0.030093873
23	0x3de5483b	0.111954175
24	0xbc664a8a	-0.014055857
25	0x3dba24bb	0.09089037
26	0xbdaa6d65	-0.083216466
27	0x3d485a59	0.048914287
28	0xbb67b528	-0.003535578
29	0x3df1ce91	0.118069775
30	0xbd965a85	-0.07341484
31	0x3e07b2b1	0.13251759
32	0x3db9c657	0.090710334
33	0x3c9d0b58	0.019170448
34	0x3dd6eb32	0.10494079
35	0x3d28d14e	0.041215234
36	0x3de8520b	0.113437735
37	0x3dd1df78	0.102477014
38	0x3dfd8583	0.12378981
39	0x3da9cb83	0.0829077
40	0x3cacc576	0.02109025
41	0x3deefa28	0.11668807
42	0xbd1b2b4a	-0.03788308
43	0x3d9c0a0a	0.07619102
44	0xbbf0c33e	-0.0073474934
45	0x3ce80b62	0.02832574
46	0x3d52c63d	0.051458586
47	0xbd5a3dea	-0.053281702
48	0x3d7e6843	0.06211115
49	0x3dd05353	0.10172143
50	0xbd705871	-0.058678094
51	0xbc196ed9	-0.009364807
52	0xbd53fa8b	-0.05175261
53	0x3e0ba61f	0.13637589
54	0x3dec67f3	0.11543264
55	0x3d0ea3e1	0.034824256
56	0x3dc26e0c	0.09493646
57	0x3dea67cb	0.11445578
58	0xbde240a7	-0.11047488
59	0xbdd85768	-0.105635464
60	0x3bfb78a7	0.007674295
61	0x3d601675	0.054708917
62	0x3d96aa38	0.073566854
63	0x3d9d175a	0.076704696
64	0xbdee1944	-0.11625913
65	0x3e0e5b35	0.1390198
66	0xbd67ac4a	-0.056560792
67	0x3e12512d	0.14288779
68	0x3dc9ffc8	0.098632395
69	0x3dce13a4	0.1006234
70	0x3d5e1abe	0.054224722
71	0xbdeabacf	-0.11461412
72	0xbdb12388	-0.08649355
73	0x3dcdb1f2	0.10043706
74	0x3c248f98	0.010044001
75	0xbd1ba4d3	-0.037998985
76	0xbcdd4792	-0.027011666
77	0xbd65f618	-0.056142896
78	0x3d61fc02	0.055171974
79	0x3d61cd22	0.05512727
80	0x3d679f82	0.056548603
81	0x3dba98e9	0.091111965
82	0x3dc14949	0.09437806
83	0x3d8e3a33	0.06944694
84	0xbbd21c99	-0.0064121005
85	0xbdcda59b	-0.10041352
86	0xbcdc7ad0	-0.02691403
87	0x3d9068fb	0.070512734
88	0xbdc72f24	-0.09725788
89	0xbc48a413	-0.01224615
90	0xbdcc58e5	-0.09977893
91	0x3dd4725f	0.10373377
92	0xbdabf67e	-0.08396624
93	0x3dde9735	0.10868684
94	0x3de6315d	0.11239884
95	0xbdc8e1d4	-0.09808698
96	0x3e089cba	0.13341036
97	0xbdfa1e00	-0.12212753
98	0x3dcf6670	0.1012696
99	0xbdc062d5	-0.09393851
100	0x3d2faec6	0.042891286
101	0xbc463dad	-0.012099666
102	0xbda5c4c5	-0.080941714
103	0x3e070869	0.13186802
104	0xbcbc4275	-0.022980908
105	0xbdd02b32	-0.10164489
106	0x3e03302b	0.12811343
107	0xbda869a0	-0.08223271
108	0xbdec0812	-0.11524977
109	0x3daaaea1	0.08334089
110	0xbd126ec0	-0.03575015
111	0x3db46627	0.088085465
112	0xbd08994b	-0.033349317
113	0xbd226092	-0.039642878
114	0xbdf2a637	-0.11848109
115	0xbc68f429	-0.014218369
116	0xbda761a8	-0.08172923
117	0xbd2dde67	-0.042448428
118	0x3e005ce7	0.1253544
119	0x3dccbb2a	0.09996636
120	0xbdd77fef	-0.10522448
121	0xbdc8848e	-0.09790908
122	0xbcb5f55f	-0.022211729
123	0x3d65dc2a	0.056118168
124	0x3df72853	0.12068238
125	0x3e0e7787	0.13912784
126	0x3d7f01fa	0.062257744
127	0xbe0820be	-0.1329374
128	0xbbc53bc5	-0.006019088
129	0x3d83324d	0.064060785
130	0x3d91570e	0.070966825
131	0x3deb9f91	0.11505044
132	0x3de7d320	0.11319566
133	0xbb66ef58	-0.0035237875
134	0xbe11e360	-0.14246893
135	0xbd34c386	-0.04413178
136	0xbd052c81	-0.032513145
137	0x3d89a387	0.067206435
138	0x3dd5e72c	0.10444483
139	0xbc5e2130	-0.013557717
140	0xbd22581a	-0.0396348
141	0x3d55e264	0.052217856
142	0x3d8a74a3	0.06760528
143	0x3e053a2a	0.13010469
144	0xbd84440a	-0.0645829
145	0x3d93c439	0.07215161
146	0xbd88d50f	-0.06681263
147	0xbdb854cb	-0.09000548
148	0xbcef3980	-0.029202223
149	0xbdf51444	-0.11966756
150	0xbd89bbaa	-0.06725247
151	0xbd97f9fd	-0.07420728
152	0xbdcda1dc	-0.10040638
153	0xbda9d832	-0.08293189
154	0xbd0daed9	-0.034590576
155	0xbd16043c	-0.036625132
156	0xbdbcf659	-0.092266746
157	0xbe0aae4b	-0.1354305
158	0x3daef8b6	0.085435316
159	0x3d448727	0.047980454
160	0x3da5d976	0.08098118
161	0x3d270eae	0.040785484
162	0x3dcc7cfc	0.099847764
163	0xbde0778a	-0.109603
164	0xbd7f9c3e	-0.062404864
165	0x3df3d282	0.119053856
166	0x3db38fca	0.0876766
167	0x3d4d98bb	0.050194483
168	0x3c3e761d	0.01162484
169	0xbc32059c	-0.010865595
170	0xbdf29580	-0.11844921
171	0x3e0d00dc	0.13769859
172	0xbdd2f3dc	-0.10300419
173	0xbc729d79	-0.014808052
174	0xbd4d3863	-0.050102603
175	0xbdbf66d9	-0.093457885
176	0xbd533846	-0.05156734
177	0x3e0f7c8f	0.14012359
178	0x3d814855	0.06312624
179	0x3e0e5854	0.13900882
180	0xbb40fe78	-0.002944855
181	0xbd7e4d20	-0.06208527
182	0xbddfcc20	-0.10927606
183	0x3d9de856	0.0771033
184	0xbc39f944	-0.011350933
185	0xbcc1edea	-0.023673017
186	0x3d688e59	0.05677638
187	0x3d2c012a	0.041993298
188	0xbdfa7fe8	-0.122314274
189	0x3d13d831	0.036094848
190	0xbb786b57	-0.0037905776
191	0x3ba51d41	0.0050388877
192	0xbdd02e72	-0.10165109
193	0x3d07ba59	0.0331367
194	0x3d822dbd	0.0635638
195	0x3d1e3b90	0.038631022
196	0xbcb6d9a7	-0.022320582
197	0xbd7ce227	-0.061739113
198	0x3d101134	0.035172656
199	0x3bda70cc	0.0066662785
200	0x3de56142	0.11200191
201	0x3e0be57e	0.13661763
202	0xbde84052	-0.11340393
203	0x3c232245	0.009956901
204	0x3dc1eb9e	0.094687685
205	0xbdefa49a	-0.11701317
206	0x3d98cb78	0.074606836
207	0x3e10afab	0.14129512
208	0x3d8a0c9a	0.06740685
209	0x3e14e9ca	0.14542308
210	0x3c85be34	0.016326047
211	0xbdcd7770	-0.100325465
212	0x3d6d9e1d	0.058012117
213	0x3b60c840	0.0034299046
214	0x3cc3fed7	0.023925228
215	0x3db70904	0.089372665
216	0x3d28e7a2	0.041236527
217	0xbe00cc81	-0.12578012
218	0xbb13dcdf	-0.002256207
219	0xbdf9aa73	-0.12190714
220	0x3df2d914	0.118578106
221	0x3d809d51	0.06280006
222	0x3e08893a	0.13333598
223	0x3df2e539	0.11860127
224	0xbd634f0b	-0.055495303
225	0x3dd06d9b	0.101771556
226	0x3de7941d	0.11307547
227	0x3e0e75b7	0.13912092
228	0x3c987962	0.018612567
229	0xbce7ae44	-0.028281339
230	0xbdd5d77c	-0.10441491
231	0x3cf82835	0.03029261
232	0x3c8e03b2	0.017335746
233	0xbdcea818	-0.10090655
234	0x3d697e7a	0.057005383
235	0xbd11cb81	-0.035594467
236	0x3de53dfa	0.11193462
237	0x3cf375c3	0.02971924
238	0x3d9fd6ed	0.07804666
239	0x3d90973e	0.07060097
240	0xbb9056b2	-0.004404866
241	0xbddc8a6f	-0.107685916
242	0xbe0ca907	-0.13736354
243	0xbdcf94aa	-0.10135777
244	0xbdff0100	-0.124513626
245	0x3cd57964	0.02605886
246	0xbdcd8a17	-0.10036104
247	0x3daa30d3	0.08310094
248	0x3ddd014a	0.107912615
249	0xbdb28744	-0.08717206
250	0xbd60dfbb	-0.054900866
251	0x3c8c7e10	0.017149955
252	0x3df7d44a	0.12101038
253	0x3df169a6	0.11787729
254	0x3dbd7a0c	0.09251794
255	0xbd02d1bb	-0.031938296

fc2.bias f4 [10]
0	0xbde212ac	-0.11038718
1	0x3d161cf5	0.03664871
2	0x3e1c1a1f	0.1524434
3	0xbd3aecb6	-0.0456359
4	0xbdbe4065	-0.09289626
5	0x3c14c5f9	0.0090804035
6	0x3cfe84ff	0.031069277
7	0xbcbe1663	-0.023204034
8	0xbcfd32c7	-0.030908002
9	0xbe0e1361	-0.1387458

momentum_buffer f4 [10, 1, 5, 5]
0	0xbb627300	-0.0034553409
1	0xbc203e87	-0.009780533
2	0xbbc4bce5	-0.0060039633
3	0x3b3d34b6	0.002887053
4	0x3c9c4d35	0.019079784
5	0xbc231e33	-0.0099559305
6	0xbc277850	-0.010221556
7	0xb8fd6a90	-0.00012083829
8	0x3bedbccf	0.0072551738
9	0x3cdb979a	0.026805688
10	0xbc84f498	-0.016229913
11	0xbc588eb0	-0.013217613
12	0x3a919205	0.0011106139
13	0x3c249e20	0.010047466
14	0x3cb5c455	0.022188345
15	0xbc907470	-0.017633647
16	0xbc28568a	-0.010274539
17	0xb9b0ca18	-0.00033719908
18	0x3c02ec60	0.0079909265
19	0x3c169a82	0.009192111
20	0xbce2e706	-0.027698051
21	0xbcba9010	-0.022773772
22	0xbc6b2eca	-0.014354417
23	0xbbd45b48	-0.006480608
24	0xbc3c9b7a	-0.011511678
25	0x3c187577	0.00930535
26	0x3b216de0	0.002463214
27	0xba6f6930	-0.00091328006
28	0xbc31877e	-0.0108355265
29	0xbcc4b340	-0.024011254
30	0x3c091b7a	0.008368367
31	0x3bdbe381	0.00671047
32	0x3b9441c4	0.0045244414
33	0xbbd02468	-0.006351996
34	0xbc2b5f19	-0.010459685
35	0x3c0c94c4	0.00858039
36	0x3b6d8416	0.003624206
37	0xbbd57d1e	-0.0065151593
38	0xbc393518	-0.011304162
39	0xbc7a6b3c	-0.015284356
40	0x38482750	4.772033e-05
41	0x3b68909c	0.0035486585
42	0xbc50c007	-0.012741095
43	0xbca8254a	-0.020525593
44	0xbb803dc4	-0.003913613
45	0x3c1d1a95	0.009588857
46	0xbb262828	-0.0025353525
47	0xbcbec584	-0.023287542
48	0xbca6f2ea	-0.020379502
49	0xbc470340	-0.012146771
50	0xbc7e936a	-0.015538076
51	0xbb85ef1a	-0.004087341
52	0x3bcfd6cc	0.0063427445
53	0x3c4d5f73	0.012534964
54	0x3bf6b6f7	0.0075291353
55	0xbc69a08c	-0.014259469
56	0xbc3758fa	-0.011190647
57	0x3aa794e6	0.0012785464
58	0x3bb9e4dd	0.0056730346
59	0x3be694fe	0.007036804
60	0xbc8fde36	-0.017562013
61	0xbc833970	-0.0160186
62	0xbc07bbcb	-0.008284519
63	0xbb09c241	-0.0021020325
64	0x3be77cfc	0.00706446
65	0xbc9cd7d7	-0.01914589
66	0xbc334056	-0.010940632
67	0xbc24659e	-0.010033993
68	0xbb11a860	-0.0022225603
69	0x3b7f0e8c	0.0038918583
70	0xbc5c2203	-0.013435843
71	0xbc30493e	-0.01075965
72	0xbb2ce3f6	-0.0026380992
73	0x3b9a0ea0	0.0047014505
74	0x3c2d54b5	0.010579278
75	0xbc74f747	-0.014951534
76	0xbc87a618	-0.016558692
77	0xbca4cac6	-0.020116221
78	0xbce9a3d6	-0.028520506
79	0xbcd64888	-0.026157632
80	0xbc9a89bf	-0.01886451
81	0xbcbb0f0e	-0.022834327
82	0xbd010dee	-0.031507425
83	0xbd1e93de	-0.038715236
84	0xbcea048e	-0.028566625
85	0xbcf783a5	-0.03021414
86	0xbd1d63a6	-0.03842511
87	0xbd1bbf7e	-0.038024418
88	0xbd23c81e	-0.03998577
89	0xbd10f328	-0.035388142
90	0xbd1b4bcc	-0.037914082
91	0xbd5c6014	-0.053802565
92	0xbd3f98ea	-0.04677669
93	0xbd287296	-0.041124903
94	0xbd0c753c	-0.03429149
95	0xbd313470	-0.0432629
96	0xbd5c405a	-0.053772308
97	0xbd3edbae	-0.04659622
98	0xbd049918	-0.032372564
99	0xbc7fccb5	-0.015612771
100	0xbbcc6e30	-0.0062387213
101	0xbc9fceb2	-0.01950774
102	0xbd2b8002	-0.041870125
103	0xbd7047aa	-0.058662094
104	0xbd6a2d05	-0.05717184
105	0xbc540744	-0.012941185
106	0xbcbe3722	-0.023219649
107	0xbd74e890	-0.0597921
108	0xbd91f340	-0.071264744
109	0xbd6d2fe5	-0.057907004
110	0xbb8a3609	-0.0042178673
111	0xbce51d87	-0.027968181
112	0xbd80fb84	-0.06297973
113	0xbda213b5	-0.07913915
114	0xbd889ddd	-0.06670735
115	0x3ba8544d	0.0051370026
116	0xbc405bdd	-0.011740652
117	0xbd5c6a50	-0.053812325
118	0xbd7eb2af	-0.062182125
119	0xbd55bb12	-0.052180357
120	0x3c7696e2	0.015050622
121	0xbc0680da	-0.008209432
122	0xbd4acaab	-0.049509685
123	0xbd800ae3	-0.062520765
124	0xbd69d250	-0.057085335
125	0xb9c5d5c8	-0.00037734048
126	0x3bb6cb4a	0.005578433
127	0x3c134a56	0.008989891
128	0xbb1d9824	-0.0024046982
129	0xbc0c55f4	-0.008565415
130	0x3c456388	0.012047656
131	0x3c65db65	0.0140293585
132	0x3beb900d	0.007188803
133	0xbc537a44	-0.012907568
134	0xbc8a911b	-0.016914895
135	0x3c849231	0.01618299
136	0x3c4fa262	0.012672992
137	0x3ae19ebc	0.0017213444
138	0xbc1a3280	-0.009411454
139	0xbc31e3ba	-0.010857517
140	0x3c97509f	0.01847106
141	0x3c1bb186	0.009502774
142	0xb9ac97f8	-0.00032919622
143	0xbba12824	-0.004918115
144	0xbaf348c8	-0.0018561119
145	0x3c02fb93	0.00799455
146	0x3b8e456e	0.0043417728
147	0xbbdbd9c7	-0.0067093107
148	0xbade5814	-0.0016963505
149	0xbba64e49	-0.0050752503
150	0x3c1822fb	0.009285684
151	0x3c868f84	0.016425855
152	0x3c060e0c	0.00818206
153	0xbcbf6edc	-0.023368292
154	0xbd12bd2d	-0.035824943
155	0x3c0b8b7b	0.008517141
156	0x3ca81c02	0.020521168
157	0x3be2616a	0.0069085853
158	0xbca86b64	-0.02055902
159	0xbd25b17a	-0.040452458
160	0x39cca600	0.00039033592
161	0x3b8ecd99	0.0043580052
162	0xba0ac394	-0.00052934256
163	0xbb8f2a39	-0.004369047
164	0xbcd27a58	-0.025693104
165	0x3b437d28	0.0029829238
166	0xbba01311	-0.0048850854
167	0xbbec7744	-0.007216366
168	0xbc5e923b	-0.013584669
169	0xbc9077c9	-0.017635243
170	0x3c2701ea	0.010193327
171	0xbb8d21d0	-0.0043070093
172	0xbbe17217	-0.0068800556
173	0xbc6255b2	-0.013814377
174	0xbc48bcf5	-0.012252082
175	0xbbb7339a	-0.005590868
176	0xbb157e13	-0.0022810742
177	0xbc086ab9	-0.008326226
178	0xbb4a053c	-0.0030825874
179	0xbc61b5c2	-0.013776245
180	0xbbbf8a54	-0.0058453474
181	0xbb846054	-0.0040398035
182	0xbc7a2522	-0.015267642
183	0xbc271ede	-0.01020023
184	0xbc4b4fcc	-0.012409162
185	0xbc09556b	-0.008382182
186	0xbbf96930	-0.0076114163
187	0xbc7f8d66	-0.015597677
188	0xbc78ed96	-0.015193364
189	0xbc81b965	-0.015835473
190	0xbbbf3698	-0.0058353655
191	0xbbdf7e1b	-0.006820453
192	0xbc739baf	-0.014868661
193	0xbcbe22e5	-0.023209998
194	0xbc9b9d53	-0.018995916
195	0xbafe1bbe	-0.001938693
196	0x3b36f259	0.0027915447
197	0xbc309770	-0.010778293
198	0xbc9b5cc1	-0.018965127
199	0xbc767ab9	-0.015043908
200	0x3c081d8f	0.008307829
201	0x3b04983a	0.0020232336
202	0xba95afa0	-0.0011420138
203	0x3b871bb2	0.0041231746
204	0x3c8f6a6e	0.017506804
205	0x3ba8d0d2	0.0051518464
206	0xbbadf3cf	-0.0053086053
207	0xbc52cf7c	-0.012866851
208	0xbbfadf24	-0.007655995
209	0x3b844b14	0.0040372703
210	0xbc353e71	-0.0110622505
211	0xbc44219e	-0.011970906
212	0xbc80331e	-0.015649375
213	0xbc17dd88	-0.009269126
214	0xbb711cf9	-0.003679095
215	0xbc24d4bd	-0.010060486
216	0xbbcdd35e	-0.0062813004
217	0xbbd5bc80	-0.006522715
218	0xbc62b5a1	-0.013837249
219	0xbc29e61e	-0.010369806
220	0xb967634c	-0.00022066868
221	0x3a859942	0.0010192769
222	0x3b0d4428	0.0021555517
223	0xbbc7c914	-0.0060969684
224	0xbc54e738	-0.01299458
225	0xbc2e0423	-0.010621103
226	0xbb30ffa3	-0.002700784
227	0x3bba62a4	0.0056880284
228	0x3c0b09a9	0.00848619
229	0xbbedb048	-0.0072536804
230	0xba21b525	-0.0006168655
231	0x3b16a953	0.0022989109
232	0x3b313501	0.002703965
233	0xb9b608c2	-0.0003472027
234	0xbc78d7d2	-0.015188174
235	0xbb0a442b	-0.002109776
236	0x3a7c620c	0.0009627647
237	0x3b2d5758	0.0026449766
238	0xbb9c4a94	-0.0047696326
239	0xbca8524f	-0.02054706
240	0xbc1e0e67	-0.0096469885
241	0xbb81daf5	-0.0039628693
242	0x3b6c96a8	0.003610054
243	0xbb7a3c1a	-0.0038182796
244	0xbcdc4d5e	-0.02689236
245	0xbc96e819	-0.01842122
246	0xbbaddf60	-0.0053061694
247	0xbb363030	-0.0027799718
248	0xbca59ced	-0.02021643
249	0xbd10a4a5	-0.035313267

momentum_buffer f4 [10]
0	0xbba4bd66	-0.005027461
1	0xbc296244	-0.01033837
2	0xbade4078	-0.0016956469
3	0xbcb289da	-0.021794248
4	0xbc701ece	-0.014655782
5	0xbbd9460d	-0.006630665
6	0xbba39030	-0.0049915537
7	0x3ba4052b	0.005005499
8	0x3b88aac0	0.0041707456
9	0xbc09c316	-0.0084083285

momentum_buffer f4 [20, 10, 5, 5]
0	0xbc5baf54	-0.013408501
1	0xbbd27488	-0.006422583
2	0xbc4c02bf	-0.012451827
3	0xbbcc2f9f	-0.006231263
4	0xbbed0ad3	-0.0072339564
5	0x3a1a2db8	0.00058814464
6	0xba1ba5a8	-0.00059374655
7	0xbb8d6aac	-0.004315695
8	0x3a027477	0.0004976461
9	0xba8bd22e	-0.0010667497
10	0xbb3be1aa	-0.0028668442
11	0xbbb8e4fa	-0.0056425305
12	0xbb4307c0	-0.0029759258
13	0xbbee0cb2	-0.007264697
14	0xbc85f531	-0.016352268
15	0xbc01a240	-0.007912219
16	0xbb522190	-0.0032063462
17	0x3bdff706	0.0068348674
18	0x3b4da27e	0.003137737
19	0xbb765870	-0.0037589334
20	0xbbf5d99c	-0.0075027477
21	0xbb3fe33a	-0.0029279725
22	0x3bdfb6c6	0.006827208
23	0x3bce5942	0.0062972615
24	0x3ac3fb78	0.0014952263
25	0xbc450e5a	-0.012027347
26	0xbb7df852	-0.0038752747
27	0xbcaa7cbd	-0.020811433
28	0x39e1d320	0.00043072645
29	0xbc189b8e	-0.009314431
30	0xbcd61a3c	-0.026135556
31	0xbd02e607	-0.031957652
32	0xbd3f577a	-0.046714284
33	0xba7119f0	-0.00091972854
34	0xbc821fed	-0.015884364
35	0xbcb853fe	-0.022500988
36	0xbce12524	-0.02748353
37	0xbd1574f0	-0.036488473
38	0xbc2f6d06	-0.010707146
39	0xbcb32998	-0.02187042
40	0xbc4d1167	-0.012516356
41	0xbc8b3a97	-0.016995711
42	0xbcc96d6b	-0.024588307
43	0xbc0ec97a	-0.008715028
44	0xbc3023b0	-0.010750696
45	0xbc81e774	-0.015857436
46	0xbc820146	-0.015869748
47	0xbca1f1b3	-0.019768571
48	0xbc55e4e7	-0.013055063
49	0xbc811ec0	-0.015761733
50	0x3bbd65a2	0.005779938
51	0xbc3e2c3f	-0.011607229
52	0xbc090da3	-0.008365068
53	0xbbd57142	-0.0065137455
54	0xbc964a5d	-0.018346006
55	0x3bb8e7cf	0.005642868
56	0xbbfbf55e	-0.007689162
57	0x3afafe12	0.0019149205
58	0xbc8e6954	-0.017384209
59	0xbc418d62	-0.011813493
60	0xb8255980	-3.942242e-05
61	0xbb9e2c33	-0.0048270463
62	0x3b33c414	0.0027430104
63	0xbcc1b7e6	-0.02364726
64	0xbbe0ae70	-0.006856732
65	0xbc0034c8	-0.007825084
66	0x3a46a0c0	0.0007577054
67	0xbbb87c95	-0.0056300857
68	0xbc5e5eca	-0.013572404
69	0xbb2d7e46	-0.002647297
70	0xbb100990	-0.0021978356
71	0xbbb0cd75	-0.005395586
72	0xbbb4389f	-0.005499914
73	0xbc27a8b1	-0.01023309
74	0xbb89531a	-0.0041908147
75	0xbccf548c	-0.02530887
76	0xbcf004b2	-0.029299114
77	0xbca02e9e	-0.019553479
78	0xbd18295d	-0.037148822
79	0xbc21377b	-0.009839888
80	0xbc876ca4	-0.016531296
81	0xbc2a4f07	-0.010394818
82	0xbd1d9b68	-0.038478285
83	0xbd2b237f	-0.0417819
84	0x3c2efe8f	0.010680809
85	0xbc498d68	-0.01230178
86	0xbc54921a	-0.012974286
87	0xbd2821d1	-0.041047875
88	0xbcd3ac18	-0.025838897
89	0xbb2f0305	-0.002670468
90	0xbc83e27b	-0.016099205
91	0xbcb6cad2	-0.02231351
92	0xbd09e429	-0.033664856
93	0xbc7053f4	-0.0146684535
94	0xbc48be6c	-0.012252431
95	0xbc6b5abb	-0.014364894
96	0xbca2a8d2	-0.01985589
97	0xbc22b566	-0.009930944
98	0xbb92d9b0	-0.004481517
99	0xbc3127b8	-0.010812692
100	0xbc9a690c	-0.018848918
101	0xbca3e7c5	-0.020007977
102	0xbcd9b784	-0.026576765
103	0xbc3e0df8	-0.01160001
104	0xbbf83ed7	-0.0075758505
105	0xbcbcfd16	-0.0230699
106	0xbcd13f88	-0.02554299
107	0xbd0da3dc	-0.034580097
108	0xbc4854e2	-0.012227269
109	0xbbde4a9b	-0.006783796
110	0xbc190da1	-0.009341628
111	0xbca75874	-0.02042792
112	0xbd04823e	-0.03235077
113	0xbc423831	-0.011854217
114	0xbc1ddfb5	-0.009635855
115	0xbc22593e	-0.009908972
116	0xbc57e19e	-0.01317635
117	0xbcc76e44	-0.024344571
118	0xbc3db798	-0.011579417
119	0xbba2c028	-0.0049667545
120	0xbc1ebe83	-0.009688976
121	0xbbbc40e8	-0.005745042
122	0xbc7f5cbc	-0.015586074
123	0xbbcd69be	-0.006268709
124	0xbc406102	-0.011741878
125	0xbb87df08	-0.0041464604
126	0xbaa65afd	-0.0012691912
127	0x3bcb27b6	0.0061998023
128	0xba298aee	-0.00064675405
129	0x3a35e683	0.0006938951
130	0xbc8493e9	-0.01618381
131	0xbc1795a6	-0.009251988
132	0xbb585966	-0.003301227
133	0xbab466f6	-0.0013763595
134	0x3b505f10	0.0031794943
135	0xbc4f9d12	-0.012671726
136	0xbbc49e5e	-0.006000324
137	0xbc329eb2	-0.010902094
138	0xbbe8ac30	-0.0071006045
139	0x3a2f10f4	0.00066782464
140	0xba946bdc	-0.0011323649
141	0xbb0085d0	-0.0019611008
142	0xbc35e86b	-0.011102776
143	0xbba9c385	-0.0051807784
144	0xba0baf30	-0.0005328534
145	0xbafe9a00	-0.0019424558
146	0xbbbe95e2	-0.0058162073
147	0xbc365c56	-0.011130413
148	0xbbadad19	-0.005300176
149	0xbb21eb53	-0.0024706915
150	0xbcd985e6	-0.026553106
151	0xbcf040bc	-0.029327743
152	0xbcd71ba3	-0.026258295
153	0xbcc88bc0	-0.0244807
154	0xbc029980	-0.007971168
155	0xbc6a7f57	-0.014312587
156	0xbcc25475	-0.023721913
157	0xbd2e079c	-0.042487726
158	0xbc351c64	-0.011054132
159	0xbc9b657a	-0.018969286
160	0xbc0cca97	-0.008593223
161	0xbcdce4d6	-0.026964586
162	0xbd08ebb0	-0.033427894
163	0xba4b73f0	-0.00077611115
164	0xbc68afbe	-0.014202056
165	0xbc6a9f46	-0.0143202
166	0xbd034865	-0.032051463
167	0xbd12b586	-0.035817645
168	0xbc6a5186	-0.014301663
169	0xbcf21f5e	-0.029555973
170	0xbcbe4b14	-0.02322916
171	0xbcfc2cb3	-0.030783033
172	0xbce256e2	-0.02762932
173	0xbc156316	-0.009117862
174	0xbc189446	-0.009312695
175	0xbc02059e	-0.00793591
176	0xbabb1324	-0.0014272672
177	0xbbc958f5	-0.0061446377
178	0xbad1a750	-0.0015995298
179	0xbbef7043	-0.007307084
180	0xbc36e5ee	-0.011163218
181	0xbb480ebc	-0.003052636
182	0xbb7d5aeb	-0.0038658928
183	0xbbd7acac	-0.0065818634
184	0x385884a0	5.162193e-05
185	0xbc20a0cc	-0.009803962
186	0xbad774c8	-0.0016438002
187	0xbbf2eb78	-0.007413324
188	0xbbb30f53	-0.0054644733
189	0x3b87e74a	0.004147445
190	0xbb3414a5	-0.0027478125
191	0xba848739	-0.00101111
192	0xbbe5bd42	-0.0070110867
193	0xb9a1a5a0	-0.00030831713
194	0xbaac396e	-0.0013139674
195	0x3b0ed24b	0.0021792825
196	0x3b8b4554	0.004250208
197	0x39f761d8	0.0004718441
198	0xbb015b6a	-0.0019738325
199	0xbbaf129e	-0.0053427955
200	0xbbb85dbe	-0.0056264093
201	0xbb18242c	-0.002321492
202	0xbb6698a3	-0.0035186193
203	0x3b279258	0.0025569405
204	0x397eeaf0	0.00024310849
205	0xbb93e59c	-0.0045134556
206	0xbc0d73aa	-0.0086335335
207	0xbbc31eb5	-0.0059545883
208	0x3b880375	0.0041508027
209	0xbb0bf302	-0.002135456
210	0xbac02d5c	-0.0014661956
211	0xbb662d72	-0.0035122302
212	0x3b49c1a8	0.0030785594
213	0x3a728f1e	0.00092528935
214	0xba3bc6e4	-0.0007163121
215	0xbaaea1ea	-0.0013323401
216	0xbb9222cc	-0.0044597145
217	0xbacef4c3	-0.0015789497
218	0xbb15e7da	-0.002287379
219	0xbb107398	-0.0022041555
220	0xb9ea64b0	-0.00044706976
221	0xba5ae0a0	-0.0008349512
222	0x3a14cd48	0.0005676341
223	0xbbe43741	-0.0069645946
224	0xbbbc61d1	-0.0057489653
225	0xbc1baf0d	-0.009502185
226	0xbc4d5bd0	-0.012534097
227	0xbcc27865	-0.02373905
228	0xbb57c8ec	-0.0032926155
229	0xbc174523	-0.009232792
230	0x3af2aee0	0.0018515252
231	0xbbe12d00	-0.0068718195
232	0xbc350418	-0.011048339
233	0x3c357397	0.011074922
234	0xbc355023	-0.011066469
235	0xbbc89556	-0.006121318
236	0xbc8910f9	-0.016731726
237	0xbc323a9e	-0.010878233
238	0xba1739f8	-0.0005768831
239	0xbc3c442f	-0.011490866
240	0xbc45af07	-0.012065656
241	0xbc26e30a	-0.010185966
242	0xbbe1f2c6	-0.006895396
243	0xbaab730f	-0.0013080555
244	0xbc1d15fc	-0.009587761
245	0xbb8d33e6	-0.0043091653
246	0xbb911baa	-0.0044283466
247	0xbc1ca0c6	-0.009559816
248	0x3a938a6c	0.0011256463
249	0xbb70adf4	-0.0036724778
250	0xbba4de8b	-0.005031412
251	0xb9c707d0	-0.0003796206
252	0x3b40d9b0	0.0029426627
253	0x3b501c88	0.0031755287
254	0x3bbb7554	0.0057207737
255	0xbbf0f296	-0.0073531372

momentum_buffer f4 [20]
0	0xbc7f32e6	-0.0155761
1	0xbbb74255	-0.005592624
2	0x3bb7f1a1	0.005613521
3	0x3af8500e	0.0018944757
4	0x3bcebf9c	0.0063094627
5	0x3be6438b	0.0070270947
6	0xbb6e7be5	-0.0036389765
7	0xbc5f92d8	-0.01364585
8	0xbc7f4062	-0.015579315
9	0x3be97072	0.007124
10	0x3b0f94ea	0.0021908828
11	0xbbad19c4	-0.0052826125
12	0x3a1d3cea	0.00059981516
13	0x3bc814e2	0.006106005
14	0xbadf265e	-0.0017024984
15	0xbc4d1f8e	-0.01251973
16	0xbbea0157	-0.007141273
17	0xbc620322	-0.013794692
18	0x3ba90080	0.0051575303
19	0xbb6f49df	-0.0036512536
