models/model_2020-12-03_00-47-01/checkpoint.pt (torch, 179791 bytes, 16 tensors)

conv1.weight f4 [10, 1, 5, 5]
-0.0717891 0.0058238814 -0.10390481 0.06785198 -0.18208717 0.16214396 -0.14090094 -0.16149917
-0.12945944 0.08334092 -0.05084198 0.083047636 -0.1691754 -0.1196586 -0.07466101 -0.0059957155
-0.13495533 0.14771366 -0.029693758 0.07758035 0.18823223 0.07503714 0.09036431 0.22739977
-0.06160932 0.061891377 -0.08343669 0.1646667 0.20025618 -0.14667027 0.16235103 0.09944555
0.117582776 0.13953517 0.21484485 -0.0402239 -0.16231193 -0.006729411 -0.063687444 0.07357113
-0.05642298 -0.102694 0.033523656 0.26577282 0.041399956 -0.021090696 -0.030127456 0.074374214
0.24260162 0.16896479 0.08961405 0.059459284 0.045038484 0.062318318 -0.04204533 -0.16657531
-0.112154625 0.1630804 -0.008451256 -0.179153 0.0532639 0.17531908 -0.1985545 -0.14989236
-0.09421298 0.03129827 -0.038414475 -0.033276364 -0.20777799 0.08322445 0.20095968 0.12939383
-0.15332216 -0.1709515 0.07971686 0.00529273 0.09567404 -0.15748373 0.0428933 0.18265834
0.09338646 0.026716946 0.09104911 0.04349239 -0.070502885 -0.068843015 -0.08582422 0.23493177
0.17807864 0.10421707 -0.14184855 0.20580634 0.13588446 0.20153864 -0.049755782 0.0638674
0.25269043 0.20184313 0.21069653 -0.019618046 0.14391409 -0.16212952 0.025471445 -0.08872554
-0.016356053 -0.066998765 0.0057224235 0.19273983 0.13268873 0.03867091 0.12788655 -0.10407971
0.1329678 0.033487055 0.01847849 0.011647783 -0.14377749 0.06652883 0.13551962 0.23284742
-0.0702562 0.087809145 0.25111976 -0.014222337 0.2513619 -0.07920552 0.117522016 0.124712065
0.10479122 0.19491486 -0.06582917 0.07956979 0.046545297 -0.10656026 -0.013221422 -0.13281812
0.10813528 0.05516917 0.06275949 -0.030071603 -0.009198495 -0.051886834 0.08626444 0.22817738
0.05105822 -0.101054646 -0.116257235 0.03242207 -0.13470353 -0.14693378 -0.13901766 -0.071833745
0.023616765 0.16411617 0.10873338 0.14918026 -0.118903056 0.039684225 -0.13854283 0.1489594
0.04702024 0.21172284 -0.10384262 0.21087548 0.21062616 0.16363215 0.049628396 0.22229035
0.18502678 0.19401754 -0.02826119 -0.14649822 0.023393648 0.07723003 -0.11132116 -0.121877685
-0.19181688 -0.048707522 0.21450275 0.06762049 -0.025878869 0.0033584568 0.1518086 -0.1297655
-0.12064148 -0.077134214 -0.11735905 0.13384305 0.18674211 -0.16120958 -0.17623964 -0.18835543
0.109078124 0.20512514 -0.12676099 -0.09637931 0.079007424 -0.09625456 0.20899197 0.064637154
-0.059829727 -0.00136351 0.039432403 -0.08886599 -0.1679858 -0.0117153125 -0.013313773 -0.013635648
-0.043074638 0.13095526 -0.06926377 -0.035918385 0.066668645 -0.12748122 0.0715441 -0.055081856
0.08447096 -0.11543738 0.020606311 0.045936946 -0.1672674 -0.14889582 0.07967312 -0.038294148
0.14928837 -0.21983272 -0.12196693 -0.18920304 0.0807872 0.038561247 -0.06731933 -0.060948107
-0.17743397 0.06971974 0.06652106 -0.17132339 0.04497097 -0.021243086 -0.1699896 0.18683878
0.082299024 -0.058481436 -0.14386345 0.056703445 0.23504378 0.17418651 -0.15739533 -0.07350132
0.23067927 0.19035065
00000000: 2a06 93bd 42d6 be3b 0ccc d4bd fbf5 8a3d
00000010: 0f75 3abe 1109 263e 5648 10be 0a60 25be
00000020: 0491 04be a5ae aa3d ae3f 50bd e114 aa3d
00000030: 513c 2dbe 910f f5bd dfe7 98bd b577 c4bb
00000040: bb31 0abe 4042 173e 5340 f3bc 72e2 9e3d
00000050: f3bf 403e 12ad 993d ec10 b93d 7cdb 683e
00000060: 0e5a 7cbd d081 7d3d dbe0 aabd 639e 283e
00000070: f50f 4d3e bb30 16be 593f 263e 1caa cb3d
00000080: 3dcf f03d 4fe2 0e3e 4a00 5c3e d1c1 24bd
00000090: 1935 26be 6482 dcbb 906e 82bd 76ac 963d
000000a0: c81b 67bd 3b51 d2bd 1a50 093d 6013 883e
000000b0: 0093 293d 65c6 acbc dbcd f6bc 8251 983d
000000c0: 8f6c 783e 1b05 2d3e 9287 b73d 948b 733d
000000d0: 467a 383d 7e41 7f3d b937 2cbd b892 2abe
000000e0: 53b1 e5bd 8cfe 263e 2377 0abc e273 37be
000000f0: 3f2b 5a3d d886 333e df51 4bbe 627d 19be
00000100: bcf2 c0bd 9d32 003d 7f58 1dbd cc4c 08bd
00000110: c1c3 54be 9571 aa3d 60c8 4d3e d17f 043e
00000120: 7c00 1dbe e90d 2fbe 9842 a33d a36e ad3b
00000130: c0f0 c33d 6a43 21be e3b0 2f3d ca0a 3b3e
00000140: 6641 bf3d 7fdd da3c f577 ba3d 1425 323d
00000150: d163 90bd 91fd 8cbd 9cc4 afbd f491 703e
00000160: 3f5a 363e c26f d53d bf40 11be e6be 523e
00000170: 4c25 0b3e 2560 4e3e b8cc 4bbd e9cc 823d
00000180: a460 813e f7af 4e3e d5c0 573e 06b6 a0bc
00000190: 375e 133e 4805 26be 7ea9 d03c bcb5 b5bd
000001a0: 21fd 85bc a636 89bd 2b83 bb3b 975d 453e
000001b0: 8edf 073e 6365 1e3d b1f4 023e be27 d5bd
000001c0: b628 083e b929 093d 3460 973c 58d6 3e3c
000001d0: 683a 13be 4440 883d a8c5 0a3e 8e6f 6e3e
000001e0: 7ce2 8fbd 48d5 b33d c592 803e ce04 69bc
000001f0: 82b2 803e 8136 a2bd 62af f03d 0a69 ff3d
00000200: c79c d63d c397 473e 72d1 86bd 7cf5 a23d
00000210: 48a6 3e3d 443c dabd aa9e 58bc 7901 08be
00000220: 0876 dd3d 11f9 613d 0c88 803d b958 f6bc
00000230: 49b5 16bc 4a87 54bd 69ab b03d 55a7 693e
00000240: 6d22 513d bdf5 cebd 4618 eebd 01cd 043d
00000250: b9ef 09be cf75 16be a55a 0ebe 921d 93bd
00000260: f277 c13c 120e 283e 9baf de3d b6c2 183e
00000270: 7283 f3bd ed8b 223d 2cde 0dbe d088 183e
00000280: 4c98 403d dfcd 583e 71ab d4bd beef 573e
00000290: 62ae 573e 308f 273e 2547 4b3d 15a0 633e
000002a0: a977 3d3e 89ac 463e 0384 e7bc a103 16be
000002b0: 09a4 bf3c c72a 9e3d 59fc e3bd 029b f9bd
000002c0: a56b 44be 8a81 47bd 9ca6 5b3e 9d7c 8a3d
000002d0: ecff d3bc 8e19 5c3b b773 1b3e 3fe1 04be
000002e0: e112 f7bd 8bf8 9dbd f159 f0bd 270e 093e
000002f0: 5339 3f3e 2014 25be 2a78 34be 3fe0 40be
00000300: 5a64 df3d 530c 523e a2cd 01be 8462 c5bd
00000310: a5ce a13d 1c21 c5bd fe01 563e 7c60 843d
00000320: 0410 75bd ceb7 b2ba df83 213d 5fff b5bd
00000330: 7804 2cbe 95f1 3fbc 0322 5abc 0e68 5fbc
00000340: 086f 30bd 2319 063e 2ada 8dbd 281f 13bd
00000350: 9289 883d 708a 02be b785 923d 839d 61bd
00000360: 1cff ac3d 6f6a ecbd 91ce a83c 6128 3c3d
00000370: 2548 2bbe 2578 18be a92b a33d 53da 1cbd
00000380: 0ddf 183e d41b 61be ccc9 f9bd 71be 41be
00000390: c273 a53d 66f2 1d3d b8de 89bd b9a4 79bd
000003a0: 40b1 35be 39c9 8e3d 323c 883d 666f 2fbe
000003b0: 7b33 383d fb05 aebc c111 2ebe aa52 3f3e
000003c0: 648c a83d 3b8a 6fbd f150 13be df41 683d
000003d0: 51af 703e f35d 323e 3e2c 21be dc87 96bd
000003e0: 3037 6c3e 48eb 423e

conv1.bias f4 [10]
0.1359698 -0.08711529 0.19913933 -0.14347687 0.0026247697 0.024248054 0.04552406 -0.14512327
0.19706829 0.21876691
00000000: ab3b 0b3e 8069 b2bd 2eeb 4b3e 9aeb 12be
00000010: 5404 2c3b dba3 c63c 7077 3a3d 329b 14be
00000020: 45cc 493e 6f04 603e

conv2.weight f4 [20, 10, 5, 5]
-0.032532986 0.012872149 -0.023763536 0.06581846 0.033699356 0.047737457 0.035889342 0.010894065
0.04052656 0.0040270602 -0.023556076 0.033464853 0.017889148 -0.016599463 -0.00765822 -0.06234479
-0.026279097 -0.036335863 -0.03791459 -0.05908129 0.03852236 -0.07526438 0.04424622 -0.0485193
-0.01620824 0.041351754 0.0013586747 -0.027945923 -0.058098443 -0.0391091 0.06005516 -0.013940201
0.059877843 -0.017606629 -0.014188904 0.04648429 0.022232413 0.022208173 0.05080857 0.027064832
0.017928699 0.056843337 0.08036382 0.024374794 -0.016475383 0.018337965 0.00043714856 -0.051850073
-0.030148454 0.027188255 0.0040574647 0.026331821 -0.031069424 0.058410726 -0.01966963 0.0073198173
-0.037481163 -0.03335477 0.033634756 -0.008579542 -0.052205432 -0.042189676 0.037437588 0.043006953
0.036813326 -0.06655731 0.0128587615 0.0098114405 -0.042722054 -0.0048018666 0.00032622158 -0.048469447
-0.02343149 0.05733221 -0.009173376 -0.0002195331 -0.052760623 -0.051799137 0.062771946 0.02017722
0.0047839843 0.052153356 -0.006054827 -0.035316043 -0.06703016 0.03665496 0.0029147598 0.07833846
0.07739404 0.029816052 0.049779985 0.011405632 0.08515757 -0.015657572 -0.0028304134 0.011109503
-0.0378648 0.03675332 -0.01173307 -0.023320101 0.04938398 0.035573043 -0.03099114 0.0019140246
-0.0028939191 0.07015047 0.052478172 0.06397163 0.04200366 -0.057524182 0.06152149 0.013492226
0.0785262 0.052579567 -0.02656742 0.002776068 0.031525757 0.036165968 -0.054194905 0.007566263
0.017543534 0.029171353 0.014848492 -0.006782658 -0.07125321 0.033003308 -0.060814828 -0.046772588
-0.0016122953 0.016868893 0.029335877 -0.018692587 -0.04108638 -0.008547462 0.0150662325 -0.036817856
-0.056851696 0.026613612 -0.04491357 -0.0416555 0.0606715 -0.031321418 -0.041748475 0.052370753
-0.030079806 0.012641026 0.07878921 -0.011172889 0.06711562 0.05700203 0.039372433 -0.0025645401
-0.045692433 0.031832285 -0.051442914 -0.028430965 -0.022115413 0.04156222 0.010531622 0.032299004
0.06348325 0.032595452 0.063359134 -0.030076906 -0.051528867 -0.031634588 0.06831021 0.087155245
0.0014336709 0.052776143 -0.04287999 0.012693999 0.007593674 -0.022546008 -0.03186629 0.030511662
-0.0055104177 -0.013408792 0.045864493 -0.047416333 0.04514462 0.059164073 -0.04059933 -0.060304623
0.0068300823 -0.051641725 0.024277428 -0.051056482 -0.05240805 0.015397192 -0.024430482 -0.05878303
0.019875426 0.015305172 0.0043361792 0.029461976 -0.029600788 0.048747696 -0.053447742 0.055933457
0.04491454 -0.05838615 -0.003939863 -0.030669438 0.06038042 -0.0046535325 0.033885855 0.050599404
-0.055439055 0.036342334 -0.058779277 -0.018467372 -0.03347719 -0.06647559 -0.062278252 -0.063601226
-0.05223501 -0.04508251 -0.026564095 0.030824188 -0.009906669 -0.06345734 -0.05098194 0.043174345
-0.06178505 -0.031400744 -0.05809427 0.045964133 0.048085622 0.003706463 -0.031337954 -0.008852515
0.016675156 0.028828962 0.0025520383 -0.03211971 0.0006581473 -0.00266252 -0.004833358 0.032333046
-0.03066689 -0.007731376 -0.01747522 0.013884379 -0.04350947 -0.056493744 -0.0663373 0.0035672705
0.034605253 0.05425035 0.024921123 -0.0129279345 0.0130327605 -0.06121609 0.008448649 -0.017819824
00000000: 4f41 05bd b5e5 523c bfab c2bc d4cb 863d
00000010: 5608 0a3d 5a88 433d b400 133d 057d 323c
00000020: 2eff 253d 6ef5 833b acf8 c0bc 7112 093d
00000030: 438c 923c 99fb 87bc cef1 fabb 405d 7fbd
00000040: 4347 d7bc ead4 14bd 544c 1bbd 39ff 71bd
00000050: 9fc9 1d3d 3624 9abd 863b 353d 2cbc 46bd
00000060: 25c7 84bc 7560 293d 8f15 b23a d9ee e4bc
00000070: a2f8 6dbd dd30 20bd 66fc 753d 7165 64bc
00000080: 7842 753d c73b 90bc 9478 68bc 5066 3e3d
00000090: c020 b63c eaed b53c a61c 503d 11b7 dd3c
000000a0: 35df 923c 8fd4 683d c995 a43d a6ad c73c
000000b0: 62f7 86bc 8039 963c 1631 e539 be60 54bd
000000c0: e4f9 f6bc e7b9 de3c 7bf4 843b d5b5 d73c
000000d0: 4e85 febc 1640 6f3d 3422 a1bc 14db ef3b
000000e0: d985 19bd 039f 08bd 99c4 093d 3591 0cbc
000000f0: 5dd5 55bd 15cf 2cbd 2858 193d 0f28 303d
00000100: 92c9 163d 334f 88bd 8ead 523c 2ac0 203c
00000110: 52fd 2ebd fa58 9dbb b808 ab39 e687 46bd
00000120: 65f3 bfbc 2ed5 6a3d ed4b 16bc 7832 66b9
00000130: 861b 58bd 552b 54bd 948e 803d b34a a53c
00000140: f8c2 9c3b c29e 553d 9267 c6bb 8ea7 10bd
00000150: 1c47 89bd 8323 163d 8e05 3f3b ea6f a03d
00000160: c480 9e3d cb40 f43c 19e6 4b3d b0de 3a3c
00000170: 1867 ae3d 4f44 80bc 757e 39bb a204 363c
00000180: 1f18 1bbd a68a 163d 103c 40bc cc09 bfbc
00000190: db46 4a3d 0ab5 113d 22e1 fdbc 02e0 fa3a
000001a0: e8a7 3dbb 0dab 8f3d 5af3 563d 8f03 833d
000001b0: 080c 2c3d 7a9e 6bbd f5fd 7b3d 7f0e 5d3c
000001c0: 58d2 a03d ac5d 573d eba3 d9bc b1ee 353b
000001d0: 2721 013d c422 143d 7afb 5dbd 6aee f73b
000001e0: 75b7 8f3c c3f8 ee3c 1747 733c 0f41 debb
000001f0: 34ed 91bd 7a2e 073d f818 79bd 9d94 3fbd
00000200: a753 d3ba a230 8a3c cb51 f03c 3221 99bc
00000210: 314a 28bd a70a 0cbc 5cd8 763c 52ce 16bd
00000220: 53dd 68bd ca04 da3c 4bf7 37bd f59e 2abd
00000230: ae82 783d e34a 00bd 7300 2bbd b782 563d
00000240: ed69 f6bc 4e1c 4f3c 3d5c a13d 7e0e 37bc
00000250: ea73 893d f67a 693d fd44 213d d811 28bb
00000260: fd27 3bbd 9262 023d ceb5 52bd 0ee8 e8bc
00000270: 622b b5bc 253d 2a3d d38c 2c3c f64b 043d
00000280: 8203 823d cf82 053d 6fc2 813d d863 f6bc
00000290: ef0f 53bd 4593 01bd 39e6 8b3d 737e b23d
000002a0: 03ea bb3a cc2b 583d eea2 2fbd 7efa 4f3c
000002b0: 5bd4 f83b 68b2 b8bc 3a86 02bd 98f3 f93c
000002c0: bc90 b4bb 8db0 5bbc 68dc 3b3d a137 42bd
000002d0: 91e9 383d 0756 723d 7c4b 26bd fb01 77bd
000002e0: e2ce df3b 4686 53bd 75e1 c63c 9a20 51bd
000002f0: d3a9 56bd 8144 7c3c 6f22 c8bc 79c6 70bd
00000300: cad1 a23c 8bc2 7a3c 8216 8e3b 3e5a f13c
00000310: 5a7d f2bc aaab 473d 05ec 5abd 7b1a 653d
00000320: 4ff8 373d 5126 6fbd f719 81bb 793e fbbc
00000330: 7651 773d a97c 98bb e5cb 0a3d 5241 4f3d
00000340: 1014 63bd b3db 143d 8ac2 70bd e348 97bc
00000350: 611f 09bd 5b24 88bd 7b17 7fbd 5c41 82bd
00000360: 61f4 55bd 70a8 38bd f29c d9bc 0283 fc3c
00000370: 954f 22bc ecf5 81bd 70d2 50bd 95d7 303d
00000380: 5212 7dbd 119e 00bd 42f4 6dbd e344 3c3d
00000390: 6ef5 443d 21e8 723b 3a5c 00bd 240a 11bc
000003a0: 569a 883c b72a ec3c 1940 273b f58f 03bd
000003b0: 8587 2c3a ac7d 2ebb 2561 9ebb a86f 043d
000003c0: 2139 fbbc 7c57 fdbb 3128 8fbc 4e7b 633c
000003d0: fc36 32bd fc65 67bd dadb 87bd dec8 693b
000003e0: 3dbe 0d3d 9d35 5e3d 6227 cc3c b0cf 53bc
000003f0: 5c87 553c b9bd 7abd 346c 0a3c e1fa 91bc

conv2.bias f4 [20]
-0.027181935 -0.04235243 0.02937693 -0.0074223108 0.03322016 0.004650447 0.0011294476 0.05189573
0.031201402 0.057821866 -0.042515367 0.03190944 -0.04097745 -0.048514243 0.047013853 0.0341769
-0.036145173 -0.040919524 -0.03551489 0.046496578
00000000: a6ac debc be79 2dbd e3a7 f03c db36 f3bb
00000010: dd11 083d c762 983b f909 943a 9e90 543d
00000020: 159a ff3c 9fd6 6c3d 9824 2ebd 79b3 023d
00000030: f8d7 27bd dfb6 46bd 9991 403d 14fd 0b3d
00000040: f60c 14bd 3b9b 27bd 1078 11bd 3273 3e3d

fc1.weight f4 [50, 320]
0.026894212 0.00531909 -0.04429268 0.024024779 -0.0014135262 0.030474804 0.0002642665 0.029503914
0.00036993454 0.013696681 -0.029563315 0.008479567 0.0017510923 -0.032437947 0.037920352 0.018358292
0.034528222 0.0034716234 0.010804509 0.044541825 -0.045994233 0.0041821846 0.072633326 -0.0011382116
0.037307076 0.0037778788 0.043847833 0.050572094 0.017254133 -0.011893193 -0.056933686 -0.021457277
-0.048136514 -0.007531855 0.02672646 0.022344923 0.0053210473 -0.04662947 0.025425287 0.009114112
-0.027458137 -0.040618904 -0.038496666 0.011028056 -0.029837457 -0.037781954 -0.045602772 -0.031676162
-0.009523453 0.044032343 -0.045239713 -0.049568117 0.05376296 0.029131135 0.004369262 -0.031848654
0.037190452 0.009543811 0.003098803 0.048106547 0.018464182 0.032494705 -0.01837744 0.033229835
-0.02034169 0.0017004868 -0.040033005 -0.034956068 -0.025079599 -0.04503834 0.02255008 0.070234366
0.059055187 -0.0023348052 -0.012445833 0.017450707 0.07351445 0.030816333 -0.031086963 -0.026620803
0.045685567 0.03108829 -0.05685957 -0.04388558 0.030054074 -0.026394142 0.038692392 0.031069465
-0.039747678 0.02805519 -0.004698822 -0.05852287 0.017357092 0.01570596 0.013803833 -0.04499776
-0.00837204 -0.006430037 -0.047771573 0.04208809 -0.020006027 0.023317112 -0.012853054 -0.04575865
-0.028963257 0.0065909144 0.051108375 0.007469473 0.031018224 0.021874353 -0.036859266 0.00025030208
0.061820265 -0.009906887 0.022845771 0.07195561 0.023087801 -0.020529132 -0.033606187 0.023980832
-0.0084985215 0.06365353 -0.046277497 0.05727432 0.049463768 -0.048823502 -0.04347022 0.048313566
-0.003762888 -0.03271023 0.00081294205 -0.0055924915 0.017580884 0.04517149 -0.05264701 -0.021508094
0.016928941 0.07235789 -0.05050682 -0.025507128 0.04914852 0.074375905 0.009996935 0.0100819925
0.027204175 -0.017116066 0.021403832 0.0663409 0.048708018 -0.048857875 0.031959496 0.06209661
0.031147119 -0.016895408 -0.019787492 -0.036255755 -0.0036589447 0.041419175 -0.0135957245 -0.008404248
-0.007920573 0.010543494 0.002589699 -0.0060895095 -0.046695676 0.006433344 -0.03672097 -0.016624697
-0.011238125 -0.010182898 -0.04114476 -0.012320626 0.022350598 0.077847265 0.011310179 0.01055687
0.028388722 0.015023528 -0.043797344 -0.054406624 -0.034538545 -0.012102514 -0.04088212 0.040865615
-0.015142715 -0.022247596 -0.037438963 -0.0241073 -0.041803185 0.054145113 0.020088973 -0.046571173
0.059048824 -0.0063999374 0.011137606 -0.002850934 0.0017409882 0.028076436 0.047403026 0.043562174
0.0642506 0.045608398 -0.0054019853 0.011091748 0.0066886833 -0.020775018 -0.030199941 -0.04245592
-0.05168475 -0.015107383 -0.01901001 -0.05031639 -0.010112987 0.03490091 -0.015002299 -0.015220618
0.010933827 0.036478367 -0.024718698 -0.014326714 0.0127158025 0.0057491027 0.05483032 -0.046043057
0.0024142396 0.02063964 0.004172138 0.034421645 0.025912346 0.055712786 0.051365983 -0.038733847
0.01952969 0.05566492 -0.040803045 -0.013205797 0.009087384 0.04883246 0.028487656 0.022275396
-0.036376778 0.0074757086 0.018941436 0.010068166 0.043191273 0.037840653 0.061549976 -0.036017846
-0.038057603 -0.0019963635 -0.041703787 0.010126258 -0.006558467 0.047077402 0.018028481 -0.00036237002
00000000: 4051 dc3c c34b ae3b 3e6c 35bd 9dcf c43c
00000010: 1246 b9ba 4ca6 f93c 408d 8a39 31b2 f13c
00000020: c6f3 c139 0b68 603c c42e f2bc e2ed 0a3c
00000030: e884 e53a a7dd 04bd 5f52 1b3d 2164 963c
00000040: 776d 0d3d 2d84 633b 6505 313c 7d71 363d
00000050: 7364 3cbd b50a 893b c8c0 943d 0b30 95ba
00000060: 4ecf 183d 4a96 773b c999 333d af24 4f3d
00000070: 8a58 8d3c abdb 42bc 4c33 69bd 2cc7 afbc
00000080: cb2a 45bd c7cd f6bb 73f1 da3c b30c b73c
00000090: 2e5c ae3b 8bfe 3ebd b148 d03c 5b53 153c
000000a0: e3ef e0bc 0260 26bd aeae 1dbd 05af 343c
000000b0: af6d f4bc 40c1 1abd f9c9 3abd ddbe 01bd
000000c0: 4208 1cbc 425b 343d 474d 39bd f007 4bbd
000000d0: 8d36 5c3d 6ba4 ee3c 072c 8f3b bc73 02bd
000000e0: 0455 183d a55d 1c3c 4a15 4b3b 5f0b 453d
000000f0: 3242 973c 2b19 053d 498c 96bc 021c 083d
00000100: 9ea3 a6bc dee2 de3a a6f9 23bd 182e 0fbd
00000110: bb73 cdbc 1f7a 38bd f2ba b83c 09d7 8f3d
00000120: dae3 713d 8803 19bb 9be9 4bbc c9f4 8e3c
00000130: be8e 963d 8972 fc3c 16aa febc df13 dabc
00000140: ca20 3b3d dfac fe3c 95e5 68bd 5ec1 33bd
00000150: f633 f63c 8738 d8bc ea7b 1e3d 6485 fe3c
00000160: 76ce 22bd ffd3 e53c 93f8 99bb adb5 6fbd
00000170: 7630 8e3c c9a9 803c 7929 623c 924f 38bd
00000180: e22a 09bc 0fb3 d2bb 20ac 43bd 9064 2c3d
00000190: aee3 a3bc 8703 bf3c 9e95 52bc 6c6d 3bbd
000001a0: 5a44 edbc 99f8 d73b 0457 513d 7bc2 f43b
000001b0: ee19 fe3c d831 b33c bef9 16bd fa3a 8339
000001c0: 3f37 7d3d 7f50 22bc 0e27 bb3c 765d 933d
000001d0: a122 bd3c b62c a8bc a4a6 09bd 7373 c43c
000001e0: 623d 0bbc c85c 823d 798d 3dbd 7a98 6a3d
000001f0: 859a 4a3d 27fb 47bd d40d 32bd 72e4 453d
00000200: c99a 76bb 2afb 05bd 9e1b 553a 3841 b7bb
00000210: c905 903c be05 393d 64a4 57bd be31 b0bc
00000220: 90ae 8a3c 6030 943d 3de0 4ebd 53f4 d0bc
00000230: f54f 493d 6552 983d 2fca 233c f12e 253c
00000240: 4adb de3c fe36 8cbc 1757 af3c bddd 873d
00000250: 0f82 473d 321f 48bd f6e7 023d 0459 7e3d
00000260: 3e28 ff3c 3d68 8abc 6119 a2bc ea80 14bd
00000270: e8ca 6fbb 27a7 293d 9ac0 5ebc f9b1 09bc
00000280: 4bc5 01bc 9ebe 2c3c f1b7 293b 828a c7bb
00000290: f743 3fbd cdce d23b ba68 16bd 8430 88bc
000002a0: 1d20 38bc 2bd6 26bc 6887 28bd 73dc 49bc
000002b0: 9a18 b73c 636e 9f3d 544e 393c b9f6 2c3c
000002c0: 778f e83c 3e25 763c d864 33bd 7bd9 5ebd
000002d0: 4a78 0dbd 9f49 46bc 0374 27bd b462 273d
000002e0: 2619 78bc 9740 b6bc 9959 19bd ac7c c5bc
000002f0: d139 2bbd 44c7 5d3d a191 a43c 6ac1 3ebd
00000300: 2edd 713d 91b6 d1bb 817a 363c bcd6 3abb
00000310: df31 e43a 8e00 e63c ad29 423d 406e 323d
00000320: d295 833d dfcf 3a3d 2303 b1bb 2aba 353c
00000330: be2c db3b 5f30 aabc de65 f7bc 42e6 2dbd
00000340: 63b3 53bd f584 77bc e1ba 9bbc 8f18 4ebd
00000350: f1b0 25bc 42f4 0e3d 34cc 75bc e65f 79bc
00000360: cb23 333c 576a 153d de7e cabc 98ba 6abc
00000370: f155 503c f862 bc3b c295 603d a597 3cbd
00000380: 3838 1e3b 7614 a93c 6eb6 883b b6fd 0c3d
00000390: 2146 d43c 1733 643d 2365 523d 62a7 1ebd
000003a0: bafc 9f3c e600 643d 1821 27bd 215d 58bc
000003b0: 40e3 143c 8c04 483d f25e e93c e47a b63c
000003c0: d1ff 14bd caf6 f43b 122b 9b3c f3f4 243c
000003d0: 55e9 303d cdfe 1a3d d41b 7c3d 7387 13bd
000003e0: 4ae2 1bbd 6cd5 02bb 97d1 2abd 9be8 253c
000003f0: 69e8 d6bb 3cd4 403d 77b0 933c 7bfc bdb9

fc1.bias f4 [50]
0.035807535 -0.04692991 0.017835977 0.015863918 -0.025862524 -0.042119294 -0.018203363 0.022960996
0.009719242 -0.030838028 -0.008988441 -0.026716778 0.024235351 0.016617125 0.039536174 0.02102984
0.020213446 -0.006447754 -0.046354264 0.008264374 0.0507396 0.037893333 0.01739611 -0.028784957
-0.043417603 -0.0028995846 -0.032193333 0.031461272 -0.047557075 -0.027339226 -0.04679389 -0.015435809
0.004698922 -0.040280107 -0.024092775 -0.017327258 0.048103582 -0.010435727 0.024639169 0.030964665
-0.01669923 -0.0065269116 -0.037257247 -0.023841655 -0.008193217 0.036458988 -0.003207304 0.019607253
0.004166428 0.004127794
00000000: ecaa 123d 9439 40bd c11c 923c 0cf5 813c
00000010: a5dd d3bc 4885 2cbd 381f 95bc b318 bc3c
00000020: 753d 1f3c 08a0 fcbc 4144 13bc 25dd dabc
00000030: 3789 c63c a320 883c aff0 213d c546 ac3c
00000040: ab96 a53c ae47 d3bb f8dd 3dbd 4c67 073c
00000050: 54d4 4f3d 0a36 1b3d 4982 8e3c 6ece ebbc
00000060: a8d6 31bd f506 3ebb 28dd 03bd 89dd 003d
00000070: 35cb 42bd 83f6 dfbc f3aa 3fbd 7ae6 7cbc
00000080: 6af9 993b c1fc 24bd 365e c5bc e5f1 8dbc
00000090: 4308 453d 9dfa 2abc 15d8 c93c 9ca9 fd3c
000000a0: d3cc 88bc b4df d5bb 0e9b 18bd 934f c3bc
000000b0: d83c 06bc 0556 153d a231 52bb 649f a03c
000000c0: 8886 883b 7242 873b

fc2.weight f4 [10, 50]
0.14670165 -0.0915902 0.12632053 -0.10396851 -0.14364396 -0.008145692 0.10141709 -0.1287455
-0.0028055934 0.001170074 -0.0876491 0.10209489 0.02442248 -0.017077701 -0.02725582 -0.048685532
-0.16614477 -0.19738168 0.08423894 -0.029285884 0.10634334 0.0017274879 -0.05372619 0.10071792
-0.024504894 0.09303685 -0.080096014 0.022808066 -0.039444204 0.106906496 -0.10248563 0.095058255
0.11669743 0.008966269 0.09109547 0.037181158 0.17954081 0.109603964 0.14362344 0.17174715
0.012777106 0.12711942 -0.06126814 0.07945651 -0.05943723 0.02647144 0.052997325 -0.030068632
0.070354685 0.10773027 -0.081768714 -0.014650433 -0.09199822 0.13654731 0.09596433 0.082253635
0.107862525 0.14238316 -0.18226743 -0.16767848 0.002370449 0.036348335 0.06966594 0.0647037
-0.10889403 0.21257475 -0.07336555 0.20486479 0.10356645 0.08229355 0.03360341 -0.15966143
-0.14211033 0.1099139 0.03300127 -0.0660255 -0.029254908 -0.07758188 0.07741594 0.055103816
0.026399475 0.12733726 0.09721823 0.06989273 -0.011325555 -0.097658925 -0.06192431 0.05468099
-0.10336592 -0.06842987 -0.14744203 0.10259917 -0.13473429 0.10687107 0.15980718 -0.10504895
0.13923787 -0.14345366 0.097077474 -0.13246927 0.060574736 -0.025030151 -0.106635034 0.1357356
-0.04080933 -0.09811948 0.15272164 -0.0527872 -0.11543326 0.11515616 -0.027961945 0.090512775
-0.04829655 -0.044846818 -0.11527103 0.00096881704 -0.10906929 -0.061961822 0.1581409 0.12329515
-0.106048904 -0.09710807 0.0046550427 0.06797517 0.14042577 0.1511323 0.06349614 -0.13611658
0.02157918 0.11344822 0.084995754 0.1230108 0.13150659 0.026160559 -0.13983507 -0.044121206
-0.037812006 0.08443266 0.09246824 0.017003305 -0.02295208 0.050241727 0.08841763 0.1307562
-0.04278765 0.078399666 -0.082056984 -0.08768175 -0.035427313 -0.1305042 -0.085702375 -0.07606877
-0.1242799 -0.07644679 -0.034406047 -0.0347129 -0.11907063 -0.16478202 0.093027815 0.060615722
0.09325946 0.050240863 0.14855133 -0.123900935 -0.06463807 0.13105468 0.071417846 0.11439131
0.013048645 -0.0052723275 -0.13232148 0.19385505 -0.1349101 -0.024131194 -0.038249463 -0.09427314
-0.054777823 0.1282209 0.057477783 0.17048916 0.022239052 -0.07124403 -0.11163364 0.07454481
0.0074884505 -0.02679658 0.0408037 0.07582068 -0.11812955 0.011372925 -0.0019954666 0.004727765
-0.08921579 0.03257989 0.06572675 0.019270083 -0.050551016 -0.077508025 0.02817941 0.056698374
0.076672316 0.112793215 -0.102128565 0.0051000775 0.13364786 -0.124172464 0.09306597 0.15572666
0.07193886 0.110088676 0.018773196 -0.11636443 0.030588813 -0.011319711 0.023793347 0.07806996
0.07877579 -0.13411576 -0.008804545 -0.1147627 0.105691865 0.02199148 0.15143624 0.11191983
-0.06532891 0.088707626 0.11318004 0.1387253 -0.0031030898 -0.04596871 -0.09246707 0.039514583
0.00959205 -0.114475764 0.03984965 -0.035224244 0.10578287 -0.0019681617 0.07057669 0.04720137
0.025990607 -0.11024823 -0.12595084 -0.101675875 -0.1218233 0.048626114 -0.09387806 0.079154596
0.1098344 -0.1320676 -0.077075936 0.030973885 0.124786966 0.11528082 0.112177275 -0.03272647
00000000: f538 163e a593 bbbd 2b5a 013e 71ed d4bd
00000010: 6717 13be 8275 05bc c3b3 cf3d dcd5 03be
00000020: 0cde 37bb 2b5d 993a 5f81 b3bd 2017 d13d
00000030: a711 c83c 89e6 8bbc 9947 dfbc 7b6a 47bd
00000040: db21 2abe 6c1e 4abe 7785 ac3d f3e8 efbc
00000050: 89ca d93d e06c e23a fe0f 5cbd 3245 ce3d
00000060: 7dbe c8bc 1b8a be3d 6109 a4bd fbd7 ba3c
00000070: 3f90 21bd cbf1 da3d fce3 d1bd e7ad c23d
00000080: 10ff ee3d 42e7 123c 4390 ba3d 454b 183d
00000090: 8cd9 373e 0b78 e03d 0612 133e 7cde 2f3e
000000a0: 1157 513c 982b 023e 4df4 7abd 18ba a23d
000000b0: 7474 73bd a2da d83c b913 593d 7e52 f6bc
000000c0: 1e16 903d b0a1 dc3d 5b76 a7bd 5f08 70bc
000000d0: 9069 bcbd 0fd3 0b3e f288 c43d 9874 a83d
000000e0: 07e7 dc3d e4cc 113e 50a4 3abe e8b3 2bbe
000000f0: 8959 1b3b fee1 143d 04ad 8e3d 6083 843d
00000100: d503 dfbd 32ad 593e ad40 96bd 13c8 513e
00000110: a61a d43d 8589 a83d bba3 093d 497e 23be
00000120: 5f85 11be 8a1a e13d 572c 073d 6138 87bd
00000130: fda7 efbc 40e3 9ebd 408c 9e3d 8ab4 613d
00000140: b643 d83c b364 023e 5a1a c73d eb23 8f3d
00000150: d28e 39bc 6701 c8bd 58a4 7dbd 2cf9 5f3d
00000160: 83b1 d3bd f624 8cbd 0bfb 16be 831f d23d
00000170: c9f7 09be 38df da3d 7ea4 233e e723 d7bd
00000180: 5f94 0e3e 84e5 12be 8ed0 c63d 06a6 07be
00000190: 371d 783d 080c cdbc 7863 dabd 46fe 0a3e
000001a0: af27 27bd def2 c8bd 1063 1c3e 6437 58bd
000001b0: 4668 ecbd fed6 eb3d 7310 e5bc c35e b93d
000001c0: 9ad2 45bd 4cb1 37bd 3813 ecbd 36f8 7d3a
000001d0: b85f dfbd aecb 7dbd b0ef 213e 2b82 fc3d
000001e0: 2b30 d9bd 99e0 c6bd 5489 983b 9136 8b3d
000001f0: c6cb 0f3e 6dc2 1a3e 440a 823d 2562 0bbe
00000200: d2c6 b03c 8a57 e83d 4112 ae3d 16ed fb3d
00000210: aaa9 063e ab4e d63c ed30 0fbe 70b8 34bd
00000220: c3e0 1abd 08eb ac3d fd5f bd3d 844a 8b3c
00000230: 0006 bcbc 45ca 4d3d 4d14 b53d f4e4 053e
00000240: 1a42 2fbd 0190 a03d 7e0d a8bd 7d92 b3bd
00000250: 3b1c 11bd e5a2 05be ba84 afbd f1c9 9bbd
00000260: 7686 febd 2290 9cbd 5bed 0cbd 1d2f 0ebd
00000270: 4ddb f3bd 9ebc 28be 5e85 be3d 3148 783d
00000280: d1fe be3d 5dc9 4d3d d71d 183e c6bf fdbd
00000290: f760 84bd 3333 063e 8543 923d fe45 ea3d
000002a0: fcc9 553c 7dc3 acbb 487f 07be f081 463e
000002b0: e025 0abe c8ae c5bc 78ab 1cbd 4712 c1bd
000002c0: b65e 60bd 574c 033e d36d 6b3d b694 2e3e
000002d0: ac2e b63c 64e8 91bd 2ea0 e4bd f3aa 983d
000002e0: ad61 f53b 8084 dbbc c821 273d df47 9b3d
000002f0: e8ed f1bd 8155 3a3c 60c6 02bb 5eeb 9a3b
00000300: c5b6 b6bd 7e72 053d bf9b 863d 4bdc 9d3c
00000310: 950e 4fbd 87bc 9ebd 82d8 e63c 8e3c 683d
00000320: 6006 9d3d 2100 e73d c828 d1bd 8d1e a73b
00000330: fcda 083e 224e febd 5f99 be3d cf76 1f3e
00000340: ae54 933d 2c76 e13d 3fca 993c 7950 eebd
00000350: 6495 fa3c 4f76 39bc 44ea c23c 25e3 9f3d
00000360: 3455 a13d a455 09be f040 10bc b508 ebbd
00000370: fa74 d83d 7a27 b43c 1a12 1b3e 3936 e53d
00000380: 2acb 85bd 58ac b53d f0ca e73d 010e 0e3e
00000390: 355d 4bbb b049 3cbd 605f bdbd 0bda 213d
000003a0: f927 1d3c 4572 eabd 6339 233d 4c47 10bd
000003b0: b0a4 d83d 46fc 00bb 838a 903d 3956 413d
000003c0: 41ea d43c d3c9 e1bd 42f9 00be 713b d0bd
000003d0: 7f7e f9bd 2d2c 473d 2443 c0bd ce1b a23d
000003e0: dcf0 e03d bb3c 07be fdd9 9dbd f2bc fd3c
000003f0: 4f90 ff3d 5a18 ec3d 33bd e53d 310c 06bd

fc2.bias f4 [10]
-0.16597576 0.038199075 0.15560403 -0.0053152307 -0.13448781 0.039524607 0.01844735 -0.003072977
-0.005014051 -0.15044461
00000000: 8df5 29be a276 1c3d aa56 1f3e 632b aebb
00000010: 2cb7 09be 8ee4 213d e61e 973c 0064 49bb
00000020: e94c a4bb 270e 1abe

momentum_buffer f4 [10, 1, 5, 5]
-0.0036790185 0.0032684878 0.006366201 0.025596986 0.020115277 -0.023697764 -0.0134327095 0.0036331946
0.012117582 0.014522097 -0.04157244 -0.021222435 8.055614e-05 0.0036497037 0.0028887126 -0.06975457
-0.049265362 -0.036427613 -0.019827388 -0.024972294 -0.090597406 -0.08802122 -0.073718205 -0.057690334
-0.04635418 -0.02175841 -0.0076489337 0.0036035092 0.010364765 0.01948173 0.009746306 0.014279366
0.007271476 0.0071733342 0.0060760826 0.043146815 0.04412074 0.02067632 0.014942942 -0.004092398
0.05851067 0.04774464 0.034008607 0.017686142 -0.01435741 0.043499 0.03277824 0.020263704
0.0013437886 -0.018509071 -0.00943632 -0.032202125 -0.018967658 -0.00884271 -0.0040498404 -0.017009944
-0.033246446 -0.016636895 0.009327382 0.018224068 -0.031836115 -0.041765776 -0.01597906 0.0053668655
0.013212879 -0.034392245 -0.035169255 -0.0061923754 0.013548646 -0.0014372543 -0.036004853 -0.020332934
-0.0017577815 0.004607096 -0.014601821 0.032866612 0.009288908 -0.02392968 -0.054379456 -0.03808775
0.021415919 0.0007540611 -0.031475272 -0.054413673 -0.02966577 0.0074132322 -0.012077637 -0.033827588
-0.054014653 -0.02016617 0.0003639534 -0.032881677 -0.042656913 -0.03941466 -0.0153785255 -0.03579846
-0.049162783 -0.049552288 -0.035605386 -0.011099536 0.00797095 0.012273688 0.010736247 0.020424848
0.02773346 -0.0060443617 -0.004553359 -0.005388876 0.014242714 0.014972724 -0.021851426 -0.02045307
-0.026734939 -0.0017595999 -0.0009799507 -0.028887536 -0.028892642 -0.048558198 -0.042981133 -0.03936947
-0.046003982 -0.052407265 -0.0652595 -0.06752573 -0.072591364 -0.049049564 -0.06350529 -0.065063395
-0.065494254 -0.044570636 -0.035566837 -0.0549566 -0.06473222 -0.050922334 -0.046269637 -0.01982309
-0.033889502 -0.045393877 -0.057342105 -0.05534121 -0.0077363383 -0.0046078814 -0.018764405 -0.031746108
-0.041387573 0.005362133 0.0039673387 0.0037227273 0.00656417 0.007930687 0.0055866456 0.0057696626
-0.009752181 -0.023333915 -0.018912736 -0.025641683 -0.027873881 -0.018577782 -0.022931099 -0.02158982
-0.071657166 -0.062058706 -0.047221422 -0.04223317 -0.042412233 -0.07104542 -0.053628705 -0.041046992
-0.039481692 -0.049676996 -0.019861978 -0.014709445 -0.002429214 -0.011046337 -0.02079522 0.022100674
0.020619117 0.012124275 -0.0055619637 -0.014782537 0.029334923 0.029061055 0.008368033 -0.016791815
-0.008225331 0.019370228 0.02380779 0.0058838655 -0.0016066264 0.0072394228 0.016592748 0.018638946
0.008130623 -0.0013391105 0.0106088845 0.009417757 0.002146814 -0.00843675 -0.0008590417 0.021173816
0.0072261784 0.014257438 0.017728813 0.011868533 0.01532521 0.016300958 0.021729127 0.023536796
0.017205885 0.0153080365 0.018190615 0.017815053 0.014228117 0.0069694025 0.011525635 0.021545451
0.011853737 0.008140468 -0.014498891 -0.013551905 0.008510839 0.014311386 0.0045933276 -0.01743753
-0.014323826 0.05326858 0.04995667 0.046808112 0.032969363 0.010643847 0.043857478 0.04168505
0.03263428 0.03310247 -0.00036263443 0.031075811 0.033393208 0.022344656 0.014325076 -0.023872007
0.01987901 0.02269414 0.019082924 -0.0016888981 -0.03627469 0.0017121537 -0.0025612917 -0.013508119
-0.035567384 -0.061405215
00000000: b01b 71bb 2034 563b 919b d03b c5b0 d13c
00000010: cbc8 a43c d021 c2bc de14 5cbc e41a 6e3b
00000020: d388 463c 17ee 6d3c dd47 2abd acda adbc
00000030: 40f0 a838 de2f 6f3b 8e50 3d3b 7cdb 8ebd
00000040: 7aca 49bd 1f35 15bd 0c6d a2bc b292 ccbc
00000050: 228b b9bd 7844 b4bd 92f9 96bd b34c 6cbd
00000060: e1dd 3dbd b13e b2bc e8a3 fabb da28 6c3b
00000070: fad0 293c 2698 9f3c f8ae 1f3c 00f4 693c
00000080: 9045 ee3b 4a0e eb3b e019 c73b b7ba 303d
00000090: f3b7 343d 6361 a93c 3ed3 743c 8619 86bb
000000a0: e2a8 6f3d e28f 433d 9c4c 0b3d 87e2 903c
000000b0: 583b 6bbc 022c 323d 7a42 063d 1100 a63c
000000c0: 1022 b03a 56a0 97bc cb9a 1abc 60e6 03bd
000000d0: 1062 9bbc 04e1 10bc 86b4 84bb 7058 8bbc
000000e0: 6d2d 08bd 194a 88bc e0d1 183c a44a 953c
000000f0: 9666 02bd 9712 2bbd 85e6 82bc 88dc af3b
00000100: d57a 583c e2de 0cbd a30d 10bd 69e9 cabb
00000110: 24fb 5d3c 4062 bcba d379 13bd 4191 a6bc
00000120: 5c65 e6ba 1ff7 963b 7a3c 6fbc 249f 063d
00000130: 8130 183c 2d08 c4bc febc 5ebd e701 1cbd
00000140: 7070 af3c 2fac 453a 37ec 00bd dfe0 5ebd
00000150: a105 f3bc b3ea f23b 48e1 45bc cc8e 0abd
00000160: 783e 5dbd 8633 a5bc 00d1 be39 f0ae 06bd
00000170: 04b9 2ebd 4471 21bd 36f6 7bbc 68a1 12bd
00000180: ea5e 49bd 57f7 4abd f4d6 11bd d4da 35bc
00000190: 9698 023c 9417 493c 15e7 2f3c 0352 a73c
000001a0: 4831 e33c c80f c6bb 5834 95bb 2b95 b0bb
000001b0: 465a 693c 2850 753c c301 b3bc 328d a7bc
000001c0: 3b03 dbbc 60a2 e6ba b071 80ba 8ea5 ecbc
000001d0: 43b0 ecbc f6e4 46bd fc0c 30bd e241 21bd
000001e0: ac6e 3cbd 00a9 56bd c6a6 85bd ee4a 8abd
000001f0: c8aa 94bd 32e8 48bd 100f 82bd f53f 85bd
00000200: da21 86bd b38f 36bd 88ae 11bd 2c1a 61bd
00000210: 5392 84bd f093 50bd 3b85 3dbd 0864 a2bc
00000220: b8cf 0abd eeee 39bd 8edf 6abd 77ad 62bd
00000230: 1c81 fdbb b6fd 96bb cfb7 99bc 3508 02bd
00000240: 0486 29bd d5b4 af3b 7300 823b 00f9 733b
00000250: 4018 d73b b6ef 013c 2e10 b73b 700f bd3b
00000260: 9dc7 1fbc c426 bfbc e2ee 9abc 820e d2bc
00000270: c457 e4bc 6f30 98bc 00da bbbc 22dd b0bc
00000280: fec0 92bd 4531 7ebd 406b 41bd b0fc 2cbd
00000290: 73b8 2dbd 4380 91bd c6a9 5bbd e420 28bd
000002a0: 8eb7 21bd 1b7a 4bbd 96b5 a2bc e2ff 70bc
000002b0: 7333 1fbb b2fb 34bc bd5a aabc 790c b53c
000002c0: 6ce9 a83c e5a4 463c 2241 b6bb 7432 72bc
000002d0: cb4f f03c 7311 ee3c 131a 093c fd8e 89bc
000002e0: 8ac3 06bc 50ae 9e3c 8e08 c33c 71cd c03b
000002f0: 7095 d2ba ae38 ed3b 84ed 873c b4b0 983c
00000300: 4e36 053c 1885 afba e3d0 2d3c f04c 1a3c
00000310: 90b1 0c3b 4b3a 0abc 5031 61ba b674 ad3c
00000320: 94c9 ec3b 0798 693c 043c 913c 3c74 423c
00000330: 9716 7b3c 9689 853c 4801 b23c 3dd0 c03c
00000340: 5bf3 8c3c 8fce 7a3c 7c04 953c e0f0 913c
00000350: 0c1d 693c 965f e43b 04d6 3c3c 1680 b03c
00000360: 2d36 423c 995f 053c c28c 6dbc cf08 5ebc
00000370: 0c71 0b3c 4e7a 6a3c a083 963b 27d9 8ebc
00000380: 7bae 6abc 2830 5a3d 5d9f 4c3d ddb9 3f3d
00000390: e20a 073d 8863 2e3c e6a3 333d f1bd 2a3d
000003a0: 86ab 053d 7596 073d f81f beb9 b392 fe3c
000003b0: 51c7 083d 240c b73c b9b3 6a3c 3a8f c3bc
000003c0: 4ed9 a23c 10e9 b93c cb53 9c3c 045e ddba
000003d0: c594 14bd 586a e03a 58db 27bb 2851 5dbc
000003e0: 1baf 11bd 0984 7bbd

momentum_buffer f4 [10]
-0.018636229 0.009790709 -0.04235701 0.001723934 -0.017430672 -0.03687518 -0.0144910645 0.002359306
-0.025164057 -0.022174716
00000000: 01ab 98bc 3669 203c 8b7e 2dbd a0f5 e13a
00000010: c5ca 8ebc 6e0a 17bd ee6b 6dbc 969e 1a3b
00000020: da24 cebc c0a7 b5bc

momentum_buffer f4 [20, 10, 5, 5]
-0.023370339 -0.011902992 -0.00025591397 0.0112390015 0.017281454 -0.014127552 -0.018386256 -0.015543581
-0.0058532185 -0.0071408153 -0.0025543368 0.0022564316 0.009920841 -0.0029247892 -0.0042182896 -0.0017029607
0.017076772 0.017316615 0.0004968764 0.010583133 -0.00046985247 0.012225047 0.016967583 0.020270728
0.02105425 0.04285608 0.045978934 0.042288613 0.044518482 0.049260333 0.017662406 -0.010416124
0.024926461 0.04772918 0.040840868 -0.021320924 -0.060046457 0.00032746978 0.000654323 -0.009651665
-0.0009704456 -0.039386768 -0.011282849 -0.006042714 -0.00319992 0.0019174027 -0.025330758 -0.002179685
0.019093309 0.010376164 0.014302427 0.014371643 -0.0025833272 -0.0043501942 0.0065700663 0.019672422
0.029845685 0.014669098 -0.0021235256 0.019592632 0.01633356 0.036992107 0.009925196 0.014062135
0.027121406 0.017314985 0.028179388 0.010561376 0.023469977 0.020171147 0.0016974418 0.012697127
-0.0028757392 0.0042746486 0.00010919594 0.049302425 0.021389414 0.033248134 0.047216445 0.066829935
0.0042100484 -0.006973622 -0.003263298 0.04289089 0.029459732 0.019007169 -0.037301634 -0.03923907
0.02169144 -0.010968218 -0.004056804 -0.050950468 -0.017652106 0.0035772184 -0.012354043 0.006583823
-0.025307842 -0.007920925 0.02463106 0.048030805 0.01927898 0.022702757 0.030710319 0.046882644
0.058289908 -0.008185741 -0.024697794 0.008916415 0.031648755 0.025054019 -0.010230423 -0.037666716
-0.012993756 -0.0005176291 -0.022091059 -0.008625882 -0.030780312 -0.0111152865 -0.0013120137 -0.005447613
0.005759242 -0.0010193381 0.012637175 0.03214093 0.029098589 0.037816808 0.035946097 0.024043147
0.022169586 0.024776157 0.028714497 0.013774159 0.01645306 0.028589461 0.02792429 0.016003821
0.0023061587 0.014908564 0.025589166 0.020704959 0.0013950057 -0.020623473 -0.010384086 0.008866133
-0.003034115 0.005335928 -0.012420515 -0.0038174018 0.006778568 0.0025176413 0.04921095 0.0443918
0.043316796 0.072165154 0.060059104 0.0037474884 -0.0042116735 0.008952659 0.041692693 0.0408777
-0.020965846 -0.028154671 0.012686526 0.011287444 0.0007192986 -0.029217865 -0.045520052 -0.025033321
-0.0131087825 -0.02697698 -0.01454867 -0.016840324 0.0040665288 0.016162347 0.012593657 0.0122320205
0.00083608704 0.0036901059 0.004660731 0.014797181 0.010966792 -0.0031898199 0.0099573685 0.025284879
0.0051071737 0.015705548 -0.010170518 0.019218728 0.027042348 -0.0005674786 0.03021023 -0.0052603916
0.018255146 0.022495933 0.004295958 0.019591967 -0.002037705 0.012798687 0.011197165 0.0063484814
-0.003612244 0.0012847506 0.011623295 0.009156896 0.0037585897 0.0034633728 0.008233106 0.027657788
0.015908783 0.00038194237 0.0045536878 0.008670953 0.025253225 0.013372688 -0.0018359127 0.0032076105
0.015999127 0.020206261 0.016449938 0.006729792 0.005865646 0.007171025 0.012206799 0.014106462
0.00941096 -0.0017207975 0.0022043101 0.010519413 0.03511001 0.022841493 -0.0091557065 -0.001462942
0.027268067 0.018100968 -0.000470371 -0.0033048354 0.010877954 0.043546855 0.0104785515 -0.007883943
-0.003210139 0.016440624 0.03992421 0.0128408875 -0.001776508 -0.014429664 0.013174631 0.04226989
0.03568524 0.006486206 0.019970192 0.010229637 0.0039827 0.00568735 0.009859398 0.0104826065
00000000: 2773 bfbc c404 43bc 312c 86b9 ca23 383c
00000010: d691 8d3c 3f77 67bc c69e 96bc 81aa 7ebc
00000020: 5bcc bfbb 80fd e9bb a966 27bb a4e0 133b
00000030: 068b 223c d2ad 3fbb 9439 8abb e135 dfba
00000040: 96e4 8b3c 93db 8d3c d040 023a e164 2d3c
00000050: 8856 f6b9 904b 483c 9aff 8a3c cc0e a63c
00000060: f679 ac3c db89 2f3d 6854 3c3d d336 2d3d
00000070: 0359 363d 34c5 493d c0b0 903c 64a8 2abc
00000080: 9432 cc3c ac7f 433d c148 273d 38a9 aebc
00000090: 46f3 75bd 40b0 ab39 e086 2b3a 0422 1ebc
000000a0: 8065 7eba 0554 21bd b3db 38bc f601 c6bb
000000b0: c0b5 51bb 5c51 fb3a 7382 cfbc 0cd9 0ebb
000000c0: 9269 9c3c c900 2a3c ba54 6a3c 0a77 6b3c
000000d0: 0a4d 29bb 138c 8ebb b649 d73b 0f28 a13c
000000e0: f07e f43c a856 703c d92a 0bbb ba80 a03c
000000f0: f5cd 853c 0985 173d 4a9d 223c de64 663c
00000100: b62d de3c 28d8 8d3c 76d8 e63c 9f09 2d3c
00000110: 1c44 c03c f63d a53c b27c de3a 9c07 503c
00000120: e676 3cbb 5a12 8c3b 2000 e538 57f1 493d
00000130: da38 af3c 322f 083d 0866 413d 22de 883d
00000140: 72f4 893b fb82 e4bb 0edd 55bb 5cae 2f3d
00000150: 8955 f13c ecb4 9b3c 99c9 18bd 26b9 20bd
00000160: 3fb2 b13c 0ab4 33bc f0ee 84bb 70b1 50bd
00000170: 269b 90bc c46f 6a3b 9d68 4abc 1cbd d73b
00000180: 6452 cfbc c4c6 01bc 14c7 c93c f3bb 443d
00000190: f4ee 9d3c 22fb b93c 3594 fb3c 0408 403d
000001a0: 66c1 6e3d 7c1d 06bc 0753 cabc 2816 123c
000001b0: 20a2 013d 163e cd3c 819d 27bc 6a48 1abd
000001c0: c3e3 54bc 80b1 07ba 4ff8 b4bc 9253 0dbc
000001d0: fe26 fcbc e41c 36bc e0f7 abba e481 b2bb
000001e0: 06b8 bc3b 509b 85ba 270c 4f3c 35a6 033d
000001f0: 2a60 ee3c cce5 1a3d 373c 133d 22f6 c43c
00000200: fe9c b53c 5ef7 ca3c aa3a eb3c 03ad 613c
00000210: 91c8 863c 7234 ea3c 7bc1 e43c 721a 833c
00000220: ec22 173b 0d43 743c 5fa0 d13c 729d a93c
00000230: a0d8 b63a 8ff2 a8bc 0322 2abc 4243 113c
00000240: 01d8 46bb 02d9 ae3b 6a7f 4bbc 602d 7abb
00000250: c01e de3b 03ff 243b 6c91 493d 2dd4 353d
00000260: f46c 313d 53cb 933d 8900 763d 6c98 753b
00000270: 1402 8abb 2cae 123c f5c5 2a3d 606f 273d
00000280: 91c0 abbc a0a4 e6bc 26db 4f3c f9ee 383c
00000290: 508f 3c3a 4e5a efbc 3c73 3abd ae12 cdbc
000002a0: 38c6 56bc d4fe dcbc 8b5d 6ebc b8f4 89bc
000002b0: 8440 853b e666 843c a055 4e3c d068 483c
000002c0: da2c 5b3a b4d5 713b 0cb9 983b e06f 723c
000002d0: 0fae 333c 4c0c 51bb 3b24 233c 3c22 cf3c
000002e0: 145a a73b eca8 803c 3fa2 26bc 9870 9d3c
000002f0: ea87 dd3c d8c2 14ba 727b f73c 5d5f acbb
00000300: d18b 953c 6449 b83c 1cc5 8c3b 557f a03c
00000310: 048b 05bb 96b1 513c 5074 373c ec06 d03b
00000320: 66bb 6cbb 1465 a83a a26f 3e3c ce06 163c
00000330: ac52 763b c1f9 623b 26e4 063c 9692 e23c
00000340: 2353 823c 703f c839 1a37 953b 9d10 0e3c
00000350: dadf ce3c 1e19 5b3c 02a3 f0ba c636 523b
00000360: 9a10 833c 9a87 a53c 05c2 863c 9685 dc3b
00000370: 9b34 c03b ebfa ea3b 07ff 473c ca1e 673c
00000380: 6d30 1a3c 628c e1ba 3076 103b 9e59 2c3c
00000390: 84cf 0f3d 151e bb3c d101 16bc 30c0 bfba
000003a0: 4861 df3c 7b48 943c 209c f6b9 f095 58bb
000003b0: 7239 323c 305e 323d 3bae 2b3c a72b 01bc
000003c0: 3261 52bb 7dae 863c 9287 233d 9662 523c
000003d0: b8d9 e8ba 666a 6cbc 68da 573c 3123 2d3d
000003e0: b02a 123d 3d8a d43b 8798 a33c 359a 273c
000003f0: 4f81 823b f35c ba3b 5089 213c 3dbf 2b3c

momentum_buffer f4 [20]
0.019366665 -0.00014178548 0.009369371 0.02298713 0.0074183326 0.034143634 -0.018663324 0.001570203
0.012892697 0.030063521 0.0077287606 0.003383468 0.014262766 -0.0039239787 0.0014159654 0.014048299
-0.014881446 0.0053590126 -0.007640938 -0.002457315
00000000: d7a6 9e3c 40ac 14b9 fe81 193c 814f bc3c
00000010: 7c15 f33b 32da 0b3d d4e3 98bc 45cf cd3a
00000020: e43b 533c c647 f63c 8b41 fd3b 2cbd 5d3b
00000030: 60ae 693c b894 80bb ea97 b93a d62a 663c
00000040: 4fd1 73bc a89a af3b d560 fabb e80a 21bb

momentum_buffer f4 [50, 320]
0.0332665 0.033844486 0.0246118 0.007660716 0.034084167 0.06275225 0.04776743 0.0148498975
-0.023661025 -0.010049352 -0.005839087 0.029051118 0.004546496 0.010361459 0.031019546 0.03518062
0.0052587204 0.02684165 -0.022110038 -0.020547066 -0.024391193 -0.038335897 -0.0062980503 -0.0017502476
-0.020086117 0.051955882 0.06222418 -0.0028419946 -0.025156572 0.056669142 0.016358763 -8.2048886e-05
-0.001895188 -0.0062001464 0.0031289794 -0.012651656 -0.002180475 -0.015200802 -0.013421051 -0.015063359
-0.0019259844 -0.0005635796 -0.0015734416 -0.015461557 -7.164708e-05 -0.0011239802 -0.0067081247 -0.018914323
0.020890327 0.047996826 0.014313721 0.02117401 0.039712697 0.01841525 -0.0050802743 0.022868209
0.046976283 0.021316662 0.009199239 0.015004775 -0.0055980473 -0.0151738245 0.042326223 0.020845804
-0.030022953 -0.0611082 -0.06414321 -0.040395007 -0.048889175 -0.059973255 -0.05844426 -0.042613953
-0.060306698 -0.07947591 -0.047203206 -0.025610413 -0.050264493 -0.06000537 -0.018252421 -0.01769897
-0.015638828 -0.024291215 -0.026717048 -0.028789472 -0.013183869 -0.003675891 -0.001649125 -0.008387133
-0.018561509 -0.026231734 -0.016196946 0.0012392099 0.006503636 0.008713017 -0.003761677 -0.0033820467
0.0044783186 -0.002159764 -0.0032643373 -0.00951555 0.003322619 -0.0006754692 0.005628042 -0.0015028254
0.018105356 0.010289495 0.007200553 0.002633593 0.0061889393 0.01759604 0.008042398 -0.0007859543
0.012393802 0.017281689 -0.007717995 -0.03310015 0.0014898442 0.03099025 -0.037351426 0.008006349
-0.01364819 -0.029466469 0.04482602 0.060581215 0.034984693 -0.014644112 0.065662846 0.035812132
-0.002456005 -0.017282862 -0.03053711 -0.039685357 -0.006621184 -0.031489827 -0.041039385 -0.057805717
-0.022220355 -0.041179497 -0.05122415 -0.03212326 -0.018317128 -0.051413096 -0.047769587 -0.021280807
-0.014397612 -0.014941271 -0.037291497 -0.047717143 -0.026655957 -0.032333873 -0.043408386 -0.030562092
-0.025655195 -0.035879456 -0.04476452 -0.012560845 -0.00922809 -0.026414705 -0.035049 -0.004941564
0.0003215107 0.0041070953 0.013673939 0.021133449 -0.0040604603 0.0055166297 0.032068603 0.005615957
-0.0046102167 -0.0087029785 0.013832118 0.010243058 7.0469454e-05 -0.012427834 0.0023320727 0.037969217
0.017205875 0.014179235 0.007538475 -0.005770509 0.007925349 0.013038753 0.01958222 -0.00058171805
0.009150206 0.00071820896 -0.011084239 0.009978365 0.033172682 0.009783645 0.0012988783 -0.0018819738
0.00023297779 0.013477637 0.00023674686 0.011803402 0.015482491 0.017674923 0.008797759 -0.001040644
0.0111279525 -0.0074278656 0.042582676 -0.015951654 -0.022780538 0.005384339 0.08938089 -0.009154427
0.0039430843 0.015814949 0.011411848 0.0075503476 0.0125906635 0.026417451 0.0090954825 -0.0032366095
-0.0051942077 -0.008270333 -0.014257029 0.007087053 -0.0062361285 -0.017298426 0.011885352 0.016892556
1.8531217e-06 0.0 4.543356e-07 -2.6891263e-05 2.8817374e-06 3.94835e-30 2.3620926e-15 3.475526e-05
1.769014e-27 0.0 0.0 0.000102844984 1.1341265e-06 3.6653427e-32 6.3e-44 0.0001784132
-0.07465167 -0.03897505 -0.04534516 -0.009732868 -0.07986091 -0.05517233 -0.03830743 -0.0049227495
-0.07026069 -0.036607236 -0.0018529175 -0.004187176 -0.036248688 0.0075171273 -0.0014325688 -0.009700578
00000000: 7442 083d 84a0 0a3d b09e c93c be06 fb3b
00000010: d79b 0b3d 4084 803d c8a7 433d fc4c 733c
00000020: c4d4 c1bc 0aa6 24bc d055 bfbb 9cfc ed3c
00000030: c6fa 943b 1cc3 293c b41c fe3c 8e19 103d
00000040: 5851 ac3b 05e3 db3c 1c20 b5bc 5252 a8bc
00000050: 0ad0 c7bc 1a06 1dbd e05f cebb 9068 e5ba
00000060: a48b a4bc b1cf 543d c8de 7e3d c240 3abb
00000070: 2815 cebc e71d 683d d002 863c a911 acb8
00000080: f567 f8ba 992a cbbb 900f 4d3b e448 4fbc
00000090: 4de6 0ebb c90c 79bc f8e3 5bbc 4fcc 76bc
000000a0: 5071 fcba 30bd 13ba f03b ceba 7852 7dbc
000000b0: 3c41 96b8 8452 93ba d4cf dbbb 36f2 9abc
000000c0: 3122 ab3c 5298 443d 1984 6a3c 1e75 ad3c
000000d0: c8a9 223d 94db 963c 6e78 a6bb 1c56 bb3c
000000e0: 346a 403d 48a0 ae3c 68b8 163c 96d6 753c
000000f0: d36f b7bb a29b 78bc 435e 2d3d d2c4 aa3c
00000100: b2f2 f5bc 984c 7abd 845d 83bd 3c75 25bd
00000110: 0440 48bd 84a6 75bd 4063 6fbd f88b 2ebd
00000120: 2804 77bd 44c4 a2bd 2658 41bd eecc d1bc
00000130: 24e2 4dbd 31c8 75bd 1a86 95bc 6efd 90bc
00000140: 001d 80bc 5ffe c6bc b6dd dabc e6d7 ebbc
00000150: 2801 58bc 38e7 70bb 7427 d8ba 2f6a 09bc
00000160: 4e0e 98bc efe3 d6bc 75af 84bc fc6c a23a
00000170: 741c d53b 0bc1 0e3c 7886 76bb 54a5 5dbb
00000180: dcbe 923b d48a 0dbb 7eee 55bb 1ce7 1bbc
00000190: 4cc0 593b f811 31ba 706b b83b 74fa c4ba
000001a0: af51 943c 4595 283c 9ef2 eb3b 5c98 2c3b
000001b0: 96cc ca3b 9225 903c 43c4 033c 8008 4eba
000001c0: 600f 4b3c 5492 8d3c 3ce7 fcbb 0694 07bd
000001d0: e046 c33a 44df fd3c cffd 18bd 102d 033c
000001e0: a89c 5fbc aa63 f1bc 7d9b 373d 0224 783d
000001f0: 1c4c 0f3d dced 6fbc 3e7a 863d beaf 123d
00000200: edf4 20bb ca94 8dbc f628 fabc 1d8d 22bd
00000210: 84f6 d8bb 7afb 00bd ea18 28bd b0c5 6cbd
00000220: 7607 b6bc d5ab 28bd 6ad0 51bd ae93 03bd
00000230: cd0d 96bc 8a96 52bd 0baa 43bd 1655 aebc
00000240: f6e3 6bbc 3ccc 74bc f8be 18bd 0d73 43bd
00000250: 985d dabc 8670 04bd fecc 31bd 5a5d fabc
00000260: d82a d2bc 56f6 12bd 005b 37bd 01cc 4dbc
00000270: 6a31 17bc a763 d8bc 8a8f 0fbd d8ec a1bb
00000280: 7090 a839 d094 863b a808 603c 0e20 ad3c
00000290: 9c0d 85bb d8c4 b43b 5e5a 033d 1006 b83b
000002a0: 4d11 97bb f096 0ebc 1ca0 623c 80d2 273c
000002b0: 00c9 9338 1d9e 4bbc b0d5 183b 9c85 1b3d
000002c0: 56f3 8c3c 0650 683c 5005 f73b 8a16 bdbb
000002d0: 53d9 013c 7ea0 553c e46a a03c 707e 18ba
000002e0: bfea 153c 3046 3c3a ab9a 35bc 4c7c 233c
000002f0: 14e0 073d 954b 203c 203f aa3a 90ac f6ba
00000300: 804b 7439 4fd1 5c3c 403f 7839 0e63 413c
00000310: 46aa 7d3c 00cb 903c 7a24 103c 3866 88ba
00000320: 0452 363c 7465 f3bb 2c6b 2e3d 0bad 82bc
00000330: 409e babc 1c6f b03b 540d b73d 73fc 15bc
00000340: fd34 813b 5a8e 813c c2f8 3a3c e868 f73b
00000350: 1249 4e3c 6969 d83c 3805 153c 4c1d 54bb
00000360: 2c34 aabb 4a80 07bc 5096 69bc 823a e83b
00000370: 7058 ccbb 6eb5 8dbc c8ba 423c 4262 8a3c
00000380: c7b8 f835 0000 0000 69eb f334 8c94 e1b7
00000390: df63 4136 032a a00e eb34 2a27 2dc6 1138
000003a0: de27 0c13 0000 0000 0000 0000 7bae d738
000003b0: 4a38 9835 c350 3e0b 2d00 0000 6e14 3b39
000003c0: fae2 98bd 4da4 1fbd d9bb 39bd 9b76 1fbc
000003d0: 1e8e a3bd 62fc 61bd 40e8 1cbd 044f a1bb
000003e0: d6e4 8fbd 78f1 15bd 98dd f2ba 9434 89bb
000003f0: 8179 14bd 3c52 f63b 08c5 bbba 2cef 1ebc

momentum_buffer f4 [50]
0.006320997 -0.0061478834 -0.03879356 -0.00094190706 -0.006340535 -0.0007776695 0.026767312 -0.0012118248
0.013282081 0.002680933 0.0019598394 -0.008552307 -0.0042802333 -0.015208109 -0.0035795472 0.014530809
0.026695268 0.0086573325 -0.0062397984 0.0034334883 -0.00821836 0.03702791 0.018058639 0.0556053
-0.004443609 0.0020748908 -0.0038744758 0.018558133 0.009078916 -0.023929987 0.012056842 0.023477998
0.010052408 -0.009105914 -0.015149692 -0.004017095 0.008014019 -0.009887359 0.010593915 -0.0133535825
0.0054413164 -0.004408042 -0.01054826 0.005295766 0.0036109933 -0.0036207438 0.0073343804 0.00040499168
0.019413916 0.0022801068
00000000: 5e20 cf3b 2f74 c9bb ffe5 1ebd 50ea 76ba
00000010: 43c4 cfbb 84dc 4bba 1f47 db3c 18d6 9eba
00000020: 169d 593c 98b2 2f3b a670 003b fa1e 0cbc
00000030: 3341 8cbb 6f2b 79bc d696 6abb a112 6e3c
00000040: 09b0 da3c 7cd7 0d3c 3977 ccbb 6004 613b
00000050: 4da6 06bc 94aa 173d b6ef 933c 62c2 633d
00000060: b29b 91bb e4fa 073b ebea 7dbb 3a07 983c
00000070: bcbf 143c d208 c4bc 108a 453c ee54 c03c
00000080: dbb2 243c f930 15bc 6a36 78bc d6a1 83bb
00000090: 3b4d 033c 97fe 21bc 1a92 2d3c fcc8 5abc
000000a0: 124d b23b 5671 90bb 9cd2 2cbc 1b88 ad3b
000000b0: 6aa6 6c3b 004a 6dbb 3e55 f03b 1055 d439
000000c0: ef09 9f3c d86d 153b
