models/model_2020-12-02_21-02-27/checkpoint.pt (torch, 179791 bytes, 16 tensors)

conv1.weight f4 [10, 1, 5, 5]
00000000: f0e1 85bd 988d af3b c359 dbbd 4cfd 783d
00000010: 8428 41be c1d6 2f3e 0b28 11be 3e0a 2dbe
00000020: b7f1 11be dea5 933d 8c0f e7bc c4a6 b73d
00000030: bc05 30be b39e febd bfdb 95bd 68d5 e73c
00000040: f61a d1bd 38ae 3c3e 7e4d 963b 2da2 e33d
00000050: a654 793e bc50 0e3e 8bdd 223e 176c 973e
00000060: 8f97 9fbb 743d bd3d 8e4b 67bd 6ff8 443e
00000070: 72ce 6e3e f29f 06be dec8 363e d0e7 f53d
00000080: da0c 1a3e e19c 3d3e a073 713e 43f2 4abd
00000090: 5f8f 21be 06b3 b03c 0dec 8ebc 2c44 cc3d
000000a0: 1b57 9abd ab9f e0bd 4191 5f3d 8b80 9d3e
000000b0: 120d 923d 2c2c 3cbd b2ee 31bd 5867 ab3d
000000c0: 38cb 8b3e 6863 4b3e 5fd2 d93d 3c3b ac3d
000000d0: 9cdc 803d d3f3 963d d44f 1fbd 6e26 11be
000000e0: ae70 b1bd e261 323e 93ef 2dbc 75ed 3dbe
000000f0: e2c0 a53d 77c7 4c3e 430e 45be 4776 1fbe
00000100: dd85 d0bd 84d4 6c3d 8f31 dcbc b995 2bbd
00000110: e5c2 62be 4d8b 963d 196c 633e fde6 073e
00000120: de04 2cbe a05a 3bbe 0c64 a23d c0df ab3a
00000130: a241 ac3d 39f2 1fbe a5d3 993d 7608 5b3e
00000140: 4ac4 b03d 2a6a b33c 0a20 dc3d 3d49 ae3d
00000150: c408 38bd 3311 8dbd 9163 8cbd 4b39 923e
00000160: 3c26 6f3e 94f2 023e 57df 06be 5a48 813e
00000170: c52f 543e 287e 873e 5731 d3bc a01a a93d
00000180: a9f7 9a3e 4ed7 863e a4fa 853e d9b5 183c
00000190: 619c 203e 5f9d 25be 5228 b93c afcd a6bd
000001a0: 97d9 94bc 239a 81bd 29e6 113c 0c51 4e3e
000001b0: eb1c 153e 7ecd 213d e5a1 0d3e d302 bdbd
000001c0: 519c 213e 947a 823d 1e7e 0d3d 4c66 b13c
000001d0: 2e1d 00be 4a43 d53d bc6a 3f3e a601 8a3e
000001e0: 45a1 65bd 6b5c e23d 4652 943e 7939 033d
000001f0: ed4d 923e 7e2d 61bd 7166 1c3e 09db 2a3e
00000200: 9371 163e a0db 6a3e 4086 39bd 9c81 e73d
00000210: 53a7 b43d 9e65 91bd 5c23 633c 0fa3 02be
00000220: e83d 003e 9d50 a83d d0e4 ba3d 81fa abbb
00000230: 4630 c0bc 34a2 66bd 742c b63d 4365 743e
00000240: 632b 853d 93cd fdbd 9e2c 08be 0e6b 813c
00000250: bb07 16be 23c1 1ebe a9ce 0abe 708a adbd
00000260: f828 033c d16a 243e f321 de3d 4e0e 2c3e
00000270: 42ff e0bd 425d 433d 8d0d f2bd c51a 273e
00000280: 9677 b03d 9be8 7d3e 6655 77bd 1c05 873e
00000290: b9d8 7e3e 97a1 4b3e dff8 b13d 2aa3 893e
000002a0: f8d2 733e 990b 703e 1e4f dfbc f380 0ebe
000002b0: 01c3 053d ae4b c83d 1f5f c6bd 0d90 03be
000002c0: 6089 45be bda5 05bd 2ebe 773e bd7e a73d
000002d0: eda4 2dbd 3bbc a1bb c121 2f3e b139 c3bd
000002e0: f4c1 d5bd 0a3c c0bd 8560 fcbd 7b44 1e3e
000002f0: 4dc4 5f3e 1c55 18be 169d 40be fc27 42be
00000300: f1ad 013e 1cf4 6f3e b506 edbd a46f d5bd
00000310: cedb aa3d f299 a0bd bbe8 723e ad4b 983d
00000320: 0b93 82bd 8393 52bc 010d bf3c 06ea cdbd
00000330: ce3f 32be 068f b5bc b84c ebbc a84c f5bc
00000340: 8df3 5cbd 59fb 053e 505e a9bd f273 59bd
00000350: 2c25 4e3d e819 08be 2618 a43d 9bdd 85bd
00000360: 653d 9a3d ac01 f3bd 1e1f f73c 388e 8a3d
00000370: e81a 2ebe a431 14be 8ebf b83d b045 82bc
00000380: 38e6 383e c0c7 7bbe 97f2 1bbe 7ab9 6cbe
00000390: 2c3b 683d f51c 433d aa16 c3bd 7d63 b5bd
000003a0: b46f 58be ffb1 753d 9b51 be3d 97ef 4abe
000003b0: 6247 8b3c f703 37bd ed7f 23be 88d6 693e
000003c0: 34eb 8b3d 2535 94bd 888d 17be 6dea b83d
000003d0: f991 8e3e 4666 3c3e 6dc4 18be f11c 60bd
000003e0: b2b3 903e c5e5 7a3e
-0.06537235 0.0053574555 -0.1071048 0.060788438 -0.18863112 0.17171766 -0.14175431 -0.16898438
-0.14252363 0.07209371 -0.028205656 0.08967355 -0.17189687 -0.12432613 -0.07317304 0.028300002
-0.102102205 0.18425834 0.0045868745 0.11114917 0.24348697 0.13897985 0.15904824 0.29574654
-0.004870362 0.09240237 -0.05646854 0.19235395 0.2332094 -0.13146952 0.17850062 0.12007105
0.15043965 0.18516876 0.23579264 -0.049547445 -0.15777348 0.02156974 -0.017446542 0.0997394
-0.07536145 -0.10967954 0.054581884 0.30762133 0.07131399 -0.045940563 -0.04344053 0.08369321
0.2730348 0.19862139 0.10635828 0.084097356 0.06292078 0.073707245 -0.03889449 -0.14174816
-0.0866407 0.17420152 -0.010616201 -0.18547614 0.0809343 0.19997965 -0.19243722 -0.15572463
-0.101817824 0.05781986 -0.0268791 -0.041890834 -0.22144659 0.07350788 0.22209205 0.13271709
-0.16798732 -0.1829629 0.07929239 0.0013112947 0.08410956 -0.15619744 0.07511071 0.21389946
0.08631189 0.021901209 0.107482985 0.08510063 -0.044930235 -0.06888046 -0.06854928 0.28559336
0.23354429 0.12787849 -0.13171135 0.25250512 0.20721348 0.26463437 -0.025780363 0.082570314
0.30267075 0.2633614 0.26167786 0.0093207 0.15684654 -0.16173314 0.022602234 -0.081447
-0.018170161 -0.06328227 0.008904972 0.20148104 0.14561813 0.039502613 0.13831289 -0.09229054
0.15782286 0.06371036 0.034544103 0.021655224 -0.12511131 0.10413225 0.1869306 0.26954383
-0.056062 0.110527836 0.2896902 0.032037232 0.28575078 -0.054975025 0.15273453 0.16685118
0.14691763 0.22935343 -0.045294046 0.11304018 0.08820977 -0.0709946 0.013863411 -0.12757514
0.12523615 0.08218501 0.09125674 -0.0052483683 -0.023460519 -0.056307033 0.088951975 0.23866753
0.06502416 -0.12392726 -0.1329827 0.015798118 -0.14651386 -0.15503363 -0.13555397 -0.084736705
0.008005373 0.16056372 0.10846319 0.16802332 -0.109861866 0.04769636 -0.11818991 0.16318806
0.08616559 0.24795763 -0.060384177 0.26371086 0.2488736 0.1988586 0.086900465 0.26882297
0.23810947 0.23441924 -0.027259406 -0.13916378 0.032656673 0.0978006 -0.09686112 -0.1284792
-0.19290686 -0.032628763 0.24193642 0.0817847 -0.042393614 -0.004935769 0.1710272 -0.09532488
-0.10437384 -0.093864515 -0.12323097 0.1545581 0.21852227 -0.14876217 -0.18809924 -0.18960565
0.1266401 0.23432964 -0.11573545 -0.104216844 0.08342706 -0.07841863 0.23721592 0.07436309
-0.063757025 -0.012852552 0.02332163 -0.10054402 -0.17407152 -0.022162925 -0.028723106 -0.02994378
-0.053943206 0.13084163 -0.08269942 -0.05308909 0.05032842 -0.13291132 0.080124184 -0.065364085
0.07531241 -0.11865553 0.030166205 0.06765407 -0.17002451 -0.14472061 0.09020911 -0.01590237
0.18056571 -0.24587917 -0.1522926 -0.23117629 0.056697056 0.047635037 -0.09525807 -0.088568665
-0.21136361 0.059984203 0.09292909 -0.19817959 0.017001811 -0.044681516 -0.15966769 0.22835743
0.06831971 -0.07236699 -0.14800084 0.09029088 0.27845743 0.18398389 -0.1491868 -0.0547151
0.28262097 0.24501713

conv1.bias f4 [10]
00000000: 51fa 1c3e b412 a1bd cdb2 5b3e 2337 f9bd
00000010: 9cf0 8e3c 8026 463d a1cc 7d3d ccda 0dbe
00000020: 4963 553e 4853 683e
0.15329863 -0.078648955 0.21454926 -0.121687196 0.017448716 0.04837656 0.061962727 -0.13852996
0.20838656 0.2268802

conv2.weight f4 [20, 10, 5, 5]
00000000: 2c04 d7bc 7d15 403c 172c c8bc 2271 863d
00000010: 1f3a e83c c829 813d 90ae 593d 24e9 fe3c
00000020: 4838 633d c44c 4f3c 6f75 21bc 75df 453d
00000030: 72c5 d13c aa6b fabb 5e41 4b3b 30b2 83bd
00000040: b6c6 14bd 4f6b 3fbd d664 1fbd 6513 7dbd
00000050: 6fe9 e13c e73c b8bd c47b e43c b7c2 82bd
00000060: 6431 e3bc 0984 e43c 788f 9cbc 7b2b 3ebd
00000070: 9e14 8bbd b374 1fbd 8d57 7d3d a614 01bc
00000080: e7ce 843d 5e45 7dbc da60 e4bb 7fd0 7e3d
00000090: e94b 213d f307 0d3d 491f 733d 0aa8 333d
000000a0: cdb9 ea3c c908 983d 6281 c53d 53c6 2e3d
000000b0: ba21 ac3a 61eb 003c 18a2 96bb 464d 80bd
000000c0: 507f 12bd 72ba 113d 7fa6 b13b a530 e33c
000000d0: adc0 e6bc 34cc 5f3d 9a5b eabc 450e a73b
000000e0: 3759 28bd 34d6 17bd 2dc7 053d 37b3 2dbc
000000f0: e66c 81bd e8b1 70bd 65e8 db3c 794a 153d
00000100: 8d9a e03c 3599 a3bd 57de 56ba 0eb0 843b
00000110: 4616 4fbd c53a 3fbc 674a d6bb 15d0 5bbd
00000120: 5d4a b8bc dbaa 623d 7e7c 5dbc 7850 feb9
00000130: 9814 95bd 4578 a2bd a9d9 463d dd5f e73c
00000140: 2f1d 983b 6244 523d bed8 7c3a ddc4 91bc
00000150: 932a 40bd 80b0 3c3d 5558 c93c 9367 d73d
00000160: 6bcf c73d 9135 523d 4e14 3d3d 892b ab3c
00000170: e4c4 b53d 1804 36bc 42d1 d53b 5fa0 adbc
00000180: 8fa6 82bd 56b6 4a3b 1106 1dbd 4310 0fbd
00000190: df5b 303d 4f66 a53c 9a8a 46bd eb82 06bb
000001a0: a193 073b 0256 993d 9232 763d b430 943d
000001b0: f9a3 5b3d b7f1 3abd 2dc8 9f3d 0686 093d
000001c0: fd3a cb3d 051f 8c3d 5234 b3bb 4625 5a3b
000001d0: e469 193d 0e7e 273d 767a 40bd 122b 993c
000001e0: a477 94bb 5fc7 b43b 26aa 1abc e407 b3bc
000001f0: 8451 97bd 8167 ca3c 3f9d 96bd 94ba 80bd
00000200: ae3b 87bc 203c 3b3c 0971 d43c 5894 eabc
00000210: e4e4 51bd 4949 84bc 32c9 613c 5911 1fbd
00000220: 4a6d 73bd 64dd c73c 3067 28bd 6280 20bd
00000230: 7848 903d 58a8 90bc ab33 d9bc 5dcc 883d
00000240: efcc a6bc fb50 9d3c 2c01 ba3d 653f 5abb
00000250: 5523 973d 7a6f 8a3d 0130 133d 66ed acbc
00000260: cf23 8ebd d179 9e3c e0f3 3abd 0066 ffbc
00000270: e90f e4bc 179b 203d 9e39 453c d70a 263d
00000280: ad78 a93d b8bf 643d 6fa7 b73d c0c6 01bb
00000290: e2fb bdbc 9b3e 91bc 692b b63d 0e9f d03d
000002a0: cba1 953c 9125 923d d9e4 5fbd 770c e63a
000002b0: 77dc d5bb 3929 05bd f8ea ebbc 9358 dd3c
000002c0: c367 f4bb 8dad 9fbc 69a3 3a3d 1cd8 1dbd
000002d0: 7754 333d 421f 783d ea1a 28bd dca8 6fbd
000002e0: 2547 2f3c 2f81 5fbd 9702 aa3c effe 59bd
000002f0: 34b4 5fbd 242f 7a3c 37d7 0dbd 3644 88bd
00000300: fa6c 4e3c 7ef1 373c e891 023a bf04 893c
00000310: 1190 28bd 986e 0b3d ec94 6ebd 8337 693d
00000320: 52e4 233d 31cf 83bd 9bea a0bb 584a cbbc
00000330: 60b2 813d 0496 23bc 0f15 eb3c b55d 3d3d
00000340: f2ab 66bd 82d3 0a3d 9088 84bd e772 e4bc
00000350: b2f7 2dbd 886a 95bd 9906 87bd 7288 8ebd
00000360: 6678 79bd 4d9d 55bd b743 03bd 3ae8 d83c
00000370: 4a68 8bbc 4aa4 8cbd 18ac 5ebd a12f 313d
00000380: 306d 7dbd 844e 31bd cb38 98bd 310b 133d
00000390: 060f 653d 360f 6a3c 3f54 2bbd bc2d 4cbc
000003a0: b6f3 b93c 6844 233d bcbc 303c 5ee0 12bd
000003b0: 8aaf 59bb d618 d5bb 5197 29bb a782 113d
000003c0: b0d6 35bd 9e0d e6bc 88cd 0dbd 4b90 b039
000003d0: d3ec 3ebd ea85 98bd 7839 b9bd 7948 42bc
000003e0: ef83 db3c c60b 653d 3e9a c23c 1755 56bc
000003f0: 3337 453c 7600 84bd 44d7 d23b e913 6ebc
-0.026247106 0.011723873 -0.024435086 0.06564547 0.028348027 0.06306797 0.05314499 0.03111703
0.055473596 0.01265258 -0.0098546585 0.04830881 0.025606845 -0.007642229 0.0031014304 -0.06430471
-0.036322318 -0.046733197 -0.038914524 -0.061786074 0.02757713 -0.08995991 0.027891047 -0.06384795
-0.027733512 0.02789499 -0.01911138 -0.046428185 -0.06791042 -0.038929652 0.061851073 -0.007878458
0.06484776 -0.015458433 -0.0069695534 0.062210556 0.039379034 0.03443141 0.059356008 0.043861426
0.02865305 0.07423551 0.096438184 0.042669605 0.001313261 0.007868619 -0.00459696 -0.06264739
-0.035765946 0.0355782 0.005421459 0.027733156 -0.028168047 0.054638103 -0.028608132 0.0050981366
-0.041100707 -0.037069514 0.032660652 -0.01060181 -0.06319599 -0.058763415 0.026844213 0.036447976
0.027417446 -0.07988206 -0.00081965834 0.0040493077 -0.05055835 -0.011671727 -0.006539631 -0.05366524
-0.022496397 0.05533872 -0.013518451 -0.0004850661 -0.072793186 -0.07933096 0.04854742 0.028243953
0.004642151 0.051334746 0.0009645334 -0.017794067 -0.046915602 0.04606676 0.024578253 0.10517802
0.09756359 0.051320616 0.046161942 0.020894783 0.088754445 -0.011109374 0.0065251896 -0.021194635
-0.06379425 0.0030931435 -0.038335864 -0.034927618 0.043056365 0.020190386 -0.048472025 -0.002052481
0.002068736 0.07487108 0.06010682 0.07235852 0.053623173 -0.045640673 0.078018524 0.03357508
0.099233605 0.06841854 -0.0054688836 0.0033286377 0.0374545 0.0408917 -0.046991788 0.018697295
-0.004530864 0.005516931 -0.009439981 -0.021854348 -0.07388595 0.024707558 -0.07354211 -0.06285587
-0.01650795 0.011427909 0.025932806 -0.028635189 -0.051243678 -0.016148226 0.013780879 -0.038834903
-0.059430398 0.02439756 -0.041114032 -0.039184935 0.07045072 -0.017658398 -0.026513895 0.06679604
-0.020361392 0.019203654 0.09082255 -0.0033301946 0.07379786 0.06759544 0.035934452 -0.021109294
-0.06940424 0.019345196 -0.045642734 -0.031176567 -0.027839618 0.039210405 0.012037663 0.04053768
0.0827497 0.0558469 0.08967482 -0.0019802302 -0.023191396 -0.017730048 0.088949986 0.10186587
0.018265625 0.071360715 -0.054661606 0.0017551322 -0.0065265256 -0.032510016 -0.028798565 0.027019775
-0.0074586584 -0.019491935 0.045565996 -0.038536176 0.043781724 0.060576685 -0.041041292 -0.058510646
0.0106981145 -0.05456656 0.020753188 -0.05322164 -0.054615214 0.015270028 -0.034629073 -0.06653635
0.012599224 0.01122701 0.0004980848 0.016725896 -0.041153017 0.034041017 -0.05824749 0.056937706
0.040012665 -0.06436003 -0.0049107797 -0.024815723 0.063328505 -0.009984497 0.028696565 0.046231944
-0.056316324 0.033893116 -0.0647136 -0.027886821 -0.04247255 -0.0729571 -0.06593055 -0.06959619
-0.060905837 -0.052151967 -0.032047 0.026477922 -0.017017502 -0.06867273 -0.05436334 0.043258313
-0.061871707 -0.04328777 -0.074327074 0.035899345 0.05592253 0.014285853 -0.04182839 -0.012462076
0.022699218 0.03986016 0.010787185 -0.035858504 -0.0033216202 -0.006503205 -0.0025877545 0.03552499
-0.044394195 -0.028082665 -0.034619838 0.00033676843 -0.046612572 -0.07447417 -0.090441644 -0.011858099
0.02679631 0.05591943 0.023755189 -0.01308181 0.012037086 -0.064454004 0.006434353 -0.014531114

conv2.bias f4 [20]
00000000: 3bdd fcbc 2d54 31bd 5bae ef3c ab74 fcbb
00000010: 92ed e83c 58dd 0f3b b9af ed3a 0260 383d
00000020: a02e cb3c 9cf3 5c3d 68d5 41bd d614 f13c
00000030: b82f 38bd 52c8 49bd 2acf 3e3d 7e81 113d
00000040: 6239 1dbd 09dc 1cbd b8db 23bd 832f 333d
-0.03086721 -0.043293167 0.029257944 -0.0077043376 0.028433595 0.0021952 0.0018134034 0.045013435
0.024802506 0.05394326 -0.04732266 0.02942888 -0.044967383 -0.049263306 0.046584286 0.035523884
-0.038384803 -0.03829578 -0.040004462 0.043746483

fc1.weight f4 [50, 320]
00000000: 9dc1 f93c ba1b 933b 14d8 6fbd 9d15 543c
00000010: 94d2 f5bb 0fe0 af3c 4f9c eeba 6594 173d
00000020: fe3e 4a3b 0dec e43b a557 debc b02f 183c
00000030: ad30 98bb 0e9b f9bc 7d8d 4c3d 6dcd bf3c
00000040: 9ee1 043d e88e 35bc ee3e 4e3b a1e1 473d
00000050: 8ee3 2ebd dd4b 2abc d0b8 993d 3081 b637
00000060: 76eb 2c3d fcc0 acbc fc9e 203d 7084 483d
00000070: aa06 bb3a 56a6 fabc ef83 7ebd d1eb babc
00000080: d5a2 41bd 20d0 ecbb 08b9 d23c c29b ab3c
00000090: 4b20 f83b e963 33bd 6ea3 ef3c 3244 8b3b
000000a0: 2541 debc 55f8 01bd b1ea 15bd 8c36 f13b
000000b0: 3db5 f0bc 1616 15bd 6327 41bd 82ca 11bd
000000c0: 1368 75bc fd15 473d dc53 40bd d6e2 51bd
000000d0: 8137 313d 61f9 a93c 4a5b 09bc 26e1 fcbc
000000e0: c6ee bd3c c25a f93b ae66 3dba 2d7c 483d
000000f0: cad7 663c e737 0d3d bbc5 c2bc b911 e33c
00000100: 26ad a0bc 927f f93a a866 42bd e7e4 0ebd
00000110: 7417 8dbc 07d4 2abd 2db3 963c a679 8b3d
00000120: 74ba 903d 9267 9d3b 27c7 a3bc 6147 813c
00000130: 310b bf3d 97c5 0f3d e7d5 fbbc 7801 06bd
00000140: 5226 343d 9454 e53c 9e5e 7dbd 63f5 2cbd
00000150: 8bab d23c 1fa4 01bd fb76 163d 087e 0a3d
00000160: de7a 39bd d296 173d a86d 1c37 4c71 56bd
00000170: 43b2 f33b 5470 0b3d f600 b53c 3230 26bd
00000180: 985a 1dbc 0cab dabb 2e61 4cbd add5 2a3d
00000190: 3231 adbc 7d7e a43c f286 82bc fee4 35bd
000001a0: 4bff 01bd 6220 903b 9685 593d 2332 db3b
000001b0: 703a cc3c fa95 8c3c 25c1 1ebd 94a1 32bb
000001c0: 1705 5e3d b37a bebb f481 383c 49ed 8f3d
000001d0: 82ff b93c d4a7 77bc 004b 1ebd 0691 163d
000001e0: a7b0 93bb 34b3 af3d dd64 3dbd 10dc 413d
000001f0: 024e 573d 98a5 75bd dfec 71bd 368a db3c
00000200: 26b4 7fbb 2295 f6bc 58fc 22bb 53b0 e7bb
00000210: 38ce 213c b05e 613d d5e9 7bbd c27e a7bc
00000220: 58ca 7b3c 694b a93d fc39 62bd 3420 dcbc
00000230: bdc4 553d 382f be3d e2a2 513c de36 383c
00000240: 20c8 c33c 43f7 b8bc 05bb 4c3c d0ed 863d
00000250: 1cbc 3f3d 1dd7 29bd 45f5 c83c c37e 803d
00000260: e451 eb3c 2411 92bc 2649 ebbc 4ecc 20bd
00000270: bc14 23ba 872f 363d 5c51 8ebc 3ee0 3ebc
00000280: c041 8abb 96e9 703c db0b f53b 2346 6cbb
00000290: 0816 43bd abd1 283c a99a 05bd c200 6cbc
000002a0: 6082 02bc ccc1 103c be8b c0bc 7cf7 13bc
000002b0: b373 ec3c 97b5 d33d 33f5 a23c 8555 2a3c
000002c0: 216c d33c e72b 1f3c 0af0 45bd a0ff 5ebd
000002d0: fea7 19bd 7a84 a9bc 5d3d 2bbd 7318 213d
000002e0: c986 92bc f99e 94bc c5d8 efbc cc4c a5bc
000002f0: 8163 38bd 490f 783d dc51 ff3c 41e0 32bd
00000300: 5176 7b3d 949b b539 87f0 5e3b 0873 7a3a
00000310: 2025 343b 6810 913c 74bf 113d dd40 573d
00000320: a8fb 883d 22f6 203d 929b fbbb 965b 483c
00000330: 545f 653c 057a 0fbd ecf2 35bd d1c9 53bd
00000340: d175 4fbd 98d1 cebb c200 adbc aa0e 5dbd
00000350: 8f23 9fbc 93d0 023d 964d dabc dbac 7cbc
00000360: 9986 9a3b 40f9 e53c 00c8 09bd 3197 3abc
00000370: 6069 8f3c e520 173c 27c0 4f3d 0660 31bd
00000380: 6c6b 1c3b 4f11 a93c a238 893b 7808 0d3d
00000390: 1a42 d43c 1733 643d 2365 523d d6ba 1ebd
000003a0: e600 a03c e600 643d 1821 27bd 8d9a 5abc
000003b0: c3e0 143c 8c04 483d 123c e93c cf05 b23c
000003c0: e9ed e1bc 6489 023b 2a7e 443c 4311 9f3c
000003d0: abe0 713d 8410 1a3d 8678 933d 7977 eebc
000003e0: f374 95bc ad1f 40bc e506 28bd 0ba8 1e3c
000003f0: adc8 edbb b788 083d 5cc7 0e3c b444 15bb
0.03048783 0.0044893892 -0.058555678 0.012944606 -0.0075019095 0.021469144 -0.0018204543 0.037006754
0.00308603 0.0069861473 -0.027141402 0.009288713 -0.0046444745 -0.030469444 0.04993962 0.023413384
0.032441728 -0.011081435 0.0031470614 0.04879916 -0.04269748 -0.010394064 0.07505953 2.1756248e-05
0.04221674 -0.021088116 0.03921412 0.048954427 0.0014268954 -0.030596893 -0.06213754 -0.022817524
-0.04727443 -0.007226959 0.025722995 0.020948295 0.007572209 -0.043796454 0.029252734 0.004250073
-0.027130673 -0.03173097 -0.036600772 0.007361239 -0.029383296 -0.036398016 -0.047156703 -0.035593517
-0.0149784265 0.048604954 -0.046954975 -0.05124172 0.043265823 0.020748796 -0.008383581 -0.030869078
0.023185145 0.007609696 -0.00072250783 0.04894655 0.014089534 0.03447714 -0.023775926 0.027718412
-0.019613814 0.0019035211 -0.047461182 -0.034886267 -0.017223097 -0.04170611 0.018395985 0.06810312
0.07066813 0.0048036063 -0.019992424 0.015781106 0.093283065 0.035100546 -0.030741645 -0.032716244
0.043981858 0.027994432 -0.061857812 -0.042226207 0.025716564 -0.03165066 0.036734562 0.0338116
-0.04528319 0.037009068 9.323856e-06 -0.052354142 0.007437022 0.03404267 0.022095185 -0.040573306
-0.009604119 -0.0066732224 -0.049897365 0.041707683 -0.021141622 0.020079846 -0.015933488 -0.044407837
-0.031737607 0.0043983916 0.053105913 0.0066893264 0.024930209 0.017161358 -0.038758416 -0.0027256953
0.054204073 -0.0058129667 0.011261452 0.070276804 0.022704843 -0.015115697 -0.038645744 0.0367594
-0.0045071426 0.08579102 -0.04623877 0.04732901 0.05256463 -0.059972376 -0.05906379 0.026799303
-0.003901729 -0.030100409 -0.0024869647 -0.00707058 0.009875827 0.05502194 -0.061502296 -0.020446185
0.015368067 0.082663365 -0.05523108 -0.026870824 0.052189577 0.0928635 0.012795182 0.01124355
0.023899138 -0.022578841 0.012495761 0.06588328 0.046810254 -0.041464914 0.024531016 0.06274178
0.028725572 -0.017830439 -0.028721403 -0.03925734 -0.0006221046 0.04447892 -0.01737278 -0.011650143
-0.004219264 0.014704129 0.00747822 -0.0036052547 -0.047628433 0.010303895 -0.0326182 -0.014404478
-0.007965654 0.008835267 -0.023504134 -0.009031173 0.028863763 0.1033737 0.01989231 0.010396366
0.025808396 0.009715057 -0.048324622 -0.054443 -0.037513725 -0.020693053 -0.041806567 0.039329957
-0.017886536 -0.01814221 -0.029278168 -0.020178221 -0.04501677 0.060561452 0.031166963 -0.043670896
0.061392132 0.00034638925 0.0034017877 0.0009553884 0.0027487949 0.017708018 0.035582975 0.052552093
0.066886246 0.03929723 -0.0076784575 0.012228867 0.013999779 -0.035028476 -0.04442112 -0.05170614
-0.050649468 -0.0063116066 -0.021118525 -0.053969063 -0.019426135 0.031937193 -0.026648324 -0.015422071
0.0047157523 0.028072953 -0.033638 -0.011388586 0.017506301 0.009224151 0.05072036 -0.043304466
0.002386774 0.020638136 0.0041876594 0.034431905 0.025910426 0.055712786 0.051365983 -0.0387524
0.019531678 0.05566492 -0.040803045 -0.013342512 0.0090867905 0.04883246 0.028471027 0.021731285
-0.027579265 0.0019918317 0.0119929705 0.01941741 0.05905215 0.037613407 0.072007224 -0.029109703
-0.018244242 -0.011726302 -0.0410222 0.009683619 -0.0072565884 0.033333506 0.008714523 -0.0022776546

fc1.bias f4 [50]
00000000: 1919 133d 4596 39bd f093 a03c 8909 8a3c
00000010: 0a0d d1bc 910e 25bd 9b88 91bc 6586 d23c
00000020: 8928 483c 3fac 05bd a567 1bbc 2fc7 dabc
00000030: c5fc d63c 553c 953c 7fec 203d ce27 c13c
00000040: fc88 9d3c 2bc6 7dbb 0f0e 39bd d0cc 1e3c
00000050: 63d3 5d3d ba9a 283d 82b7 7f3c 10c4 f9bc
00000060: 6f94 2bbd fdfa 1abb 0653 01bd 54ad 063d
00000070: 4d22 36bd a0a6 ccbc df7c 30bd 83bb 5cbc
00000080: 8882 013c 033d 15bd b816 bcbc 9f0f 94bc
00000090: f43c 493d 3292 0cbc 8c02 d33c a062 fc3c
000000a0: fac2 6ebc eb9a a4bb 1747 12bd 2e96 b9bc
000000b0: a859 94bb a031 143d 43bc 4239 d24f 9d3c
000000c0: 9867 773b e10d b13b
0.035912607 -0.045309324 0.019601792 0.01685025 -0.025518913 -0.040297095 -0.017765334 0.02569885
0.012216696 -0.03263497 -0.00948516 -0.026706306 0.026243577 0.018217245 0.03928804 0.02357855
0.019230358 -0.0038722854 -0.045179423 0.009692386 0.054156672 0.041163184 0.0156077165 -0.030488998
-0.041889604 -0.0023648136 -0.031573318 0.032880142 -0.044466306 -0.024981797 -0.043087836 -0.013472441
0.007904656 -0.03643514 -0.022960052 -0.018073855 0.049130395 -0.008579778 0.02575805 0.030808747
-0.014572853 -0.0050233505 -0.035712328 -0.022654619 -0.0045272894 0.03618014 0.00018571415 0.0192031
0.0037750956 0.005403266

fc2.weight f4 [10, 50]
00000000: ebe1 133e 3c53 d8bd 2393 123e a630 e4bd
00000010: 6857 3fbe c3da b2bc 4541 a83d e0e0 22be
00000020: d3d3 94bc 9257 0cbd 2f21 dfbd fae7 103e
00000030: 3cb4 22bc ad14 2dbd 6aee 18bd 8b57 d6bd
00000040: 02b4 4dbe 52e8 65be 0776 ac3d 492f 89bd
00000050: cea3 153e ab27 21bc b3d8 c7bd df49 833d
00000060: 4ae1 1dbd c12e e53d 7679 b3bd cae6 14bd
00000070: 6c3a 66bd 31b0 f63d 3cfc 02be 3af5 563d
00000080: 35d2 053e 9de1 223d b66d 7d3d d1c6 113d
00000090: b311 583e 9f31 133e 4ee3 213e 2eba 343e
000000a0: 93dc 253d 65ba 2e3e 1556 6abd 7758 c53d
000000b0: 1098 b8bd f659 bb3b bf66 813d 9a9c 3dbd
000000c0: 9597 8f3d 70ae e43d c97f cfbd 34fc c8bc
000000d0: cf0d e3bd 7972 193e e589 9b3d df26 0b3e
000000e0: 3eba bb3d 7254 213e fe26 64be 19b0 33be
000000f0: 2e79 7fbc d7ae a93c 03fb 813d 7c6e b73d
00000100: c6fa d2bd 7118 453e e676 a5bd 28d8 2e3e
00000110: 1141 de3d 38b9 de3d d083 263b cde0 48be
00000120: 141e 29be 8373 e53d 1a12 0c3d beb6 d4bd
00000130: aedc 1dbd 186a dcbd 64c8 fe3d 2818 5a3d
00000140: d94b 313d 3e33 263e 084f d53d 8f1c 7f3d
00000150: a77f efbc 74e9 c4bd e8a4 b9bd b133 343c
00000160: 31e1 e2bd 76f2 cfbd 3034 3dbe 9070 b93d
00000170: a0c7 13be 6732 d53d 04b2 293e 05b7 e9bd
00000180: 46dc 1a3e a1b6 1cbe 5bd7 c03d 433c 2cbe
00000190: ae8f 7e3d 5a38 4bbd b748 23be dac9 073e
000001a0: be3e 29bd 180b d3bd a805 3d3e 6bf2 8abd
000001b0: 1bd5 1bbe 3e15 bf3d e68a 9cbc 8d46 b03d
000001c0: 5dc9 74bd 69ae 64bd 9ce2 dcbd 9d23 723d
000001d0: 0cd3 fcbd e4d0 a6bd 32eb 603e 4829 233e
000001e0: 2da3 0ebe 5cfc abbd b0a8 d63c e1a9 b03d
000001f0: c7a2 4b3e 8e46 0c3e cbdc 8c3d 336b 11be
00000200: cee8 293c 8342 193e 943d d93d db9d fa3d
00000210: 114a 133e 0060 153d c3cb 2ebe 8977 3abd
00000220: d22a a6bd b7fc d93d d89a 8f3d 5b49 013d
00000230: b8fb d4bc 298b 973c 2469 ce3d 276d 0c3e
00000240: 3eba 04bd 2475 983d 9c99 9dbd a0af b7bd
00000250: 90c7 1ebd f9cb fbbd 2b0b eebd 2abd 83bd
00000260: f7da f5bd 2b90 57bd d35e 4cbd 8fd4 3ebd
00000270: 8467 05be ec95 2bbe 49fc e43d 78e7 ba3d
00000280: 5c55 c53d 5ff7 5d3d e49e 2d3e 5546 30be
00000290: 930e 8ebd c90c 043e 5774 573d ee8d 2e3e
000002a0: e1e7 c13c 3b90 233c 867e 15be aa98 4d3e
000002b0: 93e0 17be 3b68 4dbd c198 95bb 62fb e3bd
000002c0: b83b 61bd 64d9 053e 0200 d43d 711c 1f3e
000002d0: 1424 7c3d cf94 a4bd ef6c f1bd 9c0a b73d
000002e0: be9f 9b3d 11d0 e0bc bcc1 1f3d 064b 0d3e
000002f0: 8cba fcbd 6773 dd3b 0497 e03c b9ea 6f3c
00000300: 7a02 e0bd 7bee ed3c 37a9 ca3d fc14 f7bb
00000310: 70d1 9dbd 4ec6 c7bd 4187 bf3c 7eee 023e
00000320: d315 2b3d fa7f 8a3d 3f25 e8bd 801a c3bb
00000330: 0fe1 183e 2b62 06be ff46 033e 0601 243e
00000340: 882f 8f3d 067c ee3d 1304 b93c 4082 fcbd
00000350: c438 83bc 83d9 b03b fddd 983c cb02 d83d
00000360: 0ac4 0b3e 8762 e7bd c274 8ebb 930a 0cbe
00000370: 3a28 783d f721 0ebc 54fe fe3d d885 293e
00000380: efdf 78bd 00bb d93d 665e 013e cbc7 fe3d
00000390: 4744 cabc 8db2 9ebd 1f0f 9abd 0d65 073d
000003a0: 338a db3c 4401 e8bd 401f 443d dfd0 06bd
000003b0: 4ab3 b83d fced 6bbd 9f2e a53d e3ce 033d
000003c0: e79c 1e3d bfb3 00be d20b 18be f0ba d6bd
000003d0: 3656 07be 9bd7 de3d b964 a0bd 141b d73d
000003e0: c4cf e33d f714 40be 41fb b0bd 246c 983d
000003f0: 4114 103e 4e16 f03d 2e11 023e e395 c5bc
0.1444165 -0.10562751 0.1431394 -0.111420915 -0.18685687 -0.02183283 0.08215574 -0.15906096
-0.018167412 -0.0342632 -0.10895001 0.14150992 -0.009930667 -0.042256046 -0.037336744 -0.10465916
-0.20088199 -0.22451904 0.084209494 -0.06698472 0.14613268 -0.009836118 -0.09758129 0.06410574
-0.03854493 0.11190558 -0.08763401 -0.03635291 -0.05620806 0.120453246 -0.12791532 0.05247996
0.13068469 0.039765943 0.061872207 0.035589997 0.21100502 0.14374398 0.15809366 0.17649147
0.04049356 0.17063291 -0.057211 0.09636014 -0.090133786 0.0057175113 0.063184254 -0.046291925
0.07011334 0.11166084 -0.10131795 -0.024534322 -0.11086618 0.14985074 0.07594661 0.13589047
0.09166382 0.1575487 -0.222805 -0.17547645 -0.015592856 0.020713253 0.06346705 0.0895662
-0.103017375 0.19247605 -0.08079319 0.17074645 0.10852254 0.108751714 0.0025408156 -0.19617005
-0.1651538 0.11203673 0.03419695 -0.10386418 -0.038540535 -0.10762423 0.12440565 0.053245693
0.043285225 0.16230485 0.10415465 0.062283095 -0.029235674 -0.0961484 -0.090646565 0.010998652
-0.11078108 -0.10153668 -0.18476939 0.09054673 -0.1443162 0.10410004 0.16571814 -0.11411861
0.1512309 -0.15304042 0.09416076 -0.16819863 0.062148742 -0.049614288 -0.15945707 0.13260594
-0.0413196 -0.1030485 0.18459189 -0.06784519 -0.15218012 0.093302235 -0.0191092 0.086072065
-0.059762347 -0.055830393 -0.1078541 0.059115995 -0.123449415 -0.081453115 0.2196472 0.15933716
-0.13929434 -0.08397743 0.026203483 0.08626152 0.19886313 0.1369879 0.068780504 -0.1420105
0.010370446 0.14966778 0.10607448 0.1223714 0.14383723 0.036468506 -0.17069916 -0.045524154
-0.08113636 0.10643905 0.07011956 0.031564098 -0.025998935 0.018498974 0.10078648 0.13713513
-0.032404177 0.07444218 -0.07695314 -0.08969045 -0.038764536 -0.12294764 -0.11623224 -0.064325646
-0.12004655 -0.052627724 -0.04989512 -0.04658943 -0.1302777 -0.1675641 0.11180932 0.091261804
0.09635422 0.05419099 0.16955143 -0.1721433 -0.069363736 0.12895502 0.052601185 0.1704633
0.023670139 0.009983118 -0.14599046 0.20077768 -0.14831762 -0.05014823 -0.004565329 -0.11131932
-0.054988593 0.13071209 0.10351564 0.15538193 0.061557844 -0.080361955 -0.117883556 0.089375705
0.07598828 -0.027442964 0.03900312 0.1379815 -0.123402685 0.006758142 0.02741576 0.014643365
-0.10937972 0.02904438 0.098955564 -0.0075403433 -0.07705963 -0.097546205 0.023379924 0.1278629
0.04176886 0.06762691 -0.11335229 -0.005954087 0.14929603 -0.13123386 0.12820052 0.16016015
0.06991488 0.11644749 0.02258495 -0.12329531 -0.016018279 0.005397023 0.01866054 0.10547408
0.13649002 -0.112980895 -0.0043474147 -0.13675909 0.060585238 -0.00867509 0.12450853 0.16554964
-0.060760435 0.106313705 0.12633666 0.12440451 -0.02469076 -0.077488996 -0.07522415 0.033055354
0.026799297 -0.113283664 0.047881365 -0.03291404 0.09018572 -0.057600006 0.08065533 0.032179724
0.038723852 -0.12568568 -0.14848259 -0.10484874 -0.1321648 0.10880967 -0.07831711 0.105032116
0.111236125 -0.18757997 -0.08641673 0.07442501 0.14070226 0.11723004 0.12701866 -0.024119323

fc2.bias f4 [10]
00000000: 70b4 40be 564f 313d 04dc 203e aee8 5a3c
00000010: 38d8 13be 704f 4f3d 5bf9 343b 6cc7 b8bb
00000020: 3b03 563c 5c36 1ebe
-0.18818831 0.04328855 0.1570893 0.013361139 -0.1443795 0.050612867 0.0027614448 -0.0056390073
0.013062294 -0.15450424

momentum_buffer f4 [10, 1, 5, 5]
00000000: 2a10 afbc 625f 74bb 0e32 bb3c f802 d93c
00000010: ca2d 993c a0ab 87bc 8686 803b b274 ca3c
00000020: d652 0b3d 02db 113d 8e8c 25bc ce85 a13a
00000030: 500e 9d3c 9d94 0a3d 4476 363d 3b26 19bc
00000040: 2f2d 06bc 2ce2 1a3b ca7d 4d3c c87c 933c
00000050: fa5d 27bc 2228 94bc 36bc 84bc 4af2 9ebc
00000060: 5f9f 2abc 96fa 6b3c a292 d93c 9261 ba3c
00000070: 883c b73b 3c71 943b 1374 6b3c 36f6 2f3d
00000080: cac7 3b3d a426 e23b 98f8 29bc 3408 b13c
00000090: 8da2 393d a7dc 103d e0fd c2bb 6455 0fbd
000000a0: aee1 853c 985d 863c 3225 5ebc ae76 1fbd
000000b0: 2deb 39bd f154 b83b 5bd5 5ebc 1a38 2ebd
000000c0: 4664 4ebd 3606 01bd de72 c0bc 2322 07bd
000000d0: fe56 d9bc 7216 17bc 8857 49bb 6262 b2bc
000000e0: 8fec 67bc 58e6 1abc e117 7f3b 049f f73b
000000f0: 9e3e 4fbc 863c 1ebc be90 a9ba 5677 8f3a
00000100: c0e5 563a 438b 3fbc eaec 0cbc a0a0 583b
00000110: f6cf 383a 43bc e33b 7eb5 ab3b a09b 1f3b
00000120: 281a ef3b 4d9d 553c 257d f73b 01a8 383d
00000130: e1f7 7b3d acdc 703d d4cf 293d 8935 2c3d
00000140: 8553 8b3d 64e6 a63d 0568 823d 1244 2e3d
00000150: 96ab 073d 7dad 893d 5c7e 933d 3c1d 283d
00000160: 383e 593b f202 273c dd71 343d dbb1 e23c
00000170: 1e41 13bc 82f9 bdbc b8b0 5cbc 36e1 c63b
00000180: e7ff 4fbc 2462 1dbc 9725 9bbc ee5d 89bc
00000190: 90a9 05bc 30b1 fa3b 1cca d73c 4ebd f93c
000001a0: e067 133d 60e3 8839 3c48 f73b 9825 4f3c
000001b0: e017 ca3b d61b ed3b bab0 373c e089 973c
000001c0: d098 c73a 8837 4fbc ae16 a1bb cd25 a23c
000001d0: 5ad3 cb3c 2429 c73b d0ad b5ba 6da8 5ebc
000001e0: e05a 6b3c 09da 5f3c b4b4 e13b 047d 27bb
000001f0: 349d 323c faea 31ba 402e 6f39 df69 52bb
00000200: e4ca 31bc d30e 10bc 28de eebb 7c1c 3f3c
00000210: 68e7 a63c ef90 7e3c 98de f9ba 9a4b 483b
00000220: 3142 5a3c 88b7 a73c dca8 55ba d216 92bc
00000230: 3837 023c 3633 bc3b 0aa8 893b 9d19 16bc
00000240: fb64 d3bc 6c2d 9fbb 80eb fc3a 10e2 e9ba
00000250: 5e7b 95bc 00e5 b1bc 5aa9 203d 306a 2e3d
00000260: 4b42 da3c 62a0 483c e85a 973b a890 af3c
00000270: a693 923c a8c2 b53b 923f 0d3b be9c f8bb
00000280: 9e08 7ebc b851 a53a 0e81 c8bb 2069 28bd
00000290: cb32 33bd 9d20 edbc 2194 debb 6c67 f7bc
000002a0: daf7 29bd 8285 5fbd c759 8abc cdc0 b0bc
000002b0: 9e7c c2bc 87e6 1cbd 3f2f 2fbd dc85 563c
000002c0: 3f52 5e3c 2eab 523c 486f bc3a b8a8 c63b
000002d0: 7410 ae3c 71eb ea3c 70ad b43c 334e f0ba
000002e0: b2bf c4bb 8ec9 bf3c d46d d13c f3fb e03a
000002f0: 8aa3 96bc 10fb adbc b482 413c f004 673a
00000300: 6be9 80bc 0388 c1bc 1bb0 8cbc 1a23 a83b
00000310: 3bf8 2bbc fc1c 93bc ea61 92bc 4635 713a
00000320: b048 2f3b 8f5f 0c3c 9fe2 1e3c be01 883c
00000330: dae3 633b 7c74 0e3c aca5 1a3c ed33 933c
00000340: 3a74 903c 20fb f23a 79b1 303c e92b 613c
00000350: 80fe 883c d260 3d3c f478 18bc 7594 033c
00000360: 26d7 103c 13cf 0d3c 4014 5bb8 2e01 babc
00000370: 99d3 833b 0295 a53b 5649 753b 6e10 56bc
00000380: dc32 03bd e971 be3c 807d 8d3c 3018 d83c
00000390: 7e16 873c de3b 13bc 178f 5f3c 4c9f 2b3c
000003a0: 50a3 653c 1e28 783b 6486 81bc 1e71 743c
000003b0: 5cd2 0d3c d2da 8b3b e2a4 42bb 64e5 2dbc
000003c0: c808 0b3c aaea 2c3c 9403 b33b 125a 80bb
000003d0: b0a5 293c 6ce1 8bba f2bd 283c a656 b9bb
000003e0: 9fe0 92bc 34ef 533b
-0.021370012 -0.0037288298 0.022851016 0.026490673 0.018698592 -0.01656133 0.0039222864 0.024713848
0.034014545 0.035609253 -0.010104312 0.0012323202 0.019171864 0.033833135 0.04454638 -0.009347494
-0.008189484 0.0023633344 0.0125421975 0.018003836 -0.010215277 -0.018085543 -0.016203027 -0.019402642
-0.010413974 0.014403006 0.026559178 0.022751603 0.0055919327 0.0045301 0.014370936 0.042959414
0.04584483 0.006901579 -0.010374211 0.021610357 0.045321036 0.03536668 -0.0059506744 -0.034993544
0.016342964 0.01640205 -0.013558673 -0.03893154 -0.045390297 0.00562536 -0.013600673 -0.04253397
-0.050388597 -0.031500064 -0.023492273 -0.03299154 -0.026530739 -0.00922166 -0.0030722339 -0.021775428
-0.014155521 -0.009454332 0.0038924145 0.007556798 -0.012649206 -0.009657985 -0.0012936813 0.0010945599
0.00081976876 -0.011690917 -0.008601407 0.0033054724 0.00070500316 0.006949933 0.0052401414 0.0024354234
0.0072968192 0.013037992 0.00755276 0.045082096 0.061515693 0.0588042 0.041457966 0.042043243
0.068030395 0.08149412 0.063674964 0.042545386 0.03312262 0.067225434 0.072018355 0.041043505
0.0033148658 0.010193573 0.0440539 0.027672699 -0.008987693 -0.023190264 -0.013469867 0.0060693277
-0.012695289 -0.009605918 -0.018938823 -0.016768422 -0.008158103 0.007650517 0.02634149 0.030485775
0.035987735 0.0002610935 0.007546453 0.01264324 0.006167397 0.0072359843 0.0112115685 0.018498361
0.0015228037 -0.012647517 -0.0049160337 0.019793415 0.024881054 0.0060779024 -0.0013861004 -0.0135899605
0.014364928 0.0136628235 0.0068879966 -0.0025556693 0.010901738 -0.00067870284 0.00022810046 -0.003210656
-0.010851596 -0.008792597 -0.0072896667 0.011664506 0.020374015 0.015537485 -0.001906353 0.003056264
0.013321445 0.020473257 -0.0008150467 -0.017833147 0.0079477355 0.0057434095 0.00420094 -0.00916138
-0.025804987 -0.0048577096 0.0019296259 -0.0017843861 -0.018247303 -0.021715641 0.039224006 0.042581737
0.02664294 0.0122452695 0.004618991 0.021431282 0.01789267 0.0055468865 0.0021552783 -0.0075870445
-0.015504984 0.0012612855 -0.0061189 -0.04111588 -0.04374961 -0.028946215 -0.0067925607 -0.030200683
-0.041496135 -0.054570682 -0.016888512 -0.02157631 -0.023741063 -0.038305786 -0.042769667 0.013093438
0.013569414 0.012858195 0.0014376426 0.0060625933 0.02124808 0.02867672 0.022055358 -0.0018333852
-0.006004297 0.023411538 0.025565065 0.001716493 -0.018388528 -0.02123788 0.011810947 0.00088126864
-0.015736302 -0.023624426 -0.017173817 0.0051311376 -0.0104961945 -0.017958157 -0.017868955 0.0009201359
0.0026746206 0.008567705 0.009697585 0.016602393 0.0034773261 0.008694764 0.009438913 0.017969096
0.017633546 0.0018537976 0.0107845 0.013743379 0.016722918 0.011558728 -0.009306181 0.008031
0.008840358 0.008655327 -5.2232528e-05 -0.02270564 0.004023027 0.0050531635 0.0037427745 -0.013065441
-0.032030925 0.023247676 0.017271757 0.026378721 0.016490217 -0.008986441 0.013644955 0.010474991
0.0140159875 0.0037865709 -0.015811153 0.014919547 0.008656111 0.004268029 -0.0029700329 -0.010613773
0.00848598 0.010553995 0.005463073 -0.003916987 0.010354444 -0.0010672039 0.010299193 -0.0056560813
-0.017929373 0.003233862

momentum_buffer f4 [10]
00000000: d8bf 5abc e026 3b38 94af 61bc 5439 8e3c
00000010: c8ef 6b3b 0fec e7bb fd44 8dbc 97fd 7b3b
00000020: 273b 33bc 284c 94bb
-0.013351403 4.462048e-05 -0.013774771 0.01736132 0.0036001075 -0.007077701 -0.01724481 0.0038450712
-0.010939396 -0.00452568

momentum_buffer f4 [20, 10, 5, 5]
00000000: 2826 d5ba 8847 11bb aecf 6dbb b03e e1bb
00000010: 0ed9 41bb 4a54 ad3b f5ed 0a3c 4b8b 983b
00000020: 5c18 f3bc 79cf 56bd 0107 11bc 80b0 23bc
00000030: 1cd7 05bb 8e95 cbbc 12c2 21bd 24d3 20bc
00000040: a2a7 8ebc 3672 8bbc 34bc 87bb 0a1c 0d3c
00000050: 63e6 8abc b6be c2bc 265b d4bb 180d efbb
00000060: 5d39 2fbc 28a3 b93c ecab d13c ba2c 1a3c
00000070: 9e29 153d eb55 003d a528 ab3c 1660 2c3c
00000080: 8346 78bc 50c1 a4bc e055 03bc eb48 a93c
00000090: 7541 ff3c 6808 41bb c0b4 7ebd 0d17 25bd
000000a0: 10d5 213c 1d93 013d d820 a73b 1b2c 66bd
000000b0: 0c7d 7bbd 8099 23bb 3425 e13a da31 b23c
000000c0: f6a9 aabc fb91 7fbd 2ccb 043b e0b7 4e3a
000000d0: 34a3 833c 3ed3 fc3b c2ce 9c3b 6ebe 01bb
000000e0: bcd1 fe3b f589 de3c 38b2 113c bc99 ad3a
000000f0: 2645 6cbc f360 b53b 94c4 fd3b 08c5 bf3c
00000100: e0ec 623c f00e d0ba 49d7 f33a e84f 013c
00000110: 1920 f43b f03d 333a 1cf2 03bc c235 3f3c
00000120: e2fc 2dbb 9b47 cc3b 7470 adba 60e7 0d3c
00000130: 1d69 aa3c 42c8 863c 26f1 d33c 88d1 2f3d
00000140: 160d e83c bade 773d 7b49 7b3c dc14 94bb
00000150: beab 89bc 604e 183d 66d9 373d 30d5 683c
00000160: 2108 1cbd 52f5 acbd 984a de3c 5e18 143c
00000170: 807b 5639 9661 f1bc 148c 87bd bd68 6bbb
00000180: 5288 87bb d8cb 5dbb dc90 36bc cdaf 7abd
00000190: 6069 273c cf94 5e3c 525e 203b 44b8 973c
000001a0: e471 8c3c d4b2 f03c 52c1 953c 451f 30bc
000001b0: 2a61 ffbc a4dd 98bc f9ee bd3c 1c8f e13c
000001c0: 28a3 90ba 8bce 6cbd 1306 5fbd 3f28 4f3c
000001d0: 6417 7a3c a23e 053c 620a d2bc 80f1 3ebd
000001e0: 08b5 aabb 7aab b7bb af22 a43b 2eff 2bbc
000001f0: 7e92 54bd 2e38 643b dc71 e53b ff38 683c
00000200: f517 e53c e462 dd3c 4a2a 043c 38f8 023c
00000210: feb2 e9bb e26e a23a af4d 603c 8c70 aa3c
00000220: 00fd ae3c 0083 763b 087a 71bc ef61 92bb
00000230: 23d2 b63c cb67 923c 00d9 06bb 8831 cabc
00000240: 335a 18bd d6d2 5f3c 38d2 213a 20f8 a43b
00000250: 7862 40bc 1761 fbbc 102a 5cbb d40c 3d3c
00000260: 7c27 bc3b e50a bd3c 4623 c73c c591 ed3c
00000270: f20b cb3c b5d8 ce3b 90be e5ba f498 fbbb
00000280: 45e8 f73c 44d0 1d3d 9825 023b 7678 42bd
00000290: 470a 8bbd f2f4 243c af7c 463c 5659 73bc
000002a0: 7edc 19bd f3fc 18bd c82a cdba ac92 3cbc
000002b0: b8aa a6b9 42bc e5bc a891 15bd d050 f23b
000002c0: fd85 ad3b 618f 9e3b c098 b13c 99ed ee3b
000002d0: 272e 633c 715b b03c 64c1 4fbc 5afb 9dba
000002e0: a4ef 5a3a f9fe 073c 44c2 4b3c b444 643b
000002f0: e9e9 5cbc ae79 61bc 8f35 603c b47a 38bb
00000300: 6b8c f43a de3b dfbb 749e 54bc 8d7a da3b
00000310: d78b 723a 8b35 3d3c 4cf2 b1ba f0a7 b1bc
00000320: c7aa a23b 7d38 ff3b 50ac ed3b 1cbb 943b
00000330: 68e0 5dba 1018 103c 7a16 d2ba 835d 10bb
00000340: 70cc 44bb 74ec 3cbb 9aae ca3b 6076 c8b9
00000350: 7fac 06bc 7742 30bc a034 1dba 7eb1 8fbb
00000360: 803e a6bb 6edb aeba 104f ef39 68e2 12bb
00000370: 7601 e23a dc93 88bb 9072 07bb f2b9 f6bb
00000380: f815 24bc 6aea 603c a619 253c 7eea 933c
00000390: 3265 5f3c 9a3f 8dbb 5791 0f3d 5c09 133c
000003a0: a5b4 06bb 0831 e7ba 9488 f3bc cf15 a43c
000003b0: c4b1 02ba 0631 95bc ebe0 b7bc dfe6 54bc
000003c0: c3e5 9d3c edba 86bc afa6 8dbc 80cd 0dbc
000003d0: 53d2 36bb 7a3a 67bc a5f6 e5bb 2a63 50bb
000003e0: 4b9a 19bd ea79 1cbd d13e 043c 3cc9 0abc
000003f0: e461 eebb 5b86 79bb 7092 273b 3fe5 6dbc
-0.0016261982 -0.002216788 -0.0036287117 -0.006873928 -0.0029578838 0.005289589 0.008479585 0.004655277
-0.029674701 -0.052443955 -0.0088517675 -0.009990811 -0.0020422405 -0.024851587 -0.03949172 -0.009815965
-0.017413918 -0.017022233 -0.0041423086 0.008612642 -0.01695556 -0.023772579 -0.0064805923 -0.007295262
-0.010694829 0.022660807 0.025594674 0.009410078 0.036416642 0.031331938 0.020893404 0.010520956
-0.01515353 -0.02011171 -0.00801608 0.020664653 0.031159142 -0.0029454473 -0.062184095 -0.040305186
0.009877458 0.03163444 0.005100351 -0.056194406 -0.06139855 -0.002496332 0.0017177225 0.021752287
-0.020832997 -0.062395077 0.0020262701 0.0007885676 0.016069032 0.0077156117 0.0047853896 -0.0019797343
0.007776467 0.027165392 0.008892588 0.0013244669 -0.014420783 0.005535239 0.007744381 0.023409382
0.013850421 -0.0015873592 0.0018603589 0.007892586 0.0074501154 0.00068375375 -0.008053329 0.011670532
-0.0026548435 0.006234122 -0.0013232366 0.008661121 0.020802075 0.016452912 0.025871824 0.042924434
0.028326552 0.060515143 0.015337343 -0.004519088 -0.016805526 0.03718412 0.04488506 0.014210984
-0.03809369 -0.08445229 0.027135178 0.009039013 0.00020454638 -0.029465478 -0.06618515 -0.0035920583
-0.0041361237 -0.0033843424 -0.011142936 -0.061202813 0.010217994 0.013585283 0.0024470282 0.018520482
0.017144151 0.029382147 0.018280659 -0.010749643 -0.031174261 -0.018660374 0.02318524 0.02753406
-0.0011034952 -0.057814162 -0.054449152 0.012643873 0.015264366 0.008132609 -0.025639717 -0.04661703
-0.005209569 -0.0056051584 0.0050090174 -0.010497851 -0.05189752 0.0034823525 0.0070020985 0.014173745
0.027965525 0.027024694 0.008066723 0.00799375 -0.0071319332 0.0012392665 0.013690396 0.02080562
0.021360874 0.0037614703 -0.014738567 -0.004467241 0.022316998 0.017871758 -0.002057612 -0.024681821
-0.037195396 0.013661107 0.00061729876 0.0050344616 -0.011742227 -0.030685944 -0.0033594407 0.011538703
0.0057420116 0.023076484 0.024308812 0.029000172 0.02478597 0.0063124546 -0.0017528106 -0.0076781455
0.030262122 0.038528696 0.0019858833 -0.04747816 -0.067890696 0.010068165 0.012114688 -0.014852842
-0.037563793 -0.037350606 -0.0015653009 -0.011509579 -0.00031789183 -0.02804387 -0.03651586 0.0073948875
0.0052955137 0.0048388694 0.021679282 0.0072915074 0.013865984 0.021527978 -0.012680385 -0.0012053058
0.0008351749 0.008300536 0.012436453 0.003483099 -0.013483503 -0.013761921 0.013684644 -0.0028149309
0.001865757 -0.0068125566 -0.012977231 0.006667441 0.0009252405 0.01154841 -0.0013576238 -0.021686524
0.004964206 0.0077887163 0.0072532073 0.0045389067 -0.000846392 0.008794799 -0.0016028427 -0.0022028394
-0.003002908 -0.002882746 0.006185365 -0.0003823517 -0.008219837 -0.010758034 -0.00059969164 -0.0043851724
-0.0050733685 -0.0013340542 0.00045644538 -0.002241278 0.0017242867 -0.004168017 -0.002066765 -0.0075294906
-0.010015003 0.013727764 0.010076916 0.01805615 0.013634967 -0.0043105604 0.035050716 0.008974399
-0.002055445 -0.0017638514 -0.029728211 0.02002993 -0.00049855956 -0.018211853 -0.022446116 -0.012994497
0.019274598 -0.016446555 -0.017291395 -0.008654952 -0.002789636 -0.014113063 -0.0070179277 -0.0031797388
-0.03750066 -0.038202204 0.008071617 -0.00847083 -0.007274853 -0.0038074467 0.0025569461 -0.014519989

momentum_buffer f4 [20]
00000000: 7c21 4dbb dfe2 493b 2cce dfbb 289a 06bc
00000010: a4ad a03c 84dd 74bb d577 1b3b 96f7 8e3c
00000020: 2e75 613c 5f5c 313c 2669 533b 2841 bfbb
00000030: c07a 7dbb bca9 08bc dc5c 5bbb 5866 24bc
00000040: 2ab5 fbbc f627 b3bb f17d 0e3c 556e 9a3c
-0.0031300476 0.0030805392 -0.0068299975 -0.008215465 0.019614048 -0.003736348 0.0023722549 0.017452043
0.013760848 0.010825246 0.0032258718 -0.0058366247 -0.00386779 -0.008341249 -0.0033472097 -0.010034166
-0.030726034 -0.00546741 0.008697019 0.018851439

momentum_buffer f4 [50, 320]
00000000: 8a92 f63d 08da 2f3e 21fd 703e e4b9 593e
00000010: 90ac 243e b22f 3e3e a518 2f3e fc19 343e
00000020: 9c5d d83d 44bb 153e fe69 fb3d 4644 143e
00000030: f8a6 183e 3ee9 5e3e deb0 583e 907b 163e
00000040: 6da1 493d a411 d63c 24a8 d93c c63f 733c
00000050: e2f0 fe3c 0e9d 1c3d 5d65 1b3d ae9d 643c
00000060: 5431 353d ce26 833d 5e87 4a3d 385b 843c
00000070: 5b78 b33c 8acd 193d 0a3d ea3c cff9 ddb9
00000080: a565 5a3c c384 bc3c 5223 fe3c 0f06 843d
00000090: 2a67 293a 0976 0c3d 063d f53a ad9a 733d
000000a0: 38cf 3c3a 2464 223d eb35 0b3d f4e7 0f3d
000000b0: 572b 0aba 2d0a 7c3a c4c9 143d c294 6d3c
000000c0: caa7 763c 9669 9b3c ded3 5f3d b986 8d3c
000000d0: e3af 0c3d 8ec5 2a3d ed7b bb3d 5158 b33b
000000e0: 5f84 1e3d b637 b53d dfaa 893d 8ab5 163c
000000f0: c368 453d 1cef 943d d245 d53b 0c35 1d3c
00000100: 62b0 123c 6fc4 1c3c 538c ad3c fd39 583b
00000110: f611 913c 2250 aa3b fdfd 873c 349e 7f3c
00000120: 0ca0 0c3d b675 583d 2411 2f3c 988b 173b
00000130: 02a5 a13c 4601 0f3d 002b 85b9 7154 813b
00000140: 60ec ee39 ac5f 9fbb d87f 4ebc 32ac 50bc
00000150: e124 bc3b c28a 8abb 36f7 37bc 681c 00bc
00000160: 3c8f c63b e0ee 7cbb 4cfe 9abb fe46 46bc
00000170: e9fe 143c 5ced 87ba 5a19 82bc e172 d6bb
00000180: 9ed3 7c3d a20b 3a3d e696 103c a6b6 713c
00000190: c50c 193d 42db 3c3c a2e4 653c e1e8 b93c
000001a0: 70f4 7b3b 93b2 053d 4bd5 073d 275d 3a3b
000001b0: 2f1b a03b dac4 373c bed4 8c3b 3462 2d3b
000001c0: 2fbc 273e 3229 0f3e 3d6d 933d 5b21 033d
000001d0: 89ed 2f3e b267 513d 166b 263e 49b4 bf3d
000001e0: acf3 0b3e de82 4d3d deba 443e 4bed 0d3e
000001f0: bc97 f23d 3f65 8b3d a0c8 d53d e4d2 6d3d
00000200: c7e8 943c 9e86 573d a71b cb3d 9514 1d3e
00000210: 0c41 b33d 0e7c ed3d 1758 0c3e f57b 2d3e
00000220: bc06 d83d 214f 163e 19bb fa3d a5d5 2e3e
00000230: 5bd7 8b3d 1e0d 2f3e 1ac6 f63d 78ce c83d
00000240: aa95 583d ac5d 263d 6ae3 b13d 0136 ac3d
00000250: 1dde e53c 9c68 c03c 7bae 803d 3e5d 803d
00000260: fe2f 4f3d 2de4 dd3c 317e 353d 5afb 843d
00000270: 44c3 a13c f032 7a3c 97ff 793b eede 093d
00000280: d3e4 a2ba 00b2 973c 708e 363c 7277 3a3d
00000290: a026 0c3c 6add 403d d469 0f3d 83b5 993d
000002a0: 9a55 a13c c545 863d ade8 4d3d 5e4d 603d
000002b0: 00f7 2e3c 7c1a 6c3d 8fd6 8c3d f92a 563d
000002c0: d707 013d d0be ba3c b631 d63c b4f1 943c
000002d0: 8482 823c 5012 af3c 3c94 e23c cb45 e33c
000002e0: cb04 393d d674 8b3d 0015 d93c bc4a 2c3d
000002f0: 2e85 453c 020c be3c bf5b 273c 2453 dc3c
00000300: d49c 543c b334 a23b e83d 3e3d 6845 b23c
00000310: 4f8a 7e3d 2350 da3c 6860 813d 268c e33b
00000320: 6cac 733d 4add 253d 265b 753d 48df 923c
00000330: e4c3 c03d 4159 c23d 908a f33c 6e4e 833c
00000340: e4ec 0dbc fa26 94bb 3aaf 9b3c 6714 963c
00000350: e451 4f3c 3c39 a73b 2075 103d eef7 813c
00000360: de6a 6b3c 0090 b23c c422 f33c 89f2 6abb
00000370: e342 013d aa44 023d 1a67 e23a 0ef9 b13b
00000380: fd71 8f38 e634 1395 f90e 30b2 2860 94b3
00000390: af3c 8422 0000 0000 0000 0000 03c5 6b2e
000003a0: 7c36 3c88 0000 0000 0000 0000 a952 7738
000003b0: a174 9db1 0000 0000 96e6 f839 a60e 323b
000003c0: 9192 8c3d f3fb 2d3d 0f05 683d 9e3c 2039
000003d0: 915d 523d 4d26 9e3c 816f f73b 8202 eb3a
000003e0: 83ae 773d c895 e93c 5801 9f3c a227 603c
000003f0: 7433 613d b63d a43b 828b c93c d4e8 f43b
0.12039669 0.17173016 0.23534061 0.21262318 0.16081452 0.18572882 0.17099245 0.17588037
0.105647296 0.14622217 0.12276076 0.14479169 0.14907444 0.21768662 0.2116122 0.14695573
0.049226213 0.026131459 0.026569434 0.014846748 0.031120721 0.038235717 0.037938464 0.013953609
0.044236496 0.06403886 0.049445502 0.016156778 0.021907976 0.037549533 0.028593559 -0.00042338527
0.013329898 0.023012524 0.031022701 0.06446468 0.0006462211 0.034292255 0.0018710203 0.059473682
0.0007202509 0.039646283 0.033986967 0.035133317 -0.00052707404 0.00096145534 0.03632523 0.014500799
0.0150546525 0.018971246 0.05464541 0.017276155 0.034347426 0.04169231 0.09154496 0.0054731746
0.038700458 0.08848517 0.06722044 0.009198556 0.04819561 0.07272169 0.0065085674 0.009595167
0.008953186 0.009568318 0.021185076 0.0032993548 0.01770876 0.005197541 0.016600603 0.015601683
0.03433232 0.052846633 0.010685239 0.0023123976 0.019732002 0.034913324 -0.00025399774 0.003946834
0.0004557101 -0.0048637 -0.0126037225 -0.012736367 0.005741701 -0.004227967 -0.011228373 -0.007819273
0.0060595553 -0.003859453 -0.0047300216 -0.012101887 0.009093978 -0.0010370421 -0.01588123 -0.0065444564
0.06172525 0.04542125 0.0088250395 0.014753019 0.037365694 0.0115268845 0.014031561 0.022694053
0.0038445257 0.032641005 0.033162396 0.002843687 0.004886053 0.011216367 0.004297822 0.0026456239
0.1638038 0.13980559 0.0719857 0.032014232 0.17180456 0.051124282 0.16251788 0.093605585
0.13667172 0.050173633 0.19211909 0.13860051 0.11845347 0.068064205 0.10438657 0.05806245
0.018177403 0.052618615 0.09917384 0.15339883 0.08752641 0.11595927 0.13705479 0.16941817
0.105481595 0.14678623 0.12242717 0.17073686 0.06828185 0.17094848 0.120495036 0.09805006
0.052877106 0.040616676 0.08685954 0.08408738 0.028060013 0.023487382 0.062832795 0.062677845
0.05058288 0.027086342 0.0443098 0.06493254 0.01974643 0.0152709335 0.0038146728 0.033659868
-0.0012427814 0.018517494 0.011142358 0.04552407 0.008554131 0.047086157 0.035013035 0.07505324
0.019694138 0.06556276 0.050270725 0.054761283 0.010679007 0.057642445 0.06876861 0.052287076
0.031501617 0.022796065 0.02614675 0.01818166 0.015931375 0.021371037 0.027658574 0.02774324
0.045170587 0.06809394 0.026499271 0.04206346 0.012055678 0.023199085 0.010214745 0.026895113
0.012976844 0.00495013 0.046445757 0.021761611 0.06214362 0.02664954 0.06317216 0.006944197
0.059490606 0.04049424 0.05990138 0.017928734 0.09412363 0.0948968 0.029729158 0.01602861
-0.008662436 -0.004521248 0.019004453 0.018320275 0.012653802 0.0051032584 0.03526795 0.015865292
0.014368741 0.02179718 0.029679663 -0.0035850129 0.03155793 0.031803764 0.0017273158 0.005431301
6.840003e-05 -2.9728143e-26 -1.0247953e-08 -6.909278e-08 3.5842923e-18 0.0 0.0 5.3607795e-11
-5.663824e-34 0.0 0.0 5.8966372e-05 -4.5825606e-09 0.0 0.00047474046 0.0027169376
0.06863893 0.042476606 0.05664545 0.0001528137 0.051358763 0.019305373 0.007551134 0.0017929825
0.06046916 0.028513804 0.01940982 0.013681324 0.05498071 0.0050122393 0.024602655 0.0074740443

momentum_buffer f4 [50]
00000000: 74d2 da3c 4dff ee3b 4900 a6bc 1e4d 59ba
00000010: bf5a 053c 18ae 0ebb 8214 5bbc c826 2dbc
00000020: 746b 64bb 1dcf 14bb eeb2 bb3b ba07 84bc
00000030: 5c2f 813a 5ebe e93b 2ac8 aa3b 469d 25bc
00000040: 021e 1ebb 7cdc 2dbc 24a2 13bc 5263 203c
00000050: 82a3 9cbc a3d6 a73b 54a7 80bb 03c6 a63c
00000060: f8bc cfbb 76e7 f8bb b4f4 b2ba 54b1 e0b9
00000070: 9cbf 8eb9 a8e7 a4b9 1ac2 4bbc 7c57 eb3b
00000080: a052 5ab9 203f 123c cbf1 ff3c 6cf4 d7ba
00000090: 6ddb b139 03d1 333b 608e a3bb 206d 68bc
000000a0: e0a3 a4bb 739f e23a 791b 843b 5353 08bb
000000b0: 1a16 e93b 61c6 953a 1a9a 21bb 27c9 94bb
000000c0: 7f3f 9a3a 544a edbb
0.02671168 0.007293618 -0.020263808 -0.00082893844 0.008139311 -0.0021771248 -0.013371589 -0.010568328
-0.0034854086 -0.0022706457 0.005728117 -0.016116966 0.0009856033 0.0071332892 0.0052118497 -0.010108298
-0.0024126773 -0.01061165 -0.009010825 0.009789305 -0.019120935 0.0051220222 -0.003926197 0.020358091
-0.0063396655 -0.0075959517 -0.001365325 -0.0004285673 -0.0002722711 -0.00031453115 -0.012436414 0.00718206
-0.0002082088 0.008926183 0.031243226 -0.0016476042 0.00033923556 0.0027437813 -0.0049913377 -0.014186174
-0.0050244182 0.0017289951 0.0040315953 -0.0020801618 0.0071132304 0.0011426919 -0.0024658502 -0.004540581
0.0011768191 -0.0072415266
