models/model_2020-12-08_21-51-30/checkpoint.pt (torch, 179791 bytes, 16 tensors)

conv1.weight f4 [10, 1, 5, 5]
0	0xbc706670	-0.0146728605
1	0xbdc9ea86	-0.09859185
2	0x3d3098e7	0.04311457
3	0xbe469792	-0.19393757
4	0x3dd856f7	0.10563462
5	0x3908a36e	0.00013030853
6	0xbd94f03d	-0.07272384
7	0xbdcf623a	-0.10126157
8	0xbd88c05b	-0.06677314
9	0x3d041bb0	0.032252967
10	0x3c27be19	0.010238194
11	0x3e2d9764	0.16952282
12	0x3d6e612c	0.05819814
13	0x3d9bd9d4	0.07609907
14	0x3c9379d2	0.018002424
15	0xbe2bbb7c	-0.16770738
16	0x3e2937d2	0.165252
17	0x3d864f31	0.06558073
18	0x3d795efe	0.060881607
19	0xbe254bba	-0.16142169
20	0x3dc9f4b0	0.098611236
21	0x3e57245f	0.21009968
22	0x3d90f417	0.070778064
23	0x3d7cd2a3	0.061724316
24	0xbd4b1dc4	-0.049588934
25	0xbe1e0b54	-0.15434009
26	0x3e1e0ccc	0.15434569
27	0xbde26af3	-0.11055555
28	0x3daf4fb6	0.085601255
29	0xbdbd10a0	-0.092316866
30	0x3debc485	0.115120925
31	0xbe322420	-0.17396593
32	0xbdbd2933	-0.09236374
33	0xbcc343fe	-0.023836132
34	0x3d6dc507	0.058049228
35	0x3d1f23c0	0.038852453
36	0x3dfae80f	0.12251293
37	0x3e0b9082	0.13629344
38	0xbe4c6c8d	-0.19963284
39	0x3dd8cafb	0.105855905
40	0xbd892e30	-0.06698263
41	0xbd912b35	-0.07088319
42	0xbc766480	-0.0150386095
43	0x39b493cb	0.0003444239
44	0xbc957784	-0.018245466
45	0xbe27f48b	-0.1640188
46	0xbd35ff25	-0.044432778
47	0x3e2abcc7	0.16673575
48	0xbdcdb65c	-0.10044548
49	0x3c98b2db	0.018639972
50	0xbe040cb8	-0.12895477
51	0x3e48fe1b	0.19628184
52	0xbe36c5b2	-0.17848852
53	0x3d9ea997	0.077471904
54	0xbda9e224	-0.08295086
55	0xbdb6b445	-0.089211024
56	0x3e571004	0.21002203
57	0x3dc326c7	0.095288806
58	0xbe083876	-0.13302788
59	0x3e1ca82c	0.15298527
60	0xbcb7aafc	-0.022420399
61	0x3e41472e	0.18874809
62	0x3dcd85a2	0.10035254
63	0x3e0141e3	0.1262279
64	0x3dde68d0	0.10859835
65	0x3e582fa9	0.21111931
66	0x3e039053	0.12848024
67	0x3e1dc8f8	0.15408695
68	0xbd15d2c5	-0.03657796
69	0x3e04ce7c	0.12969393
70	0xbdc3213e	-0.09527825
71	0xbdd52a05	-0.10408405
72	0xbdf63c63	-0.120232366
73	0x3dca77c5	0.098861255
74	0x3df0a5ea	0.117503956
75	0xbe46b65e	-0.19405505
76	0x3dec8711	0.115491994
77	0xbe0c1de7	-0.13683282
78	0xbe3737ed	-0.17892428
79	0x3d3209b7	0.043466296
80	0x3bbbdb06	0.0057328967
81	0xbe4d60dd	-0.20056482
82	0x3ba0ed83	0.004911126
83	0xbd928076	-0.07153408
84	0x3d9792e5	0.07401065
85	0xbe3f4ca5	-0.18681581
86	0x3d3473bb	0.04405568
87	0x3de34aaf	0.11098229
88	0xbe270126	-0.16309032
89	0x3cc27e83	0.023741966
90	0xbe39869f	-0.1811776
91	0x3ce316c7	0.027720822
92	0xbe05c323	-0.1306272
93	0x3c8090e6	0.015694093
94	0xbcb229f1	-0.021748515
95	0x3d96ffcf	0.0737301
96	0xbe2b36cc	-0.16720122
97	0xbd60af0f	-0.05485445
98	0xbdbd2364	-0.09235266
99	0xbe3c25d0	-0.183738
100	0xbdb3d051	-0.087799676
101	0xbe1f086a	-0.15530553
102	0xbda37bff	-0.07982635
103	0x3e360ddf	0.17778729
104	0xbe05bd16	-0.13060412
105	0xbe1c021d	-0.15235181
106	0x3e47d22f	0.19513772
107	0x3ddef3d1	0.10886348
108	0xbc888bde	-0.016668256
109	0xbe2bfaea	-0.16794935
110	0x3d4a18e2	0.049340136
111	0xbd27f083	-0.041000854
112	0x3e236732	0.15957335
113	0x3d83cf2c	0.06435999
114	0xbcb3319f	-0.021874247
115	0x3ddeb7ba	0.10874887
116	0x3dcb1c37	0.09917491
117	0x3e42cc40	0.19023228
118	0xbe1d3f0b	-0.1535608
119	0xbdad596c	-0.084643215
120	0xbddf8eea	-0.109159306
121	0x3e433e53	0.19066744
122	0xbbad30cb	-0.0052853576
123	0xbe3d0d27	-0.18462048
124	0xbe00086c	-0.12503213
125	0xbbcf2a98	-0.0063222162
126	0x3e31e36c	0.17371911
127	0xbd0db3bc	-0.034595236
128	0xbe3566f9	-0.17715062
129	0xbd055e9a	-0.032560922
130	0xbe224116	-0.15845141
131	0xbcd2a188	-0.02571179
132	0x3e4ecdd8	0.2019571
133	0x3e4c33ff	0.1994171
134	0x3d0e1524	0.03468813
135	0x3e2733d2	0.16328362
136	0xbc863e70	-0.016387194
137	0x3cbb53c7	0.022867097
138	0x3ddf8b44	0.10915235
139	0xbbdc6134	-0.0067254547
140	0x3de5f0a0	0.11227536
141	0xbd8ada28	-0.06779891
142	0x3d76254b	0.06009416
143	0xbe43745f	-0.19087361
144	0xbe22cf9a	-0.15899506
145	0xbe1dbdaa	-0.15404382
146	0xbda31552	-0.07963051
147	0xbd0db4a6	-0.034596108
148	0xbd24b1bc	-0.040208563
149	0xbe06fb39	-0.13181771
150	0x3e34ad93	0.17644338
151	0x3e4f1096	0.20221171
152	0xbdf365ac	-0.11884627
153	0x3dd5feb7	0.104489736
154	0x3e25d23f	0.16193484
155	0x3d6f11b2	0.058366485
156	0xbd4918f3	-0.04909606
157	0x3e438321	0.1909299
158	0xbd5fb4ed	-0.054615904
159	0xbe1e8639	-0.1548089
160	0x3d8ee14a	0.06976564
161	0x3dcc3397	0.099707775
162	0x3cb7f664	0.022456355
163	0x3c6129b1	0.01374285
164	0x3dd3eb86	0.10347657
165	0xbe121c82	-0.14268687
166	0xbded2603	-0.11579516
167	0x3c34471d	0.011003283
168	0xbe3cc7a2	-0.18435529
169	0xbe3937cf	-0.18087696
170	0x3dbdfe5d	0.092770316
171	0xbe42c2c8	-0.19019616
172	0xbb170da0	-0.0023048893
173	0x3e1a58b3	0.15072899
174	0x3cb79cf6	0.022413712
175	0xbc179fab	-0.009254376
176	0x3d99a304	0.07501796
177	0x3e24ea69	0.16105045
178	0xbe17db37	-0.14829718
179	0x3ced12f1	0.028939696
180	0xbe202a08	-0.15641034
181	0xbb275d6e	-0.0025537866
182	0xbde4fed3	-0.11181416
183	0xbd857e49	-0.065182276
184	0xbe37fc38	-0.17967308
185	0xbc62eaa2	-0.013849886
186	0x3dc69530	0.09696424
187	0x3cfb7c61	0.030698957
188	0xbe240084	-0.16015822
189	0xbddbef29	-0.107389756
190	0xbe02f91b	-0.12790339
191	0x3d0029fd	0.031290043
192	0xbd009531	-0.03139228
193	0x3d5c3385	0.05376007
194	0x3e0ec55b	0.13942473
195	0x3d374f2c	0.04475324
196	0x3d6caecc	0.057783887
197	0x3e519fba	0.20471087
198	0xbe0d9c17	-0.13829075
199	0x3dd31508	0.10306746
200	0xbd0390e0	-0.032120585
201	0x3e20b23d	0.15692993
202	0xbbce9d0c	-0.0063053425
203	0x3dfe93eb	0.12430557
204	0xbdb98e91	-0.090603955
205	0xbe3c94ee	-0.18416187
206	0xbd3de5ca	-0.046361722
207	0x3e012f21	0.12615635
208	0xbd8d37d1	-0.06895412
209	0x3c013377	0.007885805
210	0xbb3caa74	-0.0028788121
211	0xbd5d28bc	-0.053993925
212	0xbe04765e	-0.12935778
213	0xbd87db4d	-0.06633625
214	0xbda55d80	-0.08074474
215	0xbd938dce	-0.072047815
216	0x3c81644e	0.0157949
217	0x3e2c51c1	0.16828062
218	0xbe0a7f0b	-0.13525026
219	0xbb8c0c09	-0.0042738956
220	0xbdeb685f	-0.114945166
221	0x3dcece45	0.100979365
222	0x3e28ea7a	0.16495696
223	0xbd2f0320	-0.04272759
224	0x3ba6b924	0.0050879885
225	0xbdbe02c1	-0.09277869
226	0xbde43098	-0.11142081
227	0x3de3fa05	0.11131672
228	0xb98d2d98	-0.00026927586
229	0x3e336c02	0.1752167
230	0xbdf8b19d	-0.12143252
231	0x3e490384	0.19630247
232	0x3e29a1bc	0.16565603
233	0x3e3946c1	0.18093397
234	0x3d39e03f	0.045379873
235	0xbe06165b	-0.13094465
236	0x3d8834cb	0.066506945
237	0x3dee0f85	0.11624054
238	0xbcca9219	-0.024727868
239	0xbe289a85	-0.16465195
240	0xbd7689a9	-0.060189877
241	0xbd7dd16c	-0.0619673
242	0x3ddb0b79	0.106955476
243	0xbd3ea57d	-0.04654454
244	0xbe10e265	-0.14148863
245	0x3deae477	0.114693575
246	0x3e43ceeb	0.19121902
247	0x3df1f977	0.1181516
248	0x3d708bd7	0.05872711
249	0xbe0e9ac5	-0.13926227

conv1.bias f4 [10]
0	0xbe01e087	-0.12683307
1	0xbe1ea0f2	-0.15491083
2	0x3e135dab	0.143912
3	0x3e02006a	0.1269547
4	0x3df25c1c	0.11833975
5	0xbe220a8f	-0.1582434
6	0xbd157aee	-0.036494188
7	0x3dbf6996	0.09346311
8	0x3e436294	0.19080573
9	0xbc4be098	-0.012443684

conv2.weight f4 [20, 10, 5, 5]
0	0xbd5a555e	-0.05330407
1	0xbd65c6f6	-0.056097947
2	0x3d18ed54	0.03733571
3	0x3bd6cc71	0.006555133
4	0xbd034913	-0.03205211
5	0x3d467ddc	0.048459873
6	0xbd7c6f36	-0.061629497
7	0x3d1774d1	0.03697664
8	0x3b99e29a	0.0046962025
9	0xbc14f581	-0.009091736
10	0xbd1bf1cf	-0.038072404
11	0xbcd8ce35	-0.026465515
12	0x3cca1c25	0.024671623
13	0xbc4ee889	-0.012628683
14	0x3d434aaf	0.047678646
15	0xbc64afd5	-0.013957937
16	0xbc437ec0	-0.011932075
17	0xbd1ead1c	-0.03873931
18	0x3d44f2dc	0.04808317
19	0x3c6f1ca8	0.0145942345
20	0x3c311b74	0.010809768
21	0xbd1d5e1d	-0.03841983
22	0x3d0b005b	0.033935886
23	0x3d8d070c	0.0688611
24	0xbbb7c246	-0.005607876
25	0x3d16e4e8	0.036839396
26	0x3cecb78c	0.028896116
27	0xbc7a5c27	-0.01528076
28	0x3ce76439	0.028246032
29	0xbc6e6f75	-0.014552941
30	0xbc3a0b3c	-0.011355218
31	0xbd396f40	-0.045272112
32	0xbd67981f	-0.05654156
33	0x3cfe3533	0.031031227
34	0xbd1a548d	-0.03767829
35	0x3b53c0bd	0.0032310926
36	0x3cc94b35	0.024571994
37	0xbcba4c69	-0.022741513
38	0xbcc595de	-0.024119314
39	0xbd2b11fc	-0.041765198
40	0x3d649c41	0.055813078
41	0xbd3ecbef	-0.046581205
42	0x3cdaf404	0.026727684
43	0xbd318ea2	-0.043348916
44	0x3d0c2bd2	0.034221478
45	0xbc05335e	-0.008129923
46	0xbcc2b974	-0.023770072
47	0x3b9536b7	0.0045536417
48	0x3d26af00	0.040694237
49	0x3bdd9911	0.0067626317
50	0xbcbb971e	-0.022899207
51	0x39e330cb	0.00043333168
52	0xbd47308c	-0.048630282
53	0x3d75a663	0.059973132
54	0xbccb8c41	-0.024847152
55	0x3d209404	0.03920366
56	0xbd39f19b	-0.04539643
57	0xbca12fbe	-0.019676086
58	0x3c97d14d	0.01853242
59	0xbce28179	-0.027649628
60	0x3cb267d2	0.021778021
61	0x3d1210c2	0.035660513
62	0xbbfef36d	-0.0077804835
63	0x3d109e6a	0.035307325
64	0xbd782cfc	-0.060589775
65	0xbcfb3873	-0.030666566
66	0x3ca7fed9	0.020507263
67	0xba8ec2c4	-0.0010891785
68	0xbd892ab7	-0.066976
69	0x3cd376a5	0.02581341
70	0x3a0eab83	0.00054424274
71	0xbd4fc7a0	-0.050727487
72	0xbd2df401	-0.04246903
73	0xbd4d8755	-0.05017789
74	0x3cfba76b	0.03071948
75	0x3ca136b5	0.019679407
76	0xbd7306d2	-0.059332676
77	0xbc9634d7	-0.018335743
78	0xbd6a0bbd	-0.0571401
79	0xbd020d07	-0.031750705
80	0x3caffc0b	0.021482488
81	0x3d407baf	0.046992954
82	0xbcee7d23	-0.029112404
83	0x3ae81724	0.0017707092
84	0xbd20ceb0	-0.039259613
85	0x3ce23b06	0.027616035
86	0x3c124f97	0.0089301085
87	0x3c7796ee	0.015111668
88	0x3cf619f9	0.030041682
89	0x3cd64afd	0.026158804
90	0xbd628914	-0.05530651
91	0x3bf78bdd	0.007554515
92	0x3d8733dd	0.06601689
93	0x3c9ba484	0.018999346
94	0xbd72e965	-0.059304614
95	0x3c6e366c	0.014539342
96	0x3d4db382	0.05022002
97	0x3c78c2a3	0.015183124
98	0xbc25d91c	-0.010122564
99	0x3d4aa427	0.049472954
100	0xbd01bd94	-0.031674936
101	0x3d5dca82	0.054148205
102	0x3d719be4	0.05898656
103	0xbd279e45	-0.040922422
104	0x3ce53265	0.027978132
105	0x3caa6de7	0.020804359
106	0xbd1291cb	-0.03578357
107	0xbc954ad4	-0.018224157
108	0xbc71ab50	-0.014750317
109	0x3b6b4640	0.0035900027
110	0x3d46664e	0.04843741
111	0xbc2b34eb	-0.010449628
112	0x3cfa6bb4	0.030568935
113	0xbd02bf10	-0.031920493
114	0x3d5b3160	0.053513885
115	0x3d83aad1	0.06429065
116	0xbd2c5bfa	-0.042079903
117	0x3cc6435f	0.024202047
118	0xbcdf5d40	-0.027266145
119	0xbc477878	-0.012174718
120	0x3d83aba5	0.06429223
121	0x3b92213e	0.004459529
122	0xbc99250c	-0.018694423
123	0x3d88e8fa	0.06685062
124	0x3d5d77da	0.054069377
125	0xbad93dd3	-0.0016574211
126	0x3cc35b41	0.023847224
127	0xbd47111e	-0.04860031
128	0xbcda6577	-0.02665971
129	0xbcf17924	-0.02947671
130	0xbd6058fb	-0.05477236
131	0xbc8ff44a	-0.01757254
132	0x3c50a5e5	0.012734865
133	0x3d3b25ff	0.045690533
134	0x3d716925	0.058938164
135	0x3d547358	0.051867813
136	0xbcd6823a	-0.026185144
137	0xbc7038ba	-0.014661962
138	0xbd0e9515	-0.034810144
139	0xbb18e559	-0.0023330061
140	0xbd3180f6	-0.043335877
141	0x3c937f99	0.01800518
142	0x3cbc2821	0.022968354
143	0xbd31cc1e	-0.043407552
144	0x3d2592f4	0.04042335
145	0x3d4c8e71	0.04994053
146	0x3c2394f8	0.009984247
147	0xbd5afab9	-0.053461764
148	0xbd1d564b	-0.038412374
149	0x3d85f23b	0.065403424
150	0xbc88db0d	-0.016706014
151	0xbcd52904	-0.026020534
152	0xbd2bc5da	-0.041936733
153	0x3c1009e7	0.008791423
154	0x3c56e261	0.013115496
155	0x3cf42eca	0.029807467
156	0x3d7ddeb3	0.06197996
157	0xbc5ecd8d	-0.013598812
158	0xbc1a8774	-0.009431709
159	0xbd6af626	-0.05736365
160	0xbd0d2d2c	-0.034466907
161	0x3d0a870e	0.033820204
162	0xbcdf49ed	-0.02725693
163	0x3a6f0e11	0.00091192225
164	0xbcc3fb2c	-0.023923479
165	0xbc8e193d	-0.017346019
166	0x3d49ee01	0.049299244
167	0xbd77b493	-0.060474943
168	0xbb2061cb	-0.0024472352
169	0xba81adfb	-0.0009893769
170	0xbd1acfe4	-0.037795916
171	0xbd03985b	-0.03212772
172	0x3c294ed2	0.010333734
173	0xbd0d7ddb	-0.034543853
174	0x3d56794a	0.052361764
175	0xbd81df0d	-0.06341372
176	0xbc830714	-0.015994586
177	0x3c9756c2	0.018473987
178	0xbd4b6daf	-0.04966515
179	0x3caeaf7c	0.021323912
180	0xbd6a1b91	-0.057155196
181	0xbc5dff5e	-0.013549654
182	0x3cace5a0	0.021105587
183	0x3c4cce0f	0.0125003
184	0x3c3537ef	0.011060699
185	0xbd77ca32	-0.060495563
186	0xbc72a469	-0.014809706
187	0x3d2ef751	0.042716328
188	0xbd42d21e	-0.047563665
189	0xbd5dbb4e	-0.054133706
190	0xbc551bc2	-0.013007106
191	0xbc9cd445	-0.019144187
192	0xbd3103a5	-0.043216366
193	0xbcca96eb	-0.024730166
194	0x3d0ea90d	0.03482919
195	0xbd337c04	-0.043819442
196	0x3d76fc6b	0.06029932
197	0x3d204898	0.03913173
198	0x3d5f1b26	0.05446925
199	0x3cf3adc3	0.029745942
200	0x3bb5db17	0.005549799
201	0xbccbea1e	-0.02489191
202	0x3c2244b4	0.009904075
203	0x3d727280	0.059191227
204	0x3a821e51	0.0009927248
205	0x3cbb7b7e	0.022886034
206	0xbcb34301	-0.021882536
207	0xbcf4cbe6	-0.029882383
208	0x3d6f3bc7	0.058406617
209	0xbb6f726d	-0.003653671
210	0x3cdce570	0.026964873
211	0x3c814456	0.015779655
212	0x3c9f221a	0.01942544
213	0x3d471934	0.04860802
214	0x3d8572aa	0.06516011
215	0x3d4a30f6	0.0493631
216	0x3d053015	0.032516558
217	0xbd2f5643	-0.042806875
218	0x3c69485b	0.014238442
219	0x3d127990	0.035760462
220	0xbd05444f	-0.032535847
221	0x3d3c0586	0.045903705
222	0x3cefee46	0.029288422
223	0x3d04e3e6	0.032443903
224	0xbd73cd82	-0.05952216
225	0xbb54f446	-0.003249423
226	0xbc803f8c	-0.015655302
227	0xbd20ff4f	-0.03930598
228	0x3bc68e56	0.0060594482
229	0x3b91b593	0.004446694
230	0x3d521bb5	0.051295955
231	0xbbeaba79	-0.0071633426
232	0x3cb89282	0.022530798
233	0xbcf4d74f	-0.029887823
234	0x3d4c1438	0.04982397
235	0xbbcd3536	-0.0062624468
236	0x3cbde31f	0.023179589
237	0xbcef78b0	-0.029232353
238	0xbc001d66	-0.007819509
239	0x3d1bf798	0.03807792
240	0x3c4dd8ae	0.0125638675
241	0x3d465653	0.04842217
242	0x3ccfb290	0.0253537
243	0x3b4a4985	0.0030866575
244	0xbd586944	-0.052834764
245	0x3b817b03	0.0039514317
246	0xbd2fbcc8	-0.042904645
247	0xbc5a41bd	-0.013321337
248	0x3d0a51cd	0.033769418
249	0xbbd9c44b	-0.0066457144
250	0x3d5dd2d0	0.054156125
251	0xbd0f90a8	-0.035050064
252	0xbc8b0e73	-0.016974663
253	0x3d07e29f	0.033175107
254	0xbd840c86	-0.06447701
255	0xbc61e7b4	-0.0137881525

conv2.bias f4 [20]
0	0x3d589695	0.05287798
1	0x3d0b78a1	0.034050588
2	0x3d76f4c2	0.060292013
3	0x3d4696f1	0.048483793
4	0x3d11eac1	0.03562427
5	0xbc43a43f	-0.011941015
6	0x3c91b558	0.017786667
7	0x3c89a3e4	0.016801782
8	0xbcbb9e6e	-0.022902694
9	0xbd27bb9a	-0.040950395
10	0x3cebe4a1	0.028795542
11	0xbd161a48	-0.036646158
12	0xbbba740b	-0.005690103
13	0xbc0495bf	-0.008092343
14	0xbd145921	-0.036217812
15	0xbd65c1e4	-0.05609311
16	0x3d129931	0.035790626
17	0x3d46bc20	0.048519254
18	0xbc7dedc9	-0.015498587
19	0xbd40f722	-0.047110684

fc1.weight f4 [50, 320]
0	0x3c1a92ff	0.009434461
1	0xbb837a44	-0.004012378
2	0xbd458fd4	-0.04823287
3	0xbd388981	-0.04505301
4	0xbd58ebb0	-0.052959144
5	0x3c6c0666	0.014405822
6	0xbd3cc3ee	-0.04608529
7	0xbcb80f0c	-0.022468112
8	0x3c2d2dab	0.01056997
9	0xbd1e33a7	-0.03862348
10	0x3d636df3	0.055524778
11	0xbd0f1e9a	-0.034941293
12	0x3cc9c4fe	0.024630066
13	0x3cdfab61	0.0273034
14	0x3d0da4bb	0.034580927
15	0xbd559864	-0.052147284
16	0x3d43caaf	0.047800716
17	0xbbc66a28	-0.0060551353
18	0x3bafcdaf	0.0053650956
19	0x3d1287c6	0.035774015
20	0x3d2dd109	0.04243568
21	0xbbaa1d45	-0.0051914775
22	0x3d4397e0	0.04775226
23	0x3cf278ab	0.029598555
24	0x3c7a9010	0.015293136
25	0x3cca5f02	0.024703506
26	0xbc9d3415	-0.019189874
27	0xbd255631	-0.0403654
28	0xbc62cc61	-0.013842673
29	0x3b61c6cb	0.0034450765
30	0xbd0ab1a4	-0.033860818
31	0x3d5379f6	0.051629983
32	0xbd080f41	-0.033217672
33	0x3c96ac8a	0.01839282
34	0x3d3a4cb2	0.0454833
35	0xbbd6677c	-0.006543098
36	0x3ce592c0	0.028024077
37	0x3d02536f	0.03181785
38	0x3d2c33f4	0.042041734
39	0x3cf1bb6f	0.02950832
40	0xbd5531eb	-0.05204956
41	0x3b9def77	0.004819806
42	0xbd1d854d	-0.038457204
43	0xbc4b13f8	-0.012394898
44	0xbc4f9f7c	-0.012672301
45	0x3cdbec7f	0.026846169
46	0xbcb1a726	-0.021686148
47	0x3c47484f	0.012163236
48	0xbceeb52c	-0.029139124
49	0xbd5934e7	-0.053028967
50	0xbaa7254a	-0.0012752202
51	0x3d27d6ac	0.04097621
52	0x3cb30ab1	0.021855684
53	0x3cc7176b	0.024303159
54	0xbc3014fc	-0.010747191
55	0xbd264d6f	-0.04060119
56	0xbcb0c073	-0.021576142
57	0x3c148a5c	0.009066191
58	0xbc96a715	-0.018390218
59	0xbd0b46c9	-0.034003053
60	0x3c7896d3	0.015172678
61	0x3ca28cb2	0.01984248
62	0xbca0ea85	-0.019643078
63	0xbc59a52e	-0.013284011
64	0x3d609cc4	0.054837003
65	0x3ce5a73c	0.028033845
66	0xbbb4bba2	-0.0055155316
67	0x3c159ea8	0.009132065
68	0xbcedac0b	-0.0290127
69	0x3ca868e9	0.020557838
70	0xbc97832a	-0.018495161
71	0xbd4944f4	-0.049138024
72	0x3c979005	0.018501291
73	0x3b1d640a	0.0024015927
74	0x3d252740	0.040320635
75	0x3d51c27a	0.051210858
76	0xbb9d8716	-0.0048073633
77	0x3c4a31fb	0.012341018
78	0x3d6e10f0	0.05812162
79	0xbcf160ce	-0.029465105
80	0xbcb7c5e6	-0.022433233
81	0xbcd143a0	-0.025544941
82	0xbcd8c841	-0.026462676
83	0xbb21cfff	-0.0024690626
84	0xbd0f7152	-0.03502018
85	0x3d0d55c7	0.03450563
86	0x3ca34695	0.019931117
87	0xbd2704c0	-0.040776014
88	0x3cc9a6f6	0.024615746
89	0x3acd67a5	0.0015671147
90	0x3c6a6e92	0.014308589
91	0xbd19f9a4	-0.03759159
92	0x3c151653	0.009099561
93	0x3b457466	0.0030129193
94	0xbcdd25f0	-0.02699563
95	0x3ba6c2dc	0.005089147
96	0xbce66919	-0.028126286
97	0xbc84e268	-0.01622124
98	0x3ce95e9b	0.028487494
99	0xbcc64dd9	-0.024207043
100	0xbcac1c58	-0.02100961
101	0xbcdaed2c	-0.02672442
102	0xbc85fa37	-0.016354663
103	0x3d051786	0.032493137
104	0x3cd00e1a	0.02539735
105	0x3d21c9ce	0.039499097
106	0x3cb2059c	0.02173119
107	0x3bd00ec7	0.006349418
108	0xbd3c1506	-0.045918487
109	0x3d4cfdb8	0.050046653
110	0xbd22dc4e	-0.03976088
111	0x3d1439bf	0.036187883
112	0xbd4d0295	-0.05005129
113	0x3d3cb843	0.046074163
114	0xbc35873d	-0.011079607
115	0x3ca55dda	0.020186353
116	0xbd47a74e	-0.04874354
117	0xba6172a1	-0.000860015
118	0x3c75da25	0.015005623
119	0xbd0ed7ce	-0.034873776
120	0x3ca4d832	0.020122621
121	0xbd21ea7c	-0.039530262
122	0x3d16d7c7	0.036826875
123	0x3d3f6188	0.046723872
124	0x3cd6a2b8	0.026200637
125	0xbd28cab1	-0.041208927
126	0xbd27e017	-0.040985193
127	0x3c4ec249	0.012619563
128	0x3cdec5bc	0.027193896
129	0xbb306574	-0.002691594
130	0xbc0c6683	-0.008569363
131	0x3c0d49b7	0.008623532
132	0xbcbc94eb	-0.023020228
133	0x3c5be99b	0.013422395
134	0x3c52376f	0.012830599
135	0x3c9c04b4	0.019045211
136	0x3c8b2231	0.016984077
137	0x3cc3b750	0.023891121
138	0xbd23bc5e	-0.039974563
139	0xbd6c1f54	-0.057647064
140	0x3ce717d5	0.028209606
141	0x3c564a08	0.013079174
142	0xbd5b8861	-0.053596858
143	0x3cd641ee	0.026154485
144	0xbc85540b	-0.016275426
145	0xbcc265e6	-0.02373023
146	0x3c805926	0.01566751
147	0x3c1849d0	0.009294942
148	0x3d112131	0.035432044
149	0xbd43f6f8	-0.04784295
150	0xbc6cc516	-0.014451286
151	0xbce260e7	-0.027634097
152	0xbcd9a643	-0.026568538
153	0x3c3afde8	0.011413075
154	0xbb2e4f44	-0.002659754
155	0x3b603fb4	0.0034217658
156	0x3c51812e	0.0127871465
157	0x3d03264c	0.032018945
158	0xbd57c231	-0.05267543
159	0x3c97d048	0.018531933
160	0xbd639225	-0.055559296
161	0x3cf03c7c	0.029325716
162	0xbced95f9	-0.029002177
163	0xbd4c55bb	-0.049886446
164	0x3c3dd699	0.011586809
165	0x3cf5199d	0.02991944
166	0x3c4ced4c	0.012507748
167	0xbb71958d	-0.003686282
168	0x3cf5c5e5	0.03000159
169	0xbcb4e0f9	-0.022079932
170	0x3d1be199	0.038056944
171	0x3d64517a	0.055741765
172	0xbcad8805	-0.021183023
173	0x3aff9039	0.0019497938
174	0xbd623d72	-0.05523438
175	0xbbf79d97	-0.007556628
176	0xbc0f863f	-0.008760034
177	0x3c842fab	0.016136011
178	0x3c1dec9e	0.009638933
179	0x3c088eb0	0.008334801
180	0x3d3def7c	0.04637097
181	0xbd68d37c	-0.056842312
182	0xbc71d105	-0.014759307
183	0x3d4dbec1	0.050230745
184	0xbcb26194	-0.021775045
185	0xbd479319	-0.048724268
186	0xbd06f1e2	-0.03294552
187	0x3d23bb5f	0.039973613
188	0x3be284d6	0.006912808
189	0xbd64a1b5	-0.05581828
190	0x3b632076	0.00346568
191	0xbbd55993	-0.006510922
192	0x3d00c7c4	0.03144051
193	0xbc3815d2	-0.011235671
194	0x3d5f0e0a	0.054456748
195	0xbce21d69	-0.027601914
196	0x3bd3954e	0.0064570075
197	0x3bdc6c2b	0.006726762
198	0xbc962172	-0.018326495
199	0xbca7e874	-0.020496584
200	0x3d5159c4	0.051110998
201	0xbd234b1f	-0.039866563
202	0xbd4cd3d3	-0.0500067
203	0xbbdec407	-0.0067982706
204	0x3bcb451f	0.0062033082
205	0x3d0acdc5	0.033887643
206	0xbbc05615	-0.005869637
207	0xbaef6fa4	-0.0018267524
208	0xbc56e62e	-0.013116403
209	0xbb4f1a46	-0.0031601354
210	0x3c39ad1b	0.0113327755
211	0xbc76db24	-0.015066896
212	0x3cb719e3	0.022351211
213	0xbd3f27f8	-0.046668977
214	0x3a5f154e	0.00085099495
215	0x3c2c9cca	0.010535428
216	0x3c4af13e	0.012386618
217	0xbd00aadf	-0.031412955
218	0x3b6b860c	0.0035938052
219	0xbc74d5b9	-0.014943534
220	0xbd689867	-0.056785967
221	0xbd092858	-0.03348574
222	0x3d1dc877	0.038521256
223	0x3d607bb7	0.054805484
224	0x3d29fe94	0.04150255
225	0x3c7e9e36	0.01554065
226	0x3cb7db76	0.022443514
227	0x3d0589a3	0.032601964
228	0xbb3b47bc	-0.0028576693
229	0xbb894492	-0.0041890824
230	0x3d5fe0aa	0.054657616
231	0xbd21d2a5	-0.039507527
232	0xbd589a07	-0.052881267
233	0xbc427873	-0.011869538
234	0xbcd58236	-0.026063066
235	0xbc662a13	-0.014048117
236	0xba5f131b	-0.0008509622
237	0x3d3271eb	0.043565672
238	0xbc546f05	-0.012965922
239	0xbc93549f	-0.017984686
240	0xbd30e747	-0.043189313
241	0x3d46769d	0.048452962
242	0xbd301c4c	-0.042995736
243	0xbcc6395d	-0.024197275
244	0x3c9a2a5e	0.01881903
245	0xbd5825e1	-0.0527705
246	0x3cee04f3	0.029055094
247	0x3d1f2406	0.038852714
248	0xbb0985de	-0.0020984332
249	0xbd0b73cb	-0.034045976
250	0xbd0fc84d	-0.03510313
251	0xbb694eea	-0.0035600015
252	0xbd0fb121	-0.035081033
253	0xbc8edd2a	-0.017439444
254	0x3c890faf	0.016731111
255	0xbc2d1170	-0.010563239

fc1.bias f4 [50]
0	0x3bed034e	0.00723306
1	0x3d2b899e	0.04187929
2	0x3cb2b0f1	0.021812888
3	0xbc2e1887	-0.010625965
4	0x3ce040a1	0.027374567
5	0xbd5c30d3	-0.0537575
6	0x3bb5ba38	0.0055458806
7	0x3d0145b3	0.03156061
8	0xbd01d8da	-0.031700946
9	0x3bbe9b07	0.0058168205
10	0x3d39dc68	0.04537621
11	0xbd42eb03	-0.047587406
12	0x3d0f9b7c	0.03506039
13	0xbcb98182	-0.022644762
14	0x3987b8b1	0.00025886812
15	0xbbd0b7b5	-0.006369556
16	0xbce91090	-0.02845028
17	0x3c45c6d3	0.012071329
18	0x3d69edec	0.057111666
19	0x3d0f01c4	0.034913793
20	0xbd44aa6f	-0.0480141
21	0xbcd846de	-0.02640098
22	0xbd3bf133	-0.045884322
23	0xbc271646	-0.0101981815
24	0xbd19e8c9	-0.037575517
25	0xbd009946	-0.031396173
26	0xbca6423b	-0.020295253
27	0x3d5d8eab	0.054091137
28	0xbd265fac	-0.040618584
29	0xbd5ae2e6	-0.053439043
30	0x3c622061	0.013801665
31	0x3cfbd8fe	0.030743118
32	0x3d659ebe	0.05605959
33	0xbd040bbb	-0.03223775
34	0x3d54ae69	0.051924143
35	0xbd050504	-0.032475486
36	0xbba5e89e	-0.0050631305
37	0x3cfd4068	0.0309145
38	0xbcadba90	-0.021207124
39	0x3cf0d5fe	0.029398914
40	0x3d51e5a8	0.051244408
41	0x3d2b5def	0.04183763
42	0xbd05ed75	-0.03269716
43	0xbcaecb2b	-0.021337112
44	0x3d502b6c	0.05082266
45	0xbd429307	-0.047503497
46	0x3ce3354e	0.027735379
47	0xba818123	-0.0009880405
48	0xbcd2cf05	-0.02573348
49	0x3d4fe8d9	0.05075917

fc2.weight f4 [10, 50]
0	0x3dfd772a	0.12376244
1	0xbe084d31	-0.13310696
2	0xbdfceff5	-0.12350456
3	0xbd413038	-0.047165126
4	0xbd4589ce	-0.048227124
5	0x3d701c8d	0.05862098
6	0x3e02ee85	0.127863
7	0x3d65b2cf	0.05607873
8	0xb985e890	-0.0002554101
9	0xbe06c0cd	-0.13159485
10	0x3d37700e	0.044784598
11	0x3e003494	0.12520057
12	0xbd155dc0	-0.03646636
13	0xbdaa2d1f	-0.083093874
14	0xbd975b4c	-0.0739046
15	0x3d3b4311	0.045718256
16	0xbd4fe59c	-0.050756082
17	0x3e106715	0.14101823
18	0x3d9c3f2b	0.07629236
19	0x3d523ae4	0.051325694
20	0xbd436194	-0.04770048
21	0xbdea9e39	-0.1145596
22	0x3e0e8a81	0.13920023
23	0xbda0e93d	-0.07856987
24	0x3b401705	0.0029310596
25	0xbd14377d	-0.03618573
26	0x3deb7a37	0.1149792
27	0xbd2d4e62	-0.04231108
28	0x3cab3164	0.020897575
29	0x3d789dc8	0.060697347
30	0xbc9b3440	-0.018945813
31	0xbdc2b65e	-0.0950744
32	0xbe12328b	-0.14277093
33	0xbd007d06	-0.03136923
34	0xbe0ef801	-0.13961793
35	0x3dbaa64b	0.09113749
36	0xbbfcd149	-0.0077153784
37	0x3e0831ec	0.13300294
38	0xbdecdd69	-0.11565668
39	0xbd605b8d	-0.05477481
40	0x3d9d27c7	0.076736026
41	0xbcb61f42	-0.022231702
42	0xbba7cb48	-0.0051206686
43	0x3de35c72	0.11101617
44	0xbd8390e1	-0.06424118
45	0xbd20bf6d	-0.039245058
46	0xbd09102e	-0.033462696
47	0x3dd593fb	0.10428616
48	0xbbe68ce9	-0.007035841
49	0xbdbae139	-0.09124989
50	0x3d83a735	0.064283766
51	0xbe0039b0	-0.12522006
52	0xbd9f1030	-0.077667594
53	0x3d363887	0.044487502
54	0xbd88cd4e	-0.06679784
55	0x3e07b687	0.13253222
56	0xbc967cb3	-0.018370008
57	0xbe03c8e6	-0.12869605
58	0xbe25a098	-0.16174543
59	0xbdbc8980	-0.092059135
60	0xbddad9fd	-0.10686109
61	0x3df514e9	0.11966879
62	0x3db13bbc	0.086539716
63	0x3cd96aa9	0.026540117
64	0xbe179cbe	-0.14805886
65	0xbd02197e	-0.031762592
66	0x3d104697	0.03522357
67	0xbddd5edc	-0.108091086
68	0x3d72367e	0.059134
69	0x3cf3a4e7	0.029741718
70	0x3e05e370	0.13075042
71	0xbdf19cb9	-0.117974706
72	0xbcd4d232	-0.025979135
73	0xbdac61bf	-0.08417081
74	0xbbe3a47f	-0.0069470997
75	0xbd0aaee2	-0.033858187
76	0xbd0646aa	-0.032782234
77	0xbdbc9a9b	-0.09209176
78	0x3c3d5007	0.011554725
79	0x3ca783e6	0.020448636
80	0xbd9d6120	-0.07684541
81	0xbdfd5356	-0.12369411
82	0xbe12cd7d	-0.143362
83	0x3d8c5209	0.068515845
84	0xbd73b13a	-0.05949519
85	0x3da92ae3	0.08260133
86	0x3dbc98dc	0.09208843
87	0x3b23db3c	0.00250025
88	0x3c142d9f	0.00904408
89	0xbc01815e	-0.007904379
90	0x3d97dcd5	0.07415167
91	0xbdc76a70	-0.09737098
92	0x3e13e055	0.14441045
93	0xbdd9bf72	-0.106322184
94	0xbe1c347a	-0.15254393
95	0xb8d43d44	-0.000101203594
96	0xbd54535e	-0.051837318
97	0x3ad705e2	0.0016404951
98	0xbd9ef473	-0.07761469
99	0xbc4280ef	-0.0118715605
100	0xbd914fb9	-0.07095284
101	0xbda25ae0	-0.07927489
102	0x3c90613e	0.017624494
103	0x3dcb0256	0.09912555
104	0x3de17695	0.11008946
105	0xbd21b8b1	-0.039482776
106	0x3de7f315	0.11325661
107	0x3dcfcf68	0.101469815
108	0xbe045cba	-0.12925997
109	0x3d98dad0	0.0746361
110	0xbdb8c00b	-0.09021004
111	0x3d3be5a1	0.045873288
112	0x3d482653	0.048864674
113	0xbc3e99fa	-0.011633391
114	0xbdee1c0e	-0.11626445
115	0xbdd346dc	-0.1031625
116	0xbe10d8ec	-0.14145249
117	0x3d09e8d6	0.033669315
118	0x3d8231b1	0.06357134
119	0xbc02a186	-0.0079730805
120	0x3db0dece	0.086362466
121	0xbdd69783	-0.10478117
122	0x3a053404	0.00050812983
123	0xbd7782a9	-0.06042734
124	0x3d498b8a	0.04920534
125	0x3ddd9f1a	0.10821362
126	0xbde325df	-0.11091208
127	0xbdbfbae2	-0.09361817
128	0xbd92917f	-0.071566574
129	0x3e0c20f8	0.13684452
130	0x3cee70c3	0.029106503
131	0x3af552b6	0.0018716666
132	0x3cb4d495	0.022074023
133	0xbcd017b1	-0.025401922
134	0x3c908e86	0.017646085
135	0xbcb80f4c	-0.022468232
136	0xbe0c7888	-0.13717854
137	0xbe0e3168	-0.13886034
138	0x3d90aa39	0.070637174
139	0x3bc9e50c	0.0061613377
140	0xbd9a266a	-0.07526858
141	0xbd522e8d	-0.051313926
142	0x3e00b35f	0.12568425
143	0xbddc304a	-0.10751398
144	0x3dc466f1	0.09589947
145	0xbb96cf72	-0.004602366
146	0x398e036f	0.0002708691
147	0x3d7827d3	0.060584854
148	0xbc356483	-0.011071327
149	0x3d859b69	0.06523783
150	0x3df2fd5e	0.11864732
151	0x3d80f975	0.0629758
152	0xbdfd4ab5	-0.12367765
153	0xbdcbc50f	-0.09949695
154	0xbde2e1ff	-0.110782616
155	0x3d522f9b	0.05131493
156	0xbd86e47b	-0.06586548
157	0x3d9510ed	0.07278619
158	0xbdd9b4b9	-0.10630173
159	0xbddae2d5	-0.10687796
160	0xbb48bef5	-0.0030631397
161	0xbdd29f5f	-0.10284304
162	0x3deba65c	0.1150634
163	0xbd875352	-0.06607689
164	0x3dd2ce15	0.10293213
165	0xbdd30d01	-0.10305215
166	0x3e13241c	0.14369243
167	0x3d27827d	0.040895928
168	0xbddea553	-0.10871377
169	0xbdbc6f1f	-0.09200882
170	0x3e0b9fd8	0.13635194
171	0x3d5b0c72	0.053478666
172	0x3c4cd7bf	0.01250261
173	0x3ccdecab	0.025137266
174	0x3c50a293	0.012734073
175	0xbb845bdd	-0.0040392713
176	0xbc38d071	-0.011280165
177	0x3d8e1712	0.06937994
178	0x3d62d7c5	0.055381555
179	0x3dd14f92	0.10220255
180	0x3d2fc573	0.04291291
181	0x3d296287	0.04135373
182	0x3d46970c	0.048483893
183	0xbd725422	-0.059162267
184	0xbd9ddf1a	-0.07708569
185	0x3cdf95ff	0.027293203
186	0x3dfc1e5f	0.1231048
187	0x3c79755f	0.015225737
188	0xbe0a3c48	-0.13499558
189	0xbdfc07ba	-0.12306161
190	0x3dd1a1bf	0.10235929
191	0x3d81ca93	0.06337466
192	0xbdef757f	-0.116923325
193	0x3c80c08f	0.01571682
194	0xbdb4484c	-0.08802852
195	0x3dec4214	0.11536041
196	0xbd053ae0	-0.03252685
197	0x3df27e70	0.11840522
198	0xbd9583c1	-0.07300521
199	0x3e05b87d	0.13058658
200	0xbd99dc4d	-0.07512722
201	0xbdb602a6	-0.08887224
202	0x3dce41b2	0.10071124
203	0x3d5c9287	0.053850677
204	0xbdc78ec6	-0.09744029
205	0x3d17372b	0.036917847
206	0x3e0518bc	0.12997717
207	0xbdaa43f1	-0.0831374
208	0x3e1bc232	0.15210798
209	0x3dba8c17	0.09108751
210	0x3d195fc4	0.037444845
211	0x3d071e65	0.03298797
212	0xbdc9fa26	-0.09862165
213	0xbdf5d099	-0.120026775
214	0x3bf716e4	0.0075405706
215	0xbdeccb0b	-0.11562165
216	0xbe03251c	-0.12807125
217	0xbdc14bb0	-0.09438264
218	0x3d21d7a2	0.039512284
219	0x3dccd4e9	0.10001547
220	0x3d639379	0.055560563
221	0x3c811648	0.015757695
222	0x3dbe5490	0.09293473
223	0xbd23218a	-0.039826907
224	0x3d9ca967	0.076494984
225	0xbd44c780	-0.04804182
226	0xbd097506	-0.033558868
227	0xbd538d28	-0.05164829
228	0x3d302a99	0.043009374
229	0xbbcca2e5	-0.0062450045
230	0x3dddad7b	0.108241044
231	0x3cadc37f	0.021211384
232	0x3be47fe6	0.0069732545
233	0xbbc4b036	-0.0060024513
234	0xbdfe1c62	-0.12407757
235	0xbe0a0e42	-0.13482001
236	0x3de40c04	0.11135104
237	0x3c853d7b	0.016264668
238	0xbe1559c7	-0.14585029
239	0x3c4b437e	0.012406228
240	0xbdf5999e	-0.11992191
241	0x3c8da152	0.017288838
242	0xbdec8396	-0.115485355
243	0xbe0d7e18	-0.13817632
244	0x3c90e919	0.017689275
245	0xbded3f91	-0.1158439
246	0xbd5a9f46	-0.05337455
247	0x3e08f3c4	0.13374239
248	0xbdae8980	-0.0852232
249	0x3d65cb1b	0.0561019
250	0x3caf5b0b	0.021405717
251	0x3d0d3e8c	0.034483477
252	0xbdf0ff23	-0.117674135
253	0x3c9f9e7a	0.019484747
254	0xbdd11195	-0.10208432
255	0x3d8ebb51	0.069693215

fc2.bias f4 [10]
0	0x3d1b31bf	0.03788924
1	0x3d9e9b8d	0.07744513
2	0x3da2cf5a	0.079497054
3	0x3db30d20	0.08742738
4	0xbdd38d35	-0.103296675
5	0xbdff1fe5	-0.12457255
6	0x3bae4fd7	0.0053195762
7	0xbdff2fa5	-0.12460259
8	0xbd0af3a1	-0.03392375
9	0xbd8cb290	-0.068699956

momentum_buffer f4 [10, 1, 5, 5]
0	0x3d03b937	0.032159057
1	0x3c620092	0.013794081
2	0xbc2c0642	-0.010499539
3	0xbc3670c6	-0.011135286
4	0xbc1cb980	-0.009565711
5	0x3c82973f	0.01594126
6	0x3bc5896f	0.0060283463
7	0xbc36b4b4	-0.011151481
8	0xbc2a7f5e	-0.010406343
9	0xbba85a04	-0.005137684
10	0x3b4697ee	0.003030296
11	0xbbd6640a	-0.0065426873
12	0xbc51bbb4	-0.0128011
13	0xbc7734c0	-0.01508826
14	0xbba3f1b6	-0.0050031794
15	0x3b2da694	0.0026496993
16	0xbc3eccda	-0.01164552
17	0xbcc855c2	-0.024454955
18	0xbca9775f	-0.020686803
19	0xbbd23988	-0.0064155497
20	0xbb02f460	-0.0019982085
21	0xbc4d295e	-0.01252207
22	0xbc94f868	-0.018184856
23	0xbca75206	-0.020424854
24	0xbc58f77e	-0.0132426005
25	0x3bc375f8	0.0059649907
26	0x3ae908e4	0.0017779139
27	0x3a94e9f4	0.0011361227
28	0x3bd9144b	0.0066247336
29	0x3c528d2d	0.012851042
30	0xba4083bc	-0.00073438487
31	0xbb5e2588	-0.0033896882
32	0x3a89cfa5	0.0010514153
33	0x3b325136	0.002720905
34	0x3c37ed9d	0.011226085
35	0xbb44fc6d	-0.0030057684
36	0xbba4d631	-0.0050304164
37	0x3b75460b	0.0037425782
38	0x3bcf3e65	0.0063245767
39	0x3c199d37	0.009375862
40	0x388a8840	6.605731e-05
41	0xba0b8350	-0.0005321996
42	0x3a7a33c0	0.00095444545
43	0xb90543c0	-0.00012709107
44	0xbb30b814	-0.0026965188
45	0x3b151ec0	0.0022753924
46	0x3af2bd48	0.0018519545
47	0xbc036c2c	-0.008021396
48	0xbc668f5a	-0.014072264
49	0xbc64dc0a	-0.013968477
50	0xbbddcd91	-0.00676889
51	0xbc994399	-0.01870899
52	0xbcd6534e	-0.02616277
53	0xbc9be64b	-0.01903071
54	0xbb18c236	-0.0023309118
55	0xbc94e9b8	-0.018177852
56	0xbd1a7e7c	-0.03771828
57	0xbd3f3b4d	-0.046687413
58	0xbd100dbf	-0.03516936
59	0xbcbdc322	-0.023164336
60	0xbc9b1c07	-0.018934263
61	0xbd507024	-0.050888196
62	0xbd8ae64e	-0.067822084
63	0xbd61484f	-0.0550006
64	0xbd16e8c7	-0.036843088
65	0xbc68ecca	-0.014216611
66	0xbcf2aeaa	-0.029624302
67	0xbd5947d4	-0.053047016
68	0xbd48a868	-0.04898873
69	0xbd4647fd	-0.048408497
70	0xbb9ce412	-0.0047879303
71	0xbb78b1b8	-0.0037947726
72	0xbc19b070	-0.009380445
73	0xbce594ad	-0.028024996
74	0xbd235f40	-0.03988576
75	0x3bfa4a9c	0.0076382887
76	0x3b669787	0.0035185532
77	0x3b022406	0.0019857897
78	0x3bb31c9f	0.0054660584
79	0x3bb90552	0.005646386
80	0x3c589b48	0.013220616
81	0x3c21a8a2	0.009866865
82	0x3be858d9	0.0070906696
83	0x3be42dd2	0.00696347
84	0x3bbecc7e	0.005822717
85	0x3c1334e0	0.008984774
86	0x3bd949b0	0.0066310987
87	0x3bbf7a6b	0.005843451
88	0x3bc45464	0.0059915055
89	0xbad37808	-0.0016133795
90	0x3bf4ec45	0.0074744546
91	0x3c23e1dc	0.01000258
92	0x3c07da86	0.008291846
93	0x3c13b45d	0.00901517
94	0x3bce3af9	0.006293651
95	0x3c1f0608	0.009706028
96	0x3c259bb4	0.010107923
97	0x3bb03407	0.005377296
98	0x3c2ca207	0.010536677
99	0x3c0c0b2d	0.008547586
100	0xbbbaf3b6	-0.005705322
101	0xbbacf06a	-0.005277683
102	0xbc805fcd	-0.015670681
103	0xbcb32648	-0.02186884
104	0xbc354ac8	-0.0110651925
105	0x3ae2bd2a	0.0017298807
106	0xbc1d29f6	-0.009592524
107	0xbccfbbfe	-0.025358196
108	0xbce47822	-0.027889315
109	0xbc5f7b1d	-0.013640192
110	0x3b7ff1c4	0.0039054016
111	0xbc645066	-0.013935184
112	0xbce767bc	-0.028247707
113	0xbcdf95ae	-0.027293053
114	0xbb988d97	-0.0046555507
115	0xbc8e2b92	-0.01735476
116	0xbce04d4c	-0.027380608
117	0xbcf4bd59	-0.029875444
118	0xbc4edd55	-0.012626012
119	0xb87d46e0	-6.0385908e-05
120	0xbcc76973	-0.024342274
121	0xbd0f22f9	-0.034945462
122	0xbc8badb9	-0.01705061
123	0xbb078830	-0.002068054
124	0x3b8160f0	0.0039483234
125	0xbb8527f1	-0.0040635993
126	0xbcd179b2	-0.025570724
127	0xbd0ff839	-0.035148833
128	0xbce241ef	-0.02761933
129	0xbc0c53ae	-0.008564873
130	0xbc41feac	-0.011840504
131	0xbc2e313a	-0.010631854
132	0xbc3c302f	-0.011486097
133	0xbc625f38	-0.013816647
134	0xbbbd9df4	-0.0057866517
135	0xbc185700	-0.009298086
136	0x3acff6c0	0.0015866384
137	0x3c0cb862	0.008588882
138	0x3bdfb7e9	0.0068273437
139	0x3a0a5fd0	0.00052785594
140	0xb9a40440	-0.00031283684
141	0x3c0aca3f	0.008471071
142	0x3ca1f6ad	0.019770944
143	0x3c62f54c	0.013852429
144	0x3b8a8878	0.004227694
145	0xb9cd4508	-0.0003915208
146	0x3b9c75a8	0.004774768
147	0x3c2c7bd9	0.010527574
148	0x3c24e411	0.010064141
149	0x3c0d7390	0.008633509
150	0xbc011722	-0.00787905
151	0xbc270a68	-0.010195352
152	0xbcc020c6	-0.023453128
153	0xbd16d440	-0.03682351
154	0xbd13e0e7	-0.036103155
155	0xbc5e0f04	-0.013553385
156	0xbcb237fa	-0.021755207
157	0xbcf16ecb	-0.029471776
158	0xbcd75c99	-0.026289271
159	0xbc9988e8	-0.01874204
160	0xbb515620	-0.0031942204
161	0xbc1e7c1c	-0.009673145
162	0xbb595328	-0.0033161137
163	0x3ac62372	0.0015116765
164	0xbac71b04	-0.0015190546
165	0x3c48e166	0.01226077
166	0xbb007190	-0.0019598939
167	0x3c1e1846	0.009649342
168	0x3c917e3c	0.017760389
169	0x3c181820	0.009283096
170	0x3c73ab01	0.0148723135
171	0xba437260	-0.0007455703
172	0x3c78e5ea	0.0151915345
173	0x3cb8bd58	0.022551224
174	0x3bfd7972	0.0077354247
175	0x3c636885	0.0138799
176	0x3c8bb740	0.017055154
177	0x3c43d3d0	0.0119523555
178	0x3ba19419	0.0049309847
179	0x3c815a73	0.0157902
180	0x3c826eaa	0.01592191
181	0x3c9b538d	0.018960739
182	0x3c332172	0.010933267
183	0x3bec9c79	0.0072208014
184	0x3b5b1cbc	0.0033433875
185	0x3c104514	0.008805532
186	0x3c1c5c60	0.009543508
187	0xbb7c99ea	-0.0038543888
188	0xbc43c858	-0.011949621
189	0xbc3d585b	-0.01155671
190	0x3b993b46	0.0046762554
191	0xbbadd0f6	-0.005304451
192	0xbcd83b72	-0.026395533
193	0xbd0bb408	-0.034107238
194	0xbcf2df4e	-0.029647496
195	0xbcc3dce6	-0.023909044
196	0xbd05bf38	-0.032653064
197	0xbd0db4de	-0.034596317
198	0xbce129c6	-0.02748574
199	0xbc98a705	-0.018634329
200	0x3a327bf8	0.0006808634
201	0xbc11e3f3	-0.008904445
202	0x3b0d00ec	0.0021515442
203	0x3b4c1a32	0.0031143543
204	0x3b16e9e4	0.0023027593
205	0x3cb0f0b1	0.021599146
206	0x3c098d06	0.008395439
207	0x3c9b70d2	0.018974695
208	0x3ca54e25	0.020178864
209	0x3c7a7239	0.015286022
210	0x3cbc411b	0.022980263
211	0x3c8c7acb	0.017148396
212	0x3c9b64cb	0.01896896
213	0x3c53a063	0.012916657
214	0x3c1ff342	0.009762587
215	0x3bfbdec7	0.0076864692
216	0xbbeeb058	-0.0072842054
217	0x3b93164c	0.004488742
218	0x3b675516	0.0035298518
219	0x3b2f3885	0.002673657
220	0x3b1144d8	0.0022166278
221	0xbc8794c0	-0.016550422
222	0xbc8e4fc8	-0.017372027
223	0xbbf88544	-0.007584246
224	0x3ad39f88	0.0016145566
225	0xbc68d4b6	-0.0142108705
226	0xbd2bfdd8	-0.04199013
227	0xbd8782e2	-0.06616761
228	0xbd826565	-0.06366996
229	0xbd022c9c	-0.031780824
230	0xbbeccc26	-0.007226485
231	0xbd262c8b	-0.040569823
232	0xbd87dcd2	-0.06633915
233	0xbd3f9602	-0.046773918
234	0xbcf25417	-0.029581113
235	0xbc448fcd	-0.011997175
236	0xbd3450fd	-0.04402255
237	0xbd6288df	-0.05530631
238	0xbd347c94	-0.04406412
239	0xbd0223af	-0.03177231
240	0xbcdf64a9	-0.027269678
241	0xbd24ae26	-0.040205143
242	0xbd37d3a4	-0.04487957
243	0xbd0333a1	-0.03203166
244	0xbc61efd2	-0.013790088
245	0xbcdded2e	-0.027090635
246	0xbcf62ae0	-0.030049741
247	0xbcca1ea9	-0.024672823
248	0xbc2e958a	-0.01065577
249	0x3a299ef8	0.00064705266

momentum_buffer f4 [10]
0	0xbbea3ab3	-0.007148111
1	0x3a58d1e0	0.000827102
2	0xbc2d56b5	-0.010579755
3	0xbcea563a	-0.02860557
4	0x39ccfc00	0.00039097667
5	0xbb9337f2	-0.004492753
6	0xbbde2d9a	-0.0067803385
7	0xbbb4991e	-0.005511417
8	0xbcfd9c02	-0.03095818
9	0xbc54f9ac	-0.01299898

momentum_buffer f4 [20, 10, 5, 5]
0	0x3be44774	0.0069665257
1	0xbc1a0447	-0.009400434
2	0xbccf487c	-0.025303118
3	0xbcb4051a	-0.021975089
4	0xbadb7e74	-0.001674606
5	0xba90a7d8	-0.001103635
6	0xbc8d2c9a	-0.017233182
7	0xbc2682ac	-0.010162991
8	0x3b142bdd	0.0022609152
9	0x3c5aa300	0.013344526
10	0xbc1eb210	-0.009686008
11	0xbbe97b16	-0.0071252687
12	0x3b86b6fb	0.0041111684
13	0x3cad2823	0.021137303
14	0x3c3c40cc	0.011490058
15	0xbba2826f	-0.0049593966
16	0xbb8e3ca3	-0.0043407246
17	0x3bb1d318	0.0054267757
18	0x3b8b2ede	0.0042475304
19	0xbc35ff97	-0.011108301
20	0xba650b28	-0.0008737319
21	0xbaa9bba4	-0.0012949598
22	0xbc2e489f	-0.010637431
23	0xbc9f2303	-0.019425875
24	0xbcb4bd9c	-0.022063069
25	0xbae8ddc2	-0.0017766284
26	0xbaeb430f	-0.0017949062
27	0x3a7dab88	0.0009676744
28	0xba91c9ed	-0.0011122801
29	0x3afbe98d	0.0019219384
30	0x3a184cac	0.0005809765
31	0xba49c1d8	-0.00076964265
32	0x37037600	7.8356825e-06
33	0xba106f4b	-0.0005509748
34	0xbb1ebbf2	-0.002422091
35	0xba54c9cf	-0.000811723
36	0x3b3032ce	0.002688575
37	0x3a849811	0.001011612
38	0xbb0dbc4a	-0.0021627122
39	0xb9acab00	-0.000329338
40	0xbac76d0c	-0.0015214994
41	0x3a0f991a	0.0005477831
42	0xb9f66a90	-0.00047000172
43	0x3a12ee72	0.0005604989
44	0xbaadeafc	-0.0013268883
45	0x39dc7728	0.00042050448
46	0xb9c69bf4	-0.00037881697
47	0xb9d2c698	-0.00040202285
48	0xba92eb73	-0.0011209085
49	0xb9998484	-0.00029281166
50	0x3a8b5891	0.0010631253
51	0xbc67b7b4	-0.014142919
52	0xbd0d5ea9	-0.034514103
53	0xbd31f39e	-0.043445222
54	0xbd35caa6	-0.044382714
55	0xbc0918b6	-0.008367708
56	0xbc8e7d9b	-0.017393878
57	0xbcd1ec89	-0.025625484
58	0xbc66baf3	-0.014082658
59	0xbb9a2cba	-0.004705039
60	0xb988ae00	-0.00026069582
61	0xbb8998f0	-0.00419914
62	0x3bb2c83e	0.0054559996
63	0x3c6483c2	0.013947429
64	0x3c2f886b	0.010713677
65	0xbb533a08	-0.0032230634
66	0xbaaeee00	-0.0013346076
67	0x3be2cff7	0.006921764
68	0x3c0d0095	0.008606096
69	0x3c42c4b8	0.011887722
70	0x3a7cfa30	0.0009650318
71	0xbba403b6	-0.005005325
72	0xbc2e97a6	-0.010656273
73	0xbc3d75cf	-0.011563732
74	0xbc862094	-0.016372956
75	0xbabe2264	-0.0014506099
76	0xbba05fb5	-0.0048942217
77	0x3a6ed0f0	0.00091101136
78	0x3b581e1e	0.0032976936
79	0x3a989470	0.0011640918
80	0x38f6c080	0.0001176605
81	0xba8af0a8	-0.0010600286
82	0x3bf68369	0.0075229895
83	0xbad85024	-0.0016503376
84	0x39ca4906	0.0003858285
85	0x39e79240	0.00044168718
86	0x3a1df6e0	0.0006025862
87	0xbb561b06	-0.0032669916
88	0xbc13eeda	-0.009029115
89	0xbb586c10	-0.0033023395
90	0xba4c1c30	-0.00077861827
91	0xba8a8980	-0.0010569543
92	0xbb2cbcf6	-0.0026357747
93	0xbb5e36cc	-0.0033907173
94	0xbaee19d1	-0.0018165653
95	0x3a7555e0	0.00093588047
96	0x3a9794b8	0.0011564707
97	0x3ba6c0f9	0.005088922
98	0x3b39606a	0.0028286227
99	0x3b5bf0f4	0.0033560367
100	0x3c929133	0.017891502
101	0x3c5c6874	0.013452638
102	0xbc47a1ca	-0.01218457
103	0xbcbb1ce0	-0.022840917
104	0xbc3c6c33	-0.011500406
105	0x3c2cb3a6	0.010540878
106	0xbc11e11f	-0.008903771
107	0xbc881b86	-0.016614687
108	0xbc409152	-0.011753397
109	0x3c5e2254	0.013557989
110	0xbb43b080	-0.002985984
111	0xbc96d616	-0.018412631
112	0xbc0d943e	-0.008641301
113	0x3c204d14	0.009784002
114	0x3c4812c6	0.012211507
115	0xbbabfc75	-0.005248601
116	0xbca62d76	-0.02028535
117	0xbbcc5c92	-0.006236621
118	0x3c884c63	0.016637987
119	0xbc3f18e5	-0.01166365
120	0xbc0ae9a9	-0.0084785605
121	0xbbf2f64c	-0.007414615
122	0x3b7bea49	0.0038439205
123	0xb7b2f600	-2.1333806e-05
124	0xbd12b05a	-0.035812713
125	0x3b3a5435	0.002843154
126	0x3ba42549	0.0050093275
127	0xbb2d9afc	-0.0026490083
128	0xbc143170	-0.00904499
129	0xbc04ebe2	-0.0081128795
130	0xb960e878	-0.00021448906
131	0xbc2d6b93	-0.01058473
132	0xbc648bce	-0.013949348
133	0xbc7622a5	-0.015022908
134	0xbb674c62	-0.003529333
135	0x3788f580	1.6326783e-05
136	0xbad7b1b4	-0.0016456158
137	0x3a0523e2	0.00050788943
138	0x3abe565d	0.0014521588
139	0x3a327db8	0.00068088947
140	0x3a4e60ca	0.0007872699
141	0xbab5be02	-0.0013865831
142	0x3b988cac	0.0046554413
143	0x3bdd11e6	0.0067465184
144	0x3ad67030	0.0016360339
145	0x3980c668	0.00024561887
146	0xba4ea237	-0.0007882448
147	0xbb865e53	-0.0041006
148	0xbbd742fe	-0.0065692654
149	0xbc74720b	-0.014919768
150	0xbaa3d882	-0.0012500437
151	0x3bfd4fe9	0.0077304733
152	0x3bc23fc9	0.005928014
153	0xbc4c0aa6	-0.012453711
154	0xbc5df510	-0.013547197
155	0x3b84130a	0.00403059
156	0xbb0d2158	-0.0021534767
157	0xbc5dbee2	-0.01353428
158	0xbcf766b8	-0.030200347
159	0xbcf2569e	-0.029582318
160	0x3abe509a	0.0014519871
161	0xbc2f037a	-0.010681981
162	0xbca899fe	-0.020581242
163	0xbc6f670a	-0.014611969
164	0xbbfd17fc	-0.0077238064
165	0xbaac1fa0	-0.0013131984
166	0xbb7ab858	-0.003825685
167	0xbbf39d0e	-0.007434494
168	0x3b21ffe3	0.002471917
169	0x3c94f515	0.01818327
170	0xba312068	-0.0006756843
171	0xbada50d2	-0.0016656166
172	0x3b146c80	0.002264768
173	0x3c01b3e9	0.007916429
174	0x3bd5e956	0.00652806
175	0xbc1db699	-0.009626054
176	0xbc40fb2f	-0.011778637
177	0xbb91bd90	-0.0044476464
178	0xb900fd60	-0.00012301421
179	0x3b4f1b5e	0.0031602005
180	0x3b0a44bc	0.0021098098
181	0x3bbe13da	0.0058007063
182	0x3c03d6c6	0.008046811
183	0x3baa47e0	0.0051965564
184	0x3bb61ee2	0.0055578807
185	0x3ab92ff9	0.0014128677
186	0x3b0582d2	0.0020372164
187	0x39d44090	0.00040483894
188	0xb8b77b20	-8.749054e-05
189	0xbb3d2b42	-0.0028864895
190	0x3bc87ba6	0.0061182557
191	0xbb808836	-0.0039224876
192	0xbbe23922	-0.0069037834
193	0xbc16b42e	-0.009198232
194	0xbbdfe664	-0.0068328846
195	0xbb76cb55	-0.0037657816
196	0xbc468356	-0.012116274
197	0xbc61f3bd	-0.013791022
198	0xba8917fe	-0.0010459421
199	0xbbb438cf	-0.005499936
200	0xba4bf0a4	-0.00077796937
201	0xbadd6670	-0.0016891491
202	0x3ae266ee	0.0017273107
203	0xbb8ba78b	-0.004261916
204	0x3a0c8e10	0.0005361745
205	0x3b52fdca	0.0032194727
206	0xbb75df9a	-0.003751731
207	0xbaac11a2	-0.0013127814
208	0xbb8737ca	-0.0041265236
209	0x395c6740	0.00021019299
210	0x3b6c5fde	0.0036067883
211	0xbc084054	-0.008316118
212	0xbb7726fe	-0.003771245
213	0xbb1e6c34	-0.002417338
214	0xbb1384d5	-0.0022509594
215	0x3bdb1f0d	0.006687051
216	0xbbcf88de	-0.0063334545
217	0xbbb00d0e	-0.00537265
218	0xbab8eb3c	-0.0014108191
219	0xbc3c2881	-0.011484266
220	0xbb6e7e10	-0.0036391057
221	0xbbe205b3	-0.006897652
222	0x39df36a8	0.00042574597
223	0x3b8e4e02	0.0043427953
224	0xbbce077a	-0.0062875124
225	0x3cb78434	0.022401907
226	0x3c86b233	0.016442394
227	0xbc77f510	-0.015134111
228	0xbd0facbe	-0.03507685
229	0xbbbeda0b	-0.0058243326
230	0x3b980762	0.004639552
231	0xbce073ca	-0.027398963
232	0xbd07924d	-0.033098508
233	0xbcb5dabb	-0.022199025
234	0x3b87b234	0.0041411165
235	0xbc650d6a	-0.013980249
236	0xbd0ea581	-0.034825806
237	0xbbd19476	-0.0063958718
238	0x3c78ff80	0.015197635
239	0x3c86b6dd	0.016444618
240	0xbc04d758	-0.008107983
241	0xbcafc3c0	-0.021455646
242	0x3c657c1d	0.014006642
243	0x3c94480b	0.018100759
244	0xbc11f5d4	-0.008908708
245	0xbc50643a	-0.012719208
246	0xbbf046fe	-0.0073326817
247	0x3b9bd7fe	0.004755973
248	0xbbe9517c	-0.0071203094
249	0xbcd45534	-0.025919534
250	0x3aebab01	0.001798004
251	0xba867b47	-0.0010260128
252	0xbaa9652c	-0.0012923828
253	0xbb0d399f	-0.0021549237
254	0x3b22ee09	0.0024861118
255	0x3a8aa656	0.0010578136

momentum_buffer f4 [20]
0	0xbbab8b91	-0.0052351435
1	0x3c4d4576	0.012528768
2	0xbb2260d6	-0.0024776957
3	0x3c1da1b6	0.009621074
4	0x3b46e2aa	0.0030347505
5	0xbb189290	-0.0023280717
6	0xbca24f2d	-0.019813145
7	0x3b58f53d	0.0033105158
8	0x3c02e083	0.007988098
9	0xbcea98a8	-0.028637245
10	0x3b14e771	0.0022720958
11	0xbcfca41a	-0.030839968
12	0xbc87295b	-0.016499212
13	0x3b058212	0.0020371717
14	0xbc225529	-0.009907999
15	0x3c100f1c	0.008792665
16	0x3be5242e	0.0069928383
17	0xbbe16fd9	-0.0068797884
18	0x3aabb4a0	0.0013100095
19	0xbbb75268	-0.0055945404
