models/model_2020-12-08_21-28-16/checkpoint.pt (torch, 179791 bytes, 16 tensors)

conv1.weight f4 [10, 1, 5, 5]
00000000: 1e9d 09be 2706 f43d 4795 0f3e faa8 193d
00000010: 8b52 3bbe 93f3 f1bd c97b 2c3e 2f38 393e
00000020: 8472 7a3c 90cc 353e 2a84 2f3e 3d3f b9bd
00000030: 8f18 92bd a20a ce3d 22a8 323e 2b68 e2bd
00000040: 4c9d 1c3e 666a f9bb bd3a a2bc 6fdd 963d
00000050: 86ba a6bc ab94 48bd 5856 e7bd 8dfe 243e
00000060: 9677 36be 6b7d 2ebe 42a3 1dbe fcdc 84bd
00000070: 25c7 9d3d 62a9 453d fbce 083e 3ab1 e53d
00000080: e303 773c 319d 083e a642 2e3e 7e57 993d
00000090: 781a 79bc 1f03 b5bd aa1d 88bd 2518 133c
000000a0: ce35 23bd 410d be3d c470 553d 811e d73d
000000b0: a7fa 063e 6cbe 99bc 325d 073d 7a28 f13d
000000c0: 7d3c e23b d8b8 2a3e 972c fe3d 4dca 32be
000000d0: 5e85 49bd 3a51 91bc 21bf d5bd f584 223d
000000e0: 7ec5 2ebe 9df5 25be 261f a6bc 47a3 a2bd
000000f0: 8070 173e 4ee7 85bd 393a 623d daa8 1cbe
00000100: 773b 063e e376 4bbd b0d4 cb3d f46f 033e
00000110: 65bf 063e 3424 353e a494 6d3d 92fd 86bb
00000120: 8f89 363e a597 173e f55a 04be 47f8 e43d
00000130: a1d7 41bc a5a8 30be 9390 04be 9684 dab9
00000140: 6d3d 33bd df8b 2dbc c4e7 1ebd 809b 973d
00000150: 8684 a239 84b2 423e 2949 e2bd 6e6b d83d
00000160: 4705 e8bd 89f0 e2bc c4eb 01be cada 3bbe
00000170: e0f4 c0bd abdf 9dbd 4031 923d 9f2c 10be
00000180: 00e3 803c 46e3 543d 55d8 bd3c c767 1c3e
00000190: 0a0d 27bd 34bd 523d 9a24 00bd 2bbc 4b3e
000001a0: 2194 f8bd 3ba1 ce3d fa44 233c b86c 23bc
000001b0: 8345 423e e641 323d 60c5 a93b 760f 54bc
000001c0: 92bb d83b ae52 193e 23a4 873d ee09 4ebd
000001d0: 5f41 30bd 752f c53d 291d d83d 014a 173e
000001e0: 29ef 433e 7e8e d2bc 8ae8 d7bd 6a3e b3bd
000001f0: 04e6 73bd 1e94 453c a244 e93d 192a d3bd
00000200: 6292 8f3d 331b 86bd d15d 20be c408 be3d
00000210: 069f f2bc a2b8 0dbe 1259 723d 74bd 97bd
00000220: f1dc 263e 0683 1bbd 82ec f6bb 17f9 233d
00000230: 31bc 313e e70e 7f3b 99ae c83d e51e 4d3e
00000240: 0768 1abe 59a5 413e 1fd2 4cbe 0735 fcbc
00000250: 63d4 653d 26e6 efbd 43af ee3d 98a6 df3d
00000260: 922a 2b3e b62b bdbd 2170 fc3d 8137 433e
00000270: 4ab1 ad3b 0854 77bd bb5e babd 7629 ee3c
00000280: d350 f33d 8cc7 2abe 5172 073e 2093 bc3d
00000290: 2d1f 393e 1d10 043e 7292 9f3b 072c e7bd
000002a0: 6d97 2ebe b25e 133e 71dc d63d 4f03 01be
000002b0: ed07 903b 3087 31be 486c c2bd b9b3 5c3d
000002c0: 3b6c 03be 2a51 2a3d 1cb5 913d b0dc 9c3c
000002d0: 63bf 2fbe cc13 393e deab aebd e406 963c
000002e0: 55e2 43be 8496 903d ca06 273e c6df 393e
000002f0: 2153 4d3d 60ea 613d bf9b 1d3e 63a9 6dbd
00000300: 41d9 67bd 0366 43be a7f3 3bbe 917f 04be
00000310: 0a89 c0bd b604 d8bd 161b 37bd 9564 febd
00000320: 7c1f 4f3e b49b 93bd e855 8cbd 5352 173e
00000330: 5a04 ec3c 3282 4e3e 297b 65bd d7ba 14bd
00000340: 556e 243e 876b 0abe 50eb c03d 9a8e 923d
00000350: a2e8 c33d 6bd2 41be b66b 34bd 6556 05bd
00000360: b41c 2dbe 0bda 1c3e f84d 493d 6db3 84bb
00000370: 81b9 783b 6b3c d9bd 490c 38bd 22bd 443e
00000380: 3d68 dcbd 2b92 f13d e9a6 d53d 32fa cdbd
00000390: b418 013e f9d1 2c3d 27ca b3bd 2def e2bd
000003a0: 32d2 ad3d 9780 23be a366 ea3d ba46 4ebc
000003b0: 9a16 a93d 5ea0 f13d 228e 603d 95af 0f3e
000003c0: 406b 533d ee7d 423e f260 433e b769 323e
000003d0: 5d60 49be 52eb 02be c350 2b3d a224 25be
000003e0: 8ee5 22be 0742 463e
-0.13438842 0.11915236 0.14021789 0.037514664 -0.18293206 -0.11814036 0.16844095 0.18087839
0.015286092 0.17753816 0.1714026 -0.09045265 -0.071335904 0.10060622 0.1744695 -0.11055025
0.15294379 -0.0076115606 -0.0198034 0.07366454 -0.020352613 -0.048969906 -0.11295766 0.16112728
-0.17819056 -0.1704003 -0.15394309 -0.06487462 0.077039994 0.04825724 0.13360207 0.11215444
0.01507661 0.13341214 0.17017612 0.07487391 -0.015204065 -0.08838486 -0.06646283 0.0089779245
-0.039846234 0.09279872 0.052109495 0.10503865 0.13181554 -0.018767558 0.033047862 0.117752984
0.0069041834 0.16672075 0.124108486 -0.17459984 -0.049199454 -0.017738927 -0.104368456 0.03967758
-0.17067525 -0.16206975 -0.020278525 -0.07941299 0.14789009 -0.065382585 0.055231307 -0.15298787
0.13108622 -0.049673926 0.09952676 0.12835675 0.13158949 0.17689592 0.058003083 -0.0041195834
0.17825912 0.14803942 -0.12925322 0.11180168 -0.011831195 -0.17251833 -0.12945776 -0.00041678984
-0.043759752 -0.01059243 -0.038795248 0.07402706 0.00030997786 0.19013411 -0.110491104 0.105673656
-0.113291316 -0.027702587 -0.12687594 -0.1834518 -0.09421706 -0.07708677 0.071383 -0.14079522
0.015733242 0.051974557 0.023174444 0.15273963 -0.04078392 0.05144997 -0.031284906 0.19895999
-0.12137628 0.10089346 0.009965176 -0.009974651 0.18971829 0.043519877 0.0051809996 -0.012943139
0.006614157 0.14972946 0.066231035 -0.05030244 -0.043031093 0.09628192 0.10552437 0.14774324
0.19134201 -0.025702711 -0.105424 -0.08752139 -0.059545532 0.01205924 0.11390044 -0.10310764
0.07010342 -0.065481566 -0.15660788 0.09279016 -0.029616844 -0.13839963 0.059166975 -0.07409182
0.1629522 -0.03796675 -0.007535518 0.040032472 0.17356946 0.0038918795 0.09798927 0.20031317
-0.15078746 0.18910731 -0.2000203 -0.030787004 0.05611075 -0.11713819 0.11654522 0.10920447
0.16715458 -0.09236853 0.123260744 0.19064142 0.0053006755 -0.060382873 -0.091001 0.029072504
0.1188065 -0.16677684 0.13227202 0.09207749 0.18078299 0.12896772 0.0048697526 -0.112876944
-0.17049952 0.14391592 0.104912646 -0.12598918 0.004395476 -0.17336726 -0.09493309 0.053882334
-0.12834255 0.04158131 0.07114622 0.0191482 -0.17162852 0.18073958 -0.08528875 0.018313833
-0.19129308 0.070599586 0.16311184 0.18151769 0.050128106 0.055155158 0.15391444 -0.058022868
-0.056603674 -0.19081883 -0.18354665 -0.12939288 -0.09401138 -0.105477735 -0.044703566 -0.12421528
0.20226854 -0.072074324 -0.06852323 0.14777498 0.028810669 0.20166853 -0.056025658 -0.036310997
0.16057713 -0.13517581 0.09419882 0.07156105 0.095658556 -0.18927924 -0.044048034 -0.032553095
-0.1690548 0.15317552 0.049146622 -0.0040497095 0.0037952366 -0.10607227 -0.04493359 0.19212773
-0.107620694 0.117954575 0.10432226 -0.100574866 0.1260708 0.042192433 -0.08778792 -0.110807754
0.08487357 -0.15967022 0.11445358 -0.012590105 0.08256264 0.11798166 0.05482305 0.14031823
0.051615953 0.18993351 0.1907995 0.1742314 -0.19665666 -0.1278508 0.041825067 -0.16127256
-0.1590788 0.19361125

conv1.bias f4 [10]
00000000: cf2e 4cbe 29b5 463e 6ef4 f8bd 9f48 06be
00000010: 3fe8 d3bd ad50 d13d 9eee 7f3d c8e7 0fbe
00000020: 60d6 413e 98e9 e7bc
-0.19939731 0.19405045 -0.12155996 -0.1311364 -0.10347032 0.10220466 0.062483422 -0.14053261
0.18929434 -0.028309628

conv2.weight f4 [20, 10, 5, 5]
00000000: 42dd 3f3d b3a6 223c 4b22 0abd 2a72 693d
00000010: 469e 80bc 6dbd 233d 8b4e c0bb 1c35 caba
00000020: 3cd4 1e3d eafb 723d c038 5bbd 3c63 0b3c
00000030: 595c 54bc dfb8 123d 56cc 0e3d 90b4 e43b
00000040: b805 97bc b9ee d4bc 6438 333d f8d6 f53c
00000050: dbcb 79bd 64bd 10b9 9193 903a b839 20bd
00000060: 3455 64bb 36c2 94bc 6859 f0bc 811e 67bd
00000070: 2412 2c3c d5d5 893c a09c 74bd 881e 4cbd
00000080: 8d8f 323d c01f d9bb 5f51 81bd 07fd a63c
00000090: e9ab 7e3c b514 4cbd 70b2 0d3d 819c 0c3d
000000a0: 5d43 983c 3b62 02bd 1744 6c3d 841d 4a3d
000000b0: 1dd2 82bc d6c3 15bd 9683 073c 0a5f 78bd
000000c0: 3504 733d 5e0f 4dbd 8933 ea3c 9ca7 48bc
000000d0: ab5e d03c a254 f13b ed77 873b c31f 5abc
000000e0: 1fca 123d e655 e4bc 0eaa 44bc a129 393d
000000f0: 022b 77bd 21c2 2cbd d7a6 5abd 6c80 0b3d
00000100: 7345 7ebd 6e49 93bc 7fa3 5e3d 880d 2fbd
00000110: 6a0d e13c c46e 6d3d 7fac 50bd 15fb d43c
00000120: 67a4 a5bc a814 f1bb 3227 48bc a8df e33c
00000130: 5026 23bb 0609 6dbd 8f2f 0e3d 6526 f03b
00000140: de97 4e3d 7be3 0a3b 18f4 4a3d c04a 7c3d
00000150: d4bc 62bd 31de fa3c d183 b8bc 3d74 7abd
00000160: e2c0 8c3a e670 20bd 8f17 bb3c f091 5c3d
00000170: 07f0 253d fc42 af3b 8e85 353b cdf7 f3bc
00000180: 86a7 383d 4600 283c 5c6f 88bc 0a7c 85bc
00000190: 5127 0ebd 5944 023c 61bc b6bb 41ba 3a3d
000001a0: 1bff 703d e19b 80bd 1b40 4a3d c25b 77bd
000001b0: f677 81bd eedf 63bd abf1 563d 5208 c9bc
000001c0: 2bff 1abd 9daf 393d daec 343d f9a9 e03c
000001d0: 9f56 2b3d 71d3 973c 3d03 7fbd f467 e6bc
000001e0: d4fe 763b 8f79 813c 7212 373d 3c98 0e3c
000001f0: dedb 393d 7d37 48bd 4606 18bd 0fb3 5ebd
00000200: c33f 40bd 3702 903c b55f 0b3d a4a7 35bb
00000210: 7e15 1a3d aba5 5ebd e477 423d a154 233d
00000220: e99e 7fbd 7fae 113c cbe2 30bc 81c0 60bb
00000230: 7e21 78bd 959b 51bd 237f 55bd ad5c 2bbd
00000240: 41d3 1e3c b5df 883c 921b 653d 404e 65bc
00000250: 4dc6 de3c ad15 173d a875 ba3c 167c 55bd
00000260: 19e8 43bc 8485 c03b 599d fc3c 7d7f 17bb
00000270: 2c6b 67bd 34c7 cabc 146c 40bc d62e e53b
00000280: d91b 52bd 47bb 7cbd cc6d d1bc 098f 663d
00000290: 718e 5fbd aab3 4bbd 74eb 693d 2aad 383c
000002a0: a25d 69bd 8c75 4cbc b693 6fbd 4790 11bb
000002b0: b1f1 4b3c 907e b03b bc2a 293d d9b5 a9bc
000002c0: 98d0 40bc e952 4fbd 369b 6a3d 2a38 173d
000002d0: 37a4 893c 5d64 dfbb 167c 663d f9e2 4d3c
000002e0: 6964 933c 80f9 6ebd 3a2c 76bd 16f7 433d
000002f0: f6a4 1c3c 5531 873c e6b9 723d 032c 59bd
00000300: 127e 2a3c 5a4a 5bbd ca01 00bc 6f8d 7fbd
00000310: 9c9d 5b3d 550f 253d 69a0 84bb 7854 49bb
00000320: 3396 2abd c9f3 873c 34be edbb 1c43 3d3c
00000330: dd01 853c adcb 113d bee5 873c 9dbf 81bd
00000340: 13d2 3fbd 764b 703d d4d8 5a3d f02d 6d3d
00000350: e669 a3bc 0400 fcbc d404 dc3c 8afd 80bd
00000360: a214 38bd af92 08bd b6a2 fe3c a831 b63b
00000370: 140d 84bb 0a2e dfbb 45c7 483d 84a6 7dbd
00000380: 9060 d4bc 1252 1a3d 3405 0abd f091 c9bc
00000390: 6fa5 d43c c9a1 bcbc a094 40bd 24da be3c
000003a0: fdf0 0b3b c7ae 293d 7103 053b 2bc3 303c
000003b0: 45b3 1bbc 1496 8a3c 269a 72bd fb2b d5bc
000003c0: 74cb 7b3c 7f3e 15bc 7228 b3bc 148a 053c
000003d0: 73ea d5bc e512 40bd fd02 a53a d3a2 85bc
000003e0: c624 3b3d bcf8 22bd 2b9e 9a3c 681d 94bc
000003f0: 29f2 143d 56f6 253d bebb 013d deba fa3c
0.046841867 0.0099274395 -0.03372411 0.05699364 -0.01570047 0.039975572 -0.005868738 -0.0015427205
0.03877662 0.059322275 -0.053520918 0.008507546 -0.0129614705 0.035820838 0.03486284 0.0069795325
-0.018435344 -0.025992738 0.04375495 0.030009732 -0.060985427 -0.00013803464 0.0011030306 -0.039117545
-0.0034840824 -0.018159013 -0.029339507 -0.056425575 0.010502372 0.016825596 -0.05971968 -0.049833804
0.043593932 -0.0066260993 -0.063143484 0.020384325 0.015543916 -0.049824435 0.034594 0.03432894
0.018586809 -0.03183196 0.057682123 0.049344555 -0.01596933 -0.036563717 0.008271119 -0.06063751
0.059330184 -0.050063483 0.028589027 -0.012246992 0.025435766 0.0073648253 0.0041341693 -0.013313237
0.03583729 -0.02787299 -0.012003435 0.045205716 -0.06034375 -0.042177323 -0.053381767 0.03405802
-0.06207795 -0.01797935 0.05435514 -0.042737514 0.027472217 0.057966962 -0.050945755 0.025998631
-0.020219995 -0.0073571987 -0.012216376 0.027816609 -0.0024894662 -0.057869934 0.034713324 0.0073287957
0.0504378 0.0021192718 0.049549192 0.061594725 -0.05535586 0.030623527 -0.022523792 -0.06114601
0.0010738636 -0.03917017 0.022838382 0.053850114 0.04051211 0.0053485613 0.0027698013 -0.029781247
0.045081638 0.010253971 -0.016654663 -0.016294498 -0.034705464 0.007950866 -0.0055766557 0.04558778
0.058837038 -0.062797315 0.049377542 -0.06039024 -0.06321709 -0.055633478 0.052476566 -0.0245401
-0.037841003 0.045333494 0.04417119 0.0274248 0.041830655 0.01853344 -0.062258948 -0.02812574
0.003768851 0.015805034 0.044695325 0.008703288 0.045375697 -0.048881043 -0.037115358 -0.054369982
-0.046935808 0.017579181 0.03402682 -0.002771833 0.037618153 -0.054357212 0.047477618 0.03987563
-0.062407408 0.008891701 -0.010796259 -0.0034294429 -0.060578816 -0.051173765 -0.0521232 -0.04183643
0.009693922 0.016708234 0.055934496 -0.013995707 0.027194167 0.036885906 0.022761181 -0.05212029
-0.011957192 0.0058752913 0.030836748 -0.002311676 -0.05649869 -0.02475319 -0.011744518 0.0069941087
-0.05129609 -0.06170204 -0.02556505 0.056288753 -0.054579202 -0.049731888 0.05710931 0.011271754
-0.05697406 -0.012479197 -0.058490478 -0.002221124 0.01244776 0.005386181 0.04130052 -0.020716595
-0.011768483 -0.05061618 0.057276927 0.036918797 0.016801937 -0.006817384 0.05627068 0.0125663215
0.017992215 -0.05834341 -0.06010077 0.04784306 0.009560814 0.016503016 0.059259318 -0.05302049
0.010406034 -0.053537704 -0.007812927 -0.06239074 0.053617105 0.040297825 -0.0040474427 -0.0030720513
-0.041647147 0.016595738 -0.00725534 0.011551645 0.01623624 0.03559463 0.016589042 -0.063353755
-0.0468312 0.058665715 0.05342944 0.057905138 -0.019947957 -0.030761726 0.026857771 -0.06298359
-0.044941552 -0.033343013 0.031083446 0.0055601187 -0.0040298793 -0.006810908 0.049018163 -0.06192638
-0.02592495 0.037675925 -0.03369637 -0.024605721 0.025957791 -0.023026364 -0.04701674 0.023297377
0.0021353357 0.041426446 0.002029624 0.010788719 -0.00950319 0.016917266 -0.05922904 -0.026021948
0.015368331 -0.0091091385 -0.021869872 0.008150596 -0.02611277 -0.04689302 0.0012589392 -0.016312992
0.045689367 -0.039787993 0.018874248 -0.018080428 0.036363754 0.040518127 0.031673186 0.030606683

conv2.bias f4 [20]
00000000: 8482 3e3d a8ab 713d 1f91 c23b 0c30 703d
00000010: 7226 673d 5e6a 39bc 8773 4bba 587f 76bd
00000020: c6e8 623c 97b0 2abd 7262 74bc 6ede a93c
00000030: 3eb6 8d3b e145 f43c a505 1bbd a8fc 95bc
00000040: ad0e 72bd 3cca 14bc d03e a73c 1750 043d
0.04651119 0.059001595 0.00593771 0.05863957 0.05643315 -0.011316864 -0.00077610504 -0.06018004
0.013849443 -0.041672315 -0.014916049 0.020735946 0.0043247035 0.029818477 -0.03784718 -0.018308952
-0.059096027 -0.00908142 0.020415694 0.032302942

fc1.weight f4 [50, 320]
00000000: 8b48 e3b9 77aa 433d ea06 04bd 2339 4dbd
00000010: 5bce a4bc 4e54 403c 56a1 373d 486d 75bc
00000020: b309 0b3d 5050 343d 3e44 2cbd 3fb2 20bd
00000030: a18d 91bc f743 733c 9e16 6b3b f376 25bd
00000040: b263 e638 03c2 15bd 202c 9abb b189 c5bb
00000050: 716c 73bb 937a aabb a058 603d e497 b83c
00000060: 7f97 dcbc 84d0 03bd 819c 10bd d863 ff3c
00000070: 12df cdbb 5c7e 45bd 9ba8 533c e308 9e3c
00000080: c49c fa3c cd31 643d 134c 0dbd d889 443d
00000090: c5b3 36bd dd0c 533d ca52 0abd 6d9f 08bd
000000a0: afba 61bc 6ac8 d0bc 548c 3b3d a2cf a53c
000000b0: 262a 2a3c 466a 193d 8f8c 40bd 0cfb 273a
000000c0: 654d 37bd a189 253d 89c9 e3bc d2c2 0ebd
000000d0: 04a8 413d a26b 843c 435a 843a 2efc 1d3d
000000e0: f755 1b3c f5a3 993c 25d8 4d3b 84ac 10bd
000000f0: b7f0 623d a258 8e3c e18f 523d f481 48bd
00000100: e765 f3bc 8d6d d4bc cf52 93bc 3303 543d
00000110: a35d 5fbc 044a dd3c 7234 2ebd 88bd cebc
00000120: e1fd 643a 529e abbb 92d1 d3bc 3f79 1abc
00000130: 3383 a13c 7969 cc3c f3b4 673c 76cf 7f3c
00000140: 40f9 923c 6d66 ba3c 90ae 2fbd 2c60 fd3c
00000150: 7a38 5e3d e2ee 5cbc 67a7 75bc d999 2b3d
00000160: 1262 35bd 25d8 0b3d eaa6 84bb 4f50 37bd
00000170: 3054 ce3b e2cd 493d 2571 673d f0fe ea3c
00000180: 23f8 ecbb 6107 16bc a94a 8fbc 88d2 2ebc
00000190: 6902 083d d966 17bd cc2f 20bc 489d 463d
000001a0: 32f6 8b3c b9b0 31bd 5a9e d63c 8308 46bd
000001b0: bdac 7e3c 7da9 933c 1fe0 03bd d0ea 093d
000001c0: b929 3c3d 40b9 9b3c 65df 793c 0c64 0c3b
000001d0: 51d3 e73c 6ecd 2ebd 2e27 30bd a839 dd3c
000001e0: 6a28 9c3b 0eb8 42bd 4bc0 593d 379f 2dbc
000001f0: ebd0 9e3c de67 f1bc 802e 95bb a501 35bd
00000200: e638 13ba 62c2 37bd b0de 12bd 7dd0 2fbd
00000210: deaa 763b 32dd cebb 2f52 293c 22a8 cfbb
00000220: 1d4d 253d 1b83 59bc 68d0 453d 88bc 9ebb
00000230: cc15 043d 51db e63c 330b 52bb 5b57 593d
00000240: dc72 06bd 680c d3bc 75b8 1a3d 921b 8bbc
00000250: 0ec3 b83c dbcd b0bb 4195 a73c 8df6 353d
00000260: 5e15 62bd 8465 c93c 3373 b43c 3566 163d
00000270: e2b8 373d 468f f6bc dc9a cd3c c9a8 d5bc
00000280: c0ac cb3c f0d4 c9bc 333b 8fbc a7d8 513d
00000290: 88cc 853c d8fb 623c 8803 19bd e32e ccbc
000002a0: 5d89 d5bc fc28 3fbd 1b1c 563d 5750 15bd
000002b0: 8097 02bd 58fa e43c 84cf 033c 1c83 213d
000002c0: b659 4c3d de50 87bc 6a10 daba dfda 2ebd
000002d0: e75a fd3c 93fa 33bd 3392 afba fa56 39bb
000002e0: 52b9 193b fa55 5abd 340f 323d 90bc 403d
000002f0: 0733 363d a5b3 293d b2ec 883c 3ecf da39
00000300: 38a5 433d dad6 473d 830d 823a 7994 3a3d
00000310: 690f 12bc d36e cf3c f8fa 12bd b41b 4ebd
00000320: 040b d5bb 6143 613d 3ae1 4abd 3d96 2e3d
00000330: 775d 13bc 4bc8 573d 90c4 98bc 0c59 193d
00000340: 0d0f f83b e67b 84bc e04c 043d 4737 4b3b
00000350: 1305 c3bc 8e92 4cbd 2521 48bd c8e9 c1bc
00000360: 53a1 0e3d 4b46 38bd 478a 093c ae95 213b
00000370: b6d6 e0bb 6fab 56bd e87a 273d 4f7a b43b
00000380: cbbd 37bc 0c0b 8cb8 2be4 dc3c f437 b0bb
00000390: 392b 983c e3f4 27bd c6f7 9f3c 1e90 243d
000003a0: 8b92 30bd 363c c1bc c7af 463d 886b 053d
000003b0: 619a f1ba e87b 903c 219d 093d e049 483c
000003c0: d3fe c9bb 7144 1d3d e0a0 8dbc 4768 08bc
000003d0: db45 05bd 6d84 ec3b 9feb 073d 32e6 b6bc
000003e0: 90f2 1dbc 13ca ed3c da4f 3a3d cecb 61bc
000003f0: 8bc8 343d 9db3 0c3d 2b56 16bc 9d61 09bd
-0.00043350863 0.04776999 -0.032233156 -0.050103318 -0.02011793 0.01173885 0.044831596 -0.014979668
0.033944797 0.044021904 -0.04205727 -0.03923249 -0.01776773 0.014847747 0.0035871635 -0.040396642
0.00010985824 -0.036561977 -0.004704967 -0.006028377 -0.0037143494 -0.0052026003 0.05477202 0.022533365
-0.026927708 -0.032181278 -0.035305504 0.031175539 -0.0062826956 -0.04821621 0.012918617 0.019291347
0.03059233 0.055711556 -0.03449638 0.04798302 -0.044605035 0.05152594 -0.03377036 -0.033355165
-0.013777419 -0.02548619 0.045788124 0.020240609 0.0103860255 0.037454866 -0.047009047 0.00064079533
-0.044751544 0.040414456 -0.02780606 -0.034853764 0.047279373 0.016164605 0.0010097701 0.038570575
0.009480945 0.018754939 0.003140935 -0.035320774 0.055405345 0.017376248 0.051406745 -0.048952058
-0.029711677 -0.025931144 -0.017983822 0.051760864 -0.013633165 0.027012832 -0.042530484 -0.02523686
0.00087353407 -0.005237379 -0.025856767 -0.009428321 0.019715881 0.024952637 0.014142263 0.015613427
0.017941117 0.022753919 -0.042891085 0.030929647 0.05425308 -0.0134846885 -0.014993525 0.041894767
-0.04428298 0.03414168 -0.004048218 -0.044754323 0.006296657 0.04926861 0.056504387 0.028686017
-0.0072317286 -0.009157033 -0.017491655 -0.010670312 0.033205424 -0.036963318 -0.009777021 0.04848984
0.017085169 -0.043381426 0.026198555 -0.04834796 0.015544114 0.018025154 -0.03219616 0.0336712
0.045938227 0.019009233 0.015251015 0.0021421937 0.028299006 -0.04267638 -0.043006115 0.027005032
0.00476556 -0.04753881 0.0531619 -0.010597042 0.01938673 -0.029468473 -0.0045526624 -0.04419102
-0.00056160835 -0.044863112 -0.035856903 -0.04292344 0.0037638466 -0.0063129896 0.0103345355 -0.0063371817
0.040356744 -0.013275887 0.048294455 -0.004844252 0.03224735 0.02818075 -0.0032050132 0.053061824
-0.032824382 -0.025762752 0.03777357 -0.01698092 0.022553947 -0.0053956336 0.020456912 0.044424582
-0.05519616 0.02458454 0.022027588 0.036718566 0.044854052 -0.030097615 0.025098257 -0.02608146
0.024862647 -0.02463767 -0.017484283 0.051232006 0.01633288 0.01385399 -0.037356883 -0.024924701
-0.026066476 -0.046669945 0.052272897 -0.03645357 -0.031882763 0.027951404 0.008045081 0.039431676
0.049890243 -0.016518053 -0.0016636972 -0.0426892 0.030927135 -0.043940138 -0.0013395011 -0.0028280602
0.0023456407 -0.05330465 0.04347153 0.047054827 0.044482257 0.041431088 0.016714428 0.00041734608
0.047764987 0.048788883 0.000992224 0.04555175 -0.008914807 0.0253214 -0.035883874 -0.05031939
-0.0065015573 0.0549959 -0.0495312 0.042623747 -0.008994452 0.05268125 -0.018648416 0.037438437
0.0075701536 -0.01617236 0.032299876 0.003100829 -0.02380613 -0.049944453 -0.048859734 -0.023671046
0.03482182 -0.04498891 0.008394784 0.0024655866 -0.006861533 -0.052409586 0.040888697 0.0055077444
-0.011214684 -6.677778e-05 0.026964268 -0.005377764 0.018575298 -0.041005027 0.019527327 0.040176503
-0.043108504 -0.023588281 0.048507478 0.032573253 -0.0018432849 0.017637208 0.033597115 0.012224644
-0.0061644106 0.03839535 -0.017288625 -0.008325643 -0.032537322 0.007217935 0.03318369 -0.022326563
-0.009640351 0.02902702 0.04548631 -0.013781501 0.044136565 0.03435098 -0.0091758175 -0.033540357

fc1.bias f4 [50]
00000000: deea dcbc bcab a23b f58f 8d3b a741 2f3d
00000010: a944 24bd 55c2 c6bc 458a 0e3d b181 21bd
00000020: 87b5 403d 9ab9 6c3c bc3d 6e3c 8b1d 893c
00000030: 7e5e 373c 0948 2fbd 1a5e 533d 2a59 473d
00000040: 10e6 52bc 0691 7d3c 926f 163c cd75 f53c
00000050: f660 6abc 6b0d d93c 1c9b 803c 677b 42bd
00000060: ce03 22bc 2241 04bd ec68 60bd c9e5 69bc
00000070: 6bbe a33c 9687 3bbd f233 63bd baca 693b
00000080: db16 4a3d e1b5 d73b 5675 323d 3b00 d83a
00000090: e16c 423d ab4c 6cbc f512 2fbd 16ca 3c3d
000000a0: 37ff c73c 3b42 22bd 730f 60bd e2f6 953b
000000b0: 0275 08bd ca43 423d d12e 6a3a 2804 d0bc
000000c0: 94f8 1abd 79bd de3a
-0.026967462 0.00496432 0.0043201395 0.04278722 -0.040104542 -0.024262587 0.034799833 -0.039430324
0.047048118 0.014448548 0.014541086 0.01673772 0.011191962 -0.042793307 0.051603414 0.048669018
-0.012872234 0.015476471 0.009181874 0.029963398 -0.014305344 0.026495656 0.015698962 -0.047480967
-0.009888602 -0.032288678 -0.05478756 -0.014275976 0.01998826 -0.0457836 -0.05546946 0.0035673813
0.049338203 0.006582961 0.04356893 0.0016479561 0.047467116 -0.014422576 -0.04274269 0.04609116
0.024413688 -0.039613944 -0.054702234 0.00457655 -0.033314712 0.04742793 0.0008933368 -0.025392607
-0.03783472 0.0016993723

fc2.weight f4 [10, 50]
00000000: e6f1 babd 42e8 36bb 115a fb3d dfd4 363d
00000010: 64a7 9d3d 59d8 17bd b51d c63d c3c5 103d
00000020: 735b afbb 3e89 bebb 6eb1 e9bd 95bd 233c
00000030: 6642 fe3d fe46 803d 22c3 ef3d 80a0 693c
00000040: 8299 f83d 09af acbd a242 ac3d b947 81bd
00000050: cfb9 9b3d 4786 cc3d b0d7 633d d8ed 433d
00000060: e415 ddbb ad63 f33d dd98 1e3d c68e 00be
00000070: b02c 873d 881a 86bd c349 87bd 8118 fabd
00000080: 6088 24bd 0418 f5bd 8811 e53c ee23 73bd
00000090: b52e 01be 5c90 303c 34dd fd3d 5606 73bc
000000a0: 090c 8d3d 40e2 ec3c da8d 02be c3ce e43d
000000b0: 9877 c0bd 7180 01be 1930 f2bd c4e6 da3d
000000c0: 49fd b0bd 29b0 83bd ba73 1d3d 7fb5 11bd
000000d0: 6ed4 24bd a99a f83c ffb0 b73c b0d9 3cbd
000000e0: 477a eabd 2c96 eabd 0f91 bebd 2f36 f0bd
000000f0: 1d66 ffbd b97e 423b ce64 d2bc 8eac 20bc
00000100: 4fbd 883d a7b2 c03d 8dc4 fd3b f082 c2bd
00000110: ba9a 00be 97c3 f53d 566f 55bc f010 09be
00000120: 2ffb b33d acb6 ebbd dbcd fd3d ce4b 67bc
00000130: d254 e83b 39a3 b33d d109 76bc b66b f03d
00000140: e364 ad3d 10f0 4e3c ab5b febd 4d4c 823d
00000150: 2ae9 a33c 1f3c ff3c 8bc3 45bb 9a4e aa3d
00000160: 1df7 0cbe 82e3 1abd 7ec3 083e 5e92 b0bd
00000170: 82b4 fbbd f4d7 093e a1ef efbc c197 073d
00000180: b2a1 6e3d 0172 1c3c ef89 283d eee1 0e3d
00000190: 2c37 103d 83e3 013e 09ca acbd 3a9a 243c
000001a0: e216 f73c 24b3 aabd 5235 b83d 068e 28bd
000001b0: 0a6d 033e 8967 eb3d a179 afbd 2d5d 603d
000001c0: 295f e1bd 6e8c 303c 09ab 593d 0120 a1bd
000001d0: 30ad 54bd ef3d 9a3d 34fb 673d 5026 fc3d
000001e0: c584 73bc 9d9a f73d 4c4b 143e 904d 053c
000001f0: 6804 da3d 4884 7fbd 574b a6bd 535d b9bd
00000200: 07dc 0dbd a621 30bd c594 68bd aa15 4e3d
00000210: ae11 94bc 0a45 b23d 3018 93bc d610 e43d
00000220: ac5c bd3d 8f82 7e3d 87ae 653d 052c 4c3d
00000230: d8d2 c8bc bb0d 073e 8850 bebd e6de d4bd
00000240: a0cf 38bd 8dfb 9a3d ac0f 853d 8173 573c
00000250: 68e4 03bd bebd 83bb 28a6 8f3d aca6 5e3d
00000260: 2f77 a93c a32d bcbd 7382 833c 0dfb f93d
00000270: 783f 19bd fe4e a2bc c9f8 abbd 4ebc 32bd
00000280: 945c 00be a610 fd3d 5fa9 06be 9cd3 163d
00000290: 82ed a93d f642 99bd b56b 443c 40a6 773d
000002a0: f428 05bd d9b6 f03b 12ea e8bd 1751 933d
000002b0: 79c1 1b3c a790 0cbb d633 07bd a53a 833d
000002c0: f5f1 b93d 326c a83d 54bb 3b3d b437 74bd
000002d0: e4f9 70bd cf30 e43d af7b c4bd 73ae d1bd
000002e0: e168 6bbd a3c4 da3d aa59 ebbd b600 f63c
000002f0: b12e a73d c2be 4ebd 6a4f 9a3d 1f4e cb3a
00000300: 4bf8 3e3d c022 0bbe 3caf b3bd dbc5 b4bd
00000310: 9fbe f4bd ad38 adbd f8a9 1ebd c420 38bd
00000320: e8f4 58bd 1dae 883d 62a1 c3bd 8b43 0cbe
00000330: fd13 003d 4904 5f3d 5458 f5bd 71bb 35bd
00000340: dcbb 08be 0875 4b3d f9ff d9bd e115 383d
00000350: f276 823d 87dc c5bd 4665 e4bd ebe5 0f3e
00000360: 254d 1fbd f23c e73d 9969 78bc 9463 8a3d
00000370: d098 c1bc 8bbc 053e eb3a 05be 9a91 ab3d
00000380: 73d1 c0bd 685a 10bd cc6c 1c3d 77f1 ecbd
00000390: d296 913c 2107 0b3e 7cf6 74bd 1336 963d
000003a0: b4e6 d53c 744d f63c 4077 a03d 8d10 97bd
000003b0: fbf3 463b 9cbd ab3c 933d 033d a938 863d
000003c0: 00a4 fcbc 11dc 163d 7e73 b3bd e63d d03d
000003d0: 06dc b8bd 1415 08be 94d2 e6bd 1097 973b
000003e0: 887a 0ebe 3496 5f3d a9d6 8fbc a98d ea3d
000003f0: 1f28 b93c 8abe dbbd 7fab 9ebd bf00 b9bd
-0.0912817 -0.0027909433 0.12273038 0.044636603 0.07697943 -0.03707156 0.09673635 0.03534485
-0.005351478 -0.0058147004 -0.11410795 0.00999393 0.12415008 0.06263541 0.117071405 0.014259458
0.12138654 -0.08431823 0.08411147 -0.06312508 0.076037996 0.09986549 0.055625618 0.047834247
-0.0067469943 0.11884246 0.03872 -0.12554464 0.0660032 -0.06548029 -0.06605866 -0.12211705
-0.04016912 -0.11967471 0.027962461 -0.059360437 -0.12615474 0.010776605 0.12395707 -0.014833054
0.06887061 0.028916478 -0.12749425 0.11172249 -0.09397811 -0.12646653 -0.1182558 0.10688546
-0.0864206 -0.06430084 0.038440444 -0.03557348 -0.04024165 0.030347185 0.022423266 -0.04610604
-0.11449104 -0.11454424 -0.093050115 -0.11729085 -0.124706484 0.0029677583 -0.025682833 -0.009806765
0.06676733 0.09409075 0.007744378 -0.094976306 -0.12559023 0.120001964 -0.013027033 -0.13385367
0.08788144 -0.11509451 0.123927794 -0.014117194 0.0070901895 0.087713666 -0.015016989 0.11739294
0.08466508 0.012630478 -0.12419828 0.063622095 0.020008642 0.031156598 -0.0030176367 0.08315773
-0.13766141 -0.037814625 0.13355824 -0.08621667 -0.122902885 0.13461286 -0.029289069 0.03310371
0.058259673 0.009548665 0.04114717 0.034883432 0.035208866 0.12684445 -0.08436973 0.010046536
0.030162279 -0.083349496 0.08994545 -0.04115107 0.12834564 0.11494357 -0.08568121 0.05477636
-0.110044785 0.010775669 0.053141627 -0.078674324 -0.051922977 0.07531344 0.05663605 0.12311995
-0.014863198 0.12090037 0.14481848 0.008136168 0.10645372 -0.062382013 -0.08119839 -0.09051003
-0.034633663 -0.04300084 -0.056782503 0.05031363 -0.018074837 0.087045744 -0.01795587 0.11136024
0.092461914 0.06213623 0.056074645 0.049846668 -0.0245146 0.13188832 -0.09292704 -0.10394077
-0.04511988 0.07567511 0.0649713 0.013150097 -0.032200247 -0.0040204218 0.07014114 0.05435817
0.020686714 -0.09188392 0.016053414 0.12206087 -0.037414044 -0.019813057 -0.083970614 -0.043636613
-0.12535316 0.12356691 -0.13150547 0.0368229 0.08297254 -0.07483475 0.01198857 0.060461283
-0.03250976 0.007346016 -0.1137277 0.07193201 0.009506577 -0.0021448524 -0.03300842 0.0640767
0.09079353 0.082237616 0.045832947 -0.059623435 -0.058832064 0.11142122 -0.09593903 -0.10238352
-0.057473067 0.10682037 -0.114917114 0.030029636 0.081632026 -0.05047489 0.07534678 0.0015510953
0.04662351 -0.13587475 -0.08773658 -0.088268004 -0.119504206 -0.08458076 -0.038736314 -0.044953123
-0.052967936 0.066738345 -0.09552266 -0.1369764 0.031269062 0.054447446 -0.11979738 -0.04436821
-0.13352913 0.049672157 -0.10644526 0.04494274 0.06370343 -0.09661203 -0.11152129 0.1405255
-0.03889193 0.11290921 -0.015161895 0.06757274 -0.023632437 0.13060205 -0.13010757 0.08377381
-0.09414949 -0.035242468 0.038189694 -0.11569493 0.017772112 0.13576938 -0.05980538 0.073345326
0.026110984 0.03006623 0.07835245 -0.07376204 0.0030357826 0.020964436 0.032041144 0.06553776
-0.03083992 0.036830965 -0.08762263 0.10168056 -0.09026341 -0.1328929 -0.11270633 0.0046261624
-0.1391393 0.054586604 -0.017558413 0.11452801 0.022602139 -0.10729702 -0.07747554 -0.090333454

fc2.bias f4 [10]
00000000: 7ba0 893d e15a 183e 5b75 e23d ffe4 dabd
00000010: 0d28 d4bb 5c2e c7bd 81ba 733c 40f6 9d3d
00000020: 7a7f 9fbd 1b8d ae3d
0.06720062 0.14878418 0.1105754 -0.10688209 -0.006474501 -0.09725639 0.014876009 0.07712984
-0.07787986 0.085230075

momentum_buffer f4 [10, 1, 5, 5]
00000000: ae8f be3c 1995 043d 91a3 b33c 68d2 ffba
00000010: 5282 403c 2974 873c 1c82 df3c 1632 a03b
00000020: 541c e6bb 64d6 123b 2ab7 42ba a101 143c
00000030: 30f4 db3a 34ab a3bb 9c53 2dbc 163f 7d3c
00000040: 76f5 ec3c dcef b63c 58a1 743c 3efb 553b
00000050: 15f6 1e3d f8a2 383d 82ec 0c3d 46fd b73c
00000060: a043 beba 4c06 df3b 1c4a 4b3c 714c b23b
00000070: 808a bebb 400a 1fbc d43f 4b3b ebb7 433c
00000080: 1086 deba 3221 9abb 82a2 0ebc cd11 423b
00000090: 12f4 4e3c c4e6 ab3a 0c16 96bc e4dc 2cbc
000000a0: 20af 943b d4a8 d23b 7a5c 9abb 728c 90bc
000000b0: c894 943b a8ec caba ac58 8e3a a221 98bc
000000c0: 84ac 98bc 50b3 d53b e4c7 a43b 0e4b 6a3b
000000d0: c08a 04bc f05d 8fbc 071a acbc 6042 4739
000000e0: e16e f8bb 5a09 c9bc 3602 16bd 9ef1 c5bc
000000f0: a8a0 23bc 6046 e6bc 988f 3ebd 74e6 36bd
00000100: 6e66 2cbd 6d27 afbc de59 35bd af97 4fbd
00000110: 1a1d 73bd 5270 80bd ccfb f4bc 865a 29bd
00000120: a250 62bd 2851 8fbd 2ec4 9abd ab8a f23b
00000130: cfbe bd3b 86bc 753c 7a2c 183c 00a7 2f39
00000140: 4247 06bb b257 52bb b00d 7fb9 18a0 14ba
00000150: b1d0 3bbc f892 3639 50e2 913b d093 5e3a
00000160: 266c 4fbc 543a 96bc c1e6 1c3c 54aa 843c
00000170: 017b 443c 636e 83bc 2135 d7bc e5da 693c
00000180: 9e13 af3c b5c3 943c bfd8 b9bb 2970 7cbc
00000190: 88ac fb3b a9a0 87bc a09d 75bc 838b 68bc
000001a0: 429d adbb 206e 433b f0e8 08bd f0a0 f3bc
000001b0: 6bd8 9dbc 1818 c3ba d8a5 973c 32e8 53bc
000001c0: 20eb 25ba f416 0fbc 109e 713a 0a30 4f3d
000001d0: 1141 123d 99cb 3f3c 6e95 1bbc 5404 f5bb
000001e0: 5c21 843d 0e6f fe3c cebe ccbb 3906 a2bc
000001f0: 6274 a1bc 3b0a 17bc ee83 003c 2464 f13b
00000200: 56ad 943b 203e f2b9 5cee cb3b d3b1 93bb
00000210: c50a 01bc d01a c93a b403 01bb 8a04 663c
00000220: 3a79 04bc 6246 1dbc 0040 4c36 9462 2bbb
00000230: 0c62 eb3c 620e 813b c8f0 08bc 88aa 753a
00000240: 9a64 d9ba 0668 1d3d 9a16 bd3b 78be acba
00000250: 802c 19bb 3ec7 81bc 3139 0bbc 24cf 673c
00000260: a8f2 973c fb94 353d f4f0 e43c da61 04bc
00000270: 908b a83a 5a1f 883c 6d1e 083d 4409 bd3c
00000280: 04ca 7bbc ac9a 2e3b c860 a33c 2717 db3c
00000290: 82d6 a23c a909 abbc 80c4 733c 5734 763c
000002a0: acd7 653c 0e53 5b3c 2120 a7bc 4913 153c
000002b0: c639 ff3b b0fc dc3b c86d 7e3c cc83 6ebc
000002c0: 9aea 0cbd 7c94 48bd 1162 03bd f752 72bc
000002d0: 048b adbc 053f 05bd 6682 bfbc 9050 6b3b
000002e0: 8503 903c ad07 c9bc a45d c0bc 6893 0abc
000002f0: 371d a23c 1a56 ec3c 02bf 1fbd e633 e8bc
00000300: 40ec 4cbc 8a3f 113c c927 a63c 2162 1bbd
00000310: c3aa b0bc 6959 4abc 422c 0f3b d4d0 303c
00000320: c382 253c 0e2e 2d3c 8970 ac3b 8040 fc3b
00000330: 70b6 aa3b 64c2 ac3b a646 2a3c 5679 063b
00000340: c7b9 b43c 0aa2 c73c d833 9abc 2268 903b
00000350: eaf1 b23c 5d7d 433d f395 323d b1c0 66bc
00000360: b2c3 a2bb 130f 813c d899 0c3d 98f1 e93c
00000370: 7837 323b 486f a93c 366c da3c f937 0d3d
00000380: bc5e ab3c 94cf a5bb 0a87 b63c b835 943c
00000390: 8074 a138 d331 eebb 5362 0abc 400e 5939
000003a0: 6f42 113c 2085 23ba 54f6 a43b 7360 e5bc
000003b0: 4a52 8dbc 4a0a 0fbc 424f b4bc 1dab b8bc
000003c0: a186 f1bc cbee 01bd e95c d9bc 45cb e1bc
000003d0: 1e93 c6bc 9d8e 8cbc 50a2 b4bc 6143 14bd
000003e0: 04f5 d6bc 0e6a 81bc
0.023261871 0.032368753 0.02192858 -0.0019517662 0.011749821 0.016534882 0.02728372 0.004888783
-0.00702242 0.0022405619 -0.0007427806 0.0090335915 0.0016781148 -0.0049947742 -0.010579016 0.015456935
0.028925639 0.02233117 0.0149310455 0.0032650973 0.0388089 0.045077294 0.03440524 0.022459637
-0.0014516003 0.0068061706 0.012407806 0.0054412414 -0.0058148503 -0.009707034 0.0031013386 0.011945705
-0.001697721 -0.004703664 -0.008705737 0.002961266 0.012631433 0.0013115038 -0.01832106 -0.010550711
0.004537478 0.0064288173 -0.004710731 -0.017645095 0.0045343377 -0.0015481906 0.0010860167 -0.018570725
-0.01863695 0.00652162 0.0050287116 0.0035750302 -0.008089721 -0.017500848 -0.021008505 0.00019002846
-0.007581577 -0.024540592 -0.036623202 -0.024163064 -0.009987034 -0.02810973 -0.04652366 -0.04465337
-0.042089872 -0.021381104 -0.044275157 -0.050681766 -0.059353925 -0.062714234 -0.029905222 -0.041346096
-0.05525268 -0.06997901 -0.075569496 0.0074017844 0.0057905684 0.014998561 0.009287948 0.00016751513
-0.002048925 -0.0032095728 -0.00024323794 -0.0005669608 -0.01146333 0.00017411623 0.0044520274 0.00084906537
-0.012660062 -0.01833836 0.0095765 0.0161945 0.011992217 -0.016043847 -0.026270451 0.01427338
0.021371659 0.018159727 -0.00567159 -0.0154076 0.0076804794 -0.0165561 -0.014991194 -0.014193418
-0.0052982876 0.0029820278 -0.03342527 -0.029739827 -0.019268235 -0.00148845 0.018511698 -0.012933778
-0.0006329287 -0.0087335 0.00092169736 0.050582923 0.035706583 0.011706256 -0.009496076 -0.0074773226
0.06451675 0.031058814 -0.0062483316 -0.019778358 -0.019708816 -0.009218748 0.0078439545 0.007366674
0.004537265 -0.00046204124 0.006223483 -0.0045072823 -0.007876103 0.0015343074 -0.0019686045 0.014039168
-0.008085543 -0.0095993 3.0435622e-06 -0.0026151286 0.028733276 0.003938482 -0.008358188 0.00093714194
-0.0016585768 0.038429283 0.0057705166 -0.0013179323 -0.0023372471 -0.015842076 -0.008497522 0.014148507
0.018548325 0.044331532 0.027946927 -0.00807997 0.0012858976 0.016616512 0.03323214 0.023075707
-0.0153679885 0.0026642485 0.01994361 0.026744438 0.019877676 -0.02087863 0.014878392 0.015027127
0.014028471 0.013386501 -0.020401062 0.009098836 0.0077888696 0.00674399 0.015529104 -0.01455779
-0.03440342 -0.04896973 -0.032075945 -0.014790288 -0.021184452 -0.032530803 -0.023377609 0.0035906173
0.017579803 -0.024539793 -0.023482151 -0.008457996 0.019789321 0.02884965 -0.03900052 -0.02834506
-0.012507498 0.008865247 0.020282643 -0.03793538 -0.0215658 -0.012350419 0.0021846448 0.010791976
0.010101977 0.010570062 0.0052624387 0.0076981187 0.0052097365 0.0052721966 0.01039282 0.00205191
0.022061242 0.024369258 -0.01882355 0.004406945 0.02184387 0.047726978 0.043600034 -0.014084027
-0.0049671764 0.015754258 0.034326404 0.028557584 0.0027193706 0.020682946 0.026662927 0.034477208
0.020919196 -0.0050601456 0.022281189 0.018092021 7.698778e-05 -0.007269123 -0.008446294 0.00020700041
0.008865937 -0.0006237794 0.0050342474 -0.028000092 -0.017251153 -0.00873048 -0.02201045 -0.02254253
-0.029483141 -0.03172187 -0.02653356 -0.027562747 -0.024240073 -0.017157847 -0.022050053 -0.03619707
-0.02623988 -0.015797641

momentum_buffer f4 [10]
00000000: 5062 c73b 6693 eebb 8216 5dbc 2e31 dcbc
00000010: 90c5 8f3c 2034 ea3a 1ef4 30bc 39fd 8abc
00000020: 223c 043c 43f2 0abc
0.006084718 -0.007280755 -0.013494136 -0.02687892 0.01755026 0.0017868318 -0.01080039 -0.01696645
0.008070977 -0.008480611

momentum_buffer f4 [20, 10, 5, 5]
00000000: 48fd 033c cbc6 273c 0813 3a3b 60d4 3e39
00000010: 4011 06b9 4efe 5d3b ad72 40bb 3afd 86bb
00000020: eea7 1fbc 6020 bbbc a035 3f38 9477 f43a
00000030: 4e53 ab3b d528 21bc e50f cabc ee0d 31bb
00000040: 7c46 853b 6703 b63b 80f5 3cb9 6204 afbc
00000050: 1375 80bb a874 a1b9 c02a 853c 9062 043c
00000060: acda 42bc bad2 193c 301c 763b 8bf6 c6bb
00000070: 81f5 5bbc d086 5ebc d7d3 f93a 4010 b339
00000080: f08b 68ba 1aef 74bc 2414 c6bc 4b83 47ba
00000090: faa0 ca3b 4836 193b a830 82bc b835 89bc
000000a0: fd67 a7bb 3c26 f13b c764 8b3c b898 78bb
000000b0: 4a2f b1bc dfc7 a3ba 9e10 1c3c 60fd 773b
000000c0: eef1 6bbc 2c03 ddbc 500b c7b8 4a8f d43b
000000d0: 005b 18b8 3173 7fbc 91b2 c9bc d858 103b
000000e0: 02f4 24bb 6199 29bc ec84 9cbb f827 f03a
000000f0: 56bd 8dbb e3ae 96bb 4512 f03b 2753 cf3b
00000100: fcdf 323b ff22 52bb da55 c3ba 6ab9 193c
00000110: 6da3 583c 2070 55b9 c5d2 783b 65d5 c43b
00000120: 206d 013a 1015 523a a2af e23a 4bbb f93a
00000130: 5703 c63a 9e1c 54bb b739 02bc 2455 503b
00000140: 9dfe ab3a 410a c2ba 60fd 6239 30fe eeb9
00000150: b048 b23b 7294 553a 016a cc3a 303b 103b
00000160: 2ac8 ca3a 1624 463b 4e64 b7ba d607 993b
00000170: 5e6d 493b 784f 75bb 83ad 20bb 7a43 8fb9
00000180: 0a87 753b 9b16 28bb fadf 52bb 2eab 963b
00000190: 0abd dc3b 18af 7b3b 90c0 263b 30fe ed39
000001a0: a241 67bc 588a 7a3b 6fcd f8ba b85f a1bb
000001b0: aa5b 85bc 3b71 7ebc cb10 6bba b281 943b
000001c0: 06f4 7c3b bfc3 4bbc 5530 7dbc 84c1 96bb
000001d0: 4b9b a03b 66d1 4d3c 8cc8 e2bb ad0a 5cbc
000001e0: c483 a7bb daf7 9b3b 26c0 843c 5ce6 5a3b
000001f0: bdcb 8ebc f9f6 ba3b 555e 113b d601 623b
00000200: f4f5 9f3a e818 21bc 6b34 d73a a2fb 4639
00000210: 3193 db3a bc7f 63bb 3a7f 84bb e906 af3a
00000220: 85e1 4abb a6ff 1f3b 10c7 b83b 88e6 afba
00000230: 3154 60ba 9d89 2dbb 38db 67ba 98f8 3b3c
00000240: 006f 6ab9 fb89 4f3b 157a 6a3b 1d08 353b
00000250: ac95 0e3c d07c a0ba ccad 413c 893b 1d3c
00000260: acb2 ac3b c660 5d3b ee92 0e3c 6c42 163c
00000270: 04c5 2e3b 406f 92bb 807e eaba 108c 37bb
00000280: a3e8 963b 1ed7 853b c86d 89bb 7e60 c8bb
00000290: 2906 89bb d489 6e3b 76cd 923b 992c 2ebc
000002a0: 4e39 f2bb 764f ae3b eaf5 53bb 850e 693b
000002b0: ab73 9a3b 5aa2 ff3b 5521 243c 44f3 b53b
000002c0: 72a6 533b de86 acba 3dd6 d53b 55ee 093c
000002d0: 60e4 0839 96e7 183b 10cc 533b f5c5 a6ba
000002e0: ea38 d6ba fc3a 233b b4d5 7c3a 1c57 82bb
000002f0: dc7c 8bb9 4730 983b 0a4e b43a bf51 28bb
00000300: 0855 50bb 3424 b53a 36e2 0c3c ea34 55ba
00000310: c4f3 ceb9 6571 763b 9029 ef3b 4165 813b
00000320: 7eac 173c 70c6 073c e6f0 333b e055 913a
00000330: 6c64 693b 1658 023c 603c 783b ce5a 9f3b
00000340: f09c d739 e370 52bc 8804 6f3b 8a79 813a
00000350: 82ea 913b 5041 8abb 4b24 72bc 8cb8 9438
00000360: 7cc5 4cbb fcbe f73b 0105 be3b e9f2 fdbb
00000370: 204e 99b8 35c2 9dbb b8e9 f43a 4e41 383b
00000380: 79ee a43b 2d1c 163c fcd0 b53a a4ab d43b
00000390: 600b 51bb 377d 85bc 1029 a03b 3abe b33b
000003a0: 0c34 42bb 2208 8cbc f031 9bbc 2e93 453a
000003b0: d0fd d9ba a410 38bb 60f0 76bb 1e09 42bc
000003c0: 836c 96bb eb23 86ba 477a 2b3b d077 32bb
000003d0: 9c50 82bc 878f d8ba b4a4 143b ca53 d93b
000003e0: 5600 8f3b 3c31 17bc b489 6bbc b165 bfbc
000003f0: 37f0 9fbc 9217 bcbc 69d4 9cbc 4c07 4fbc
0.008055992 0.010240267 0.0028392691 0.00018198928 -0.00012785662 0.0033873501 -0.0029365227 -0.0041195424
-0.009744627 -0.022842586 4.558789e-05 0.001865136 0.0052284366 -0.009836395 -0.024665782 -0.002701636
0.0040672403 0.005554605 -0.00018020533 -0.021364395 -0.0039202063 -0.0003079523 0.016255736 0.00808014
-0.011892956 0.00938862 0.0037553422 -0.0060718707 -0.013425232 -0.0135819465 0.0019060326 0.00034153648
-0.000887095 -0.014949584 -0.024179526 -0.0007610812 0.0061837407 0.0023378301 -0.015892342 -0.016749248
-0.005108832 0.007359294 0.017015828 -0.0037932824 -0.021628994 -0.0012495479 0.009525446 0.0037840232
-0.014400942 -0.026979052 -9.4911666e-05 0.006486808 -3.6324374e-05 -0.015591429 -0.02462128 0.0022025611
-0.0025169854 -0.01035151 -0.0047765877 0.0018322458 -0.004325549 -0.004598485 0.0073263966 0.006327051
0.002729415 -0.0032064316 -0.0014902905 0.009382585 0.0132225575 -0.00020355033 0.0037967425 0.006006884
0.00049372204 0.0008014003 0.0017294774 0.001905301 0.0015107197 -0.003236569 -0.007948331 0.003178903
0.0013122145 -0.0014804081 0.00021647429 -0.00045584282 0.005440794 0.0008147425 0.0015595556 0.0022007935
0.001547103 0.0030233911 -0.0013991685 0.0046701236 0.0030735354 -0.00374314 -0.0024517484 -0.0002732536
0.0037464523 -0.002564824 -0.0032176957 0.004598043 0.0067364024 0.0038403925 0.0025444366 0.00045393547
-0.014114769 0.0038229432 -0.0018982122 -0.0049247406 -0.01627906 -0.015529926 -0.0008967041 0.0045320624
0.0038597598 -0.012436806 -0.015453418 -0.0046007056 0.004901325 0.0125621315 -0.0069208797 -0.01343028
-0.0051121432 0.004759771 0.016204905 0.0033401465 -0.017431134 0.005705711 0.002218147 0.0034485958
0.0012204037 -0.009832598 0.001641882 0.00018976492 0.001675224 -0.0034713587 -0.004043487 0.00133535
-0.0030957174 0.0024413853 0.0056389645 -0.0013420144 -0.00085574674 -0.002647973 -0.0008844617 0.011472844
-0.0002235733 0.0031667936 0.0035778333 0.0027623244 0.008702677 -0.0012244228 0.011821222 0.009596714
0.005270323 0.0033779605 0.008702023 0.00917111 0.0026667723 -0.0044688284 -0.0017890483 -0.0028007068
0.004605369 0.004084482 -0.004193995 -0.0061150184 -0.0041816426 0.003639807 0.0044800593 -0.01063075
-0.007392085 0.005319531 -0.003234262 0.0035561633 0.0047134957 0.0078013362 0.010017713 0.005552681
0.0032295254 -0.0013162752 0.0065257833 0.008418639 0.00013055047 0.0023331395 0.0032317676 -0.0012723791
-0.0016343866 0.0024906984 0.00096448814 -0.0039776694 -0.00026605173 0.004644427 0.0013756168 -0.002568349
-0.0031788964 0.0013819993 0.008598855 -0.000813319 -0.00039473 0.003760421 0.007298656 0.003948838
0.009257434 0.008287057 0.002745682 0.0011088215 0.0035612835 0.007955572 0.0037877783 0.0048631197
0.00041124923 -0.012844297 0.0036471207 0.000987814 0.0044530043 -0.0042192116 -0.014779161 7.0915645e-05
-0.003124564 0.007560609 0.0057989364 -0.0077499044 -7.3101604e-05 -0.004814411 0.0018685376 0.0028115097
0.005033311 0.009161991 0.0013871486 0.0064901877 -0.003189765 -0.016295059 0.0048877075 0.0054853233
-0.0029633073 -0.017093722 -0.01894471 0.0007536885 -0.0016631428 -0.002808609 -0.0037679896 -0.011842994
-0.0045905723 -0.0010234093 0.0026165412 -0.0027232058 -0.015907578 -0.0016522267 0.0022681179 0.006632303
0.0043640537 -0.009228047 -0.014376093 -0.02336392 -0.019523723 -0.022960458 -0.019144254 -0.012636017

momentum_buffer f4 [20]
00000000: 9ea4 54bb eb4e 35bb c925 033d fcc2 213b
00000010: 22c4 cbbb b2a6 13bc 128e 2bbc 9677 8a3c
00000020: d8c6 fe3c d019 0ebc b03d ec3b 42e0 903b
00000030: 02dd 263c c17a 063c 2068 8abc 02ae 093d
00000040: ee3e 46bc 2de3 8dbc 6a85 5abc 3e5d ab3c
-0.0032446752 -0.0027665447 0.032018457 0.002468287 -0.006218449 -0.009011911 -0.010470884 0.016902726
0.031100675 -0.008673146 0.007209502 0.004421265 0.010184528 0.008207978 -0.016895354 0.033613212
-0.012099965 -0.01732024 -0.013337472 0.020918485

momentum_buffer f4 [50, 320]
00000000: 0916 37bc 4bdb 44bc 08fb 1abb f242 7dba
00000010: 16ad 87bc d066 91bc 72ee 71ba b7c9 c737
00000020: 4010 c2bc 70e7 23bc 2c94 a8bb de1d a33a
00000030: 5811 75bc 4685 44bc efc0 5a39 bc0c 0639
00000040: 349b 5dbc 7ea6 5bbc ed75 34bc 675f c2bb
00000050: e94b bdbc 241a bbbc 1631 09bc 6a13 39bb
00000060: f8c9 bdbc 56fd a0bc 4623 25bb c05f 3abc
00000070: 3167 adbc 4318 8cbc 8544 d1ba 62b6 32bc
00000080: 2b78 36bc f666 83bc 007e 9bb7 861f 3dba
00000090: 3d9a e3bb 54a4 5abc acea 8dbc c274 65bc
000000a0: 38b7 9d3c 4ca4 e1bb 2903 f3bb 3948 26bc
000000b0: eacf 3bbc aa17 28ba a0d7 23ba 9c53 de3a
000000c0: 1af8 383b ceb0 073b d9cf a83b 5759 473b
000000d0: 4ab7 a73b f294 1e3b 9033 8a3b ee62 373a
000000e0: 818e bb3b 2ed0 feba 9947 1c3b 0038 33ba
000000f0: af46 553b ba92 5b3b 4093 41b8 ea5c 423a
00000100: 933b 6fbb 547c 0ebb 431f 07bc 25f0 fdbb
00000110: a4e0 bcba 54ed 62b9 a823 5ebc caa9 08bc
00000120: 2e7e a8bb 5a06 3bbc e3a3 66bc e8f8 88bc
00000130: c6e5 b6bb 162f 87bb 1ecb 02bc e8c0 23bc
00000140: 42b4 1abb d8c3 21bc 2b72 65bc 20e3 9cba
00000150: 21e2 f3bb 4122 84bc a2e9 63bc 4166 9cbb
00000160: 4fe4 ecbb 2424 d0bb 6a99 06bc f5a3 edbb
00000170: 54e3 43bc 787c 3ebc fd8e 6fbc 28cc 2c3a
00000180: 5159 a4bc 9c32 12bd 4d00 31bd 8bdd c6bc
00000190: 7593 92bc 54da 67bc 5ad5 8abb 4f97 77bc
000001a0: 3fff c1bc 8786 dfbc 387a 0cbd ad41 acbc
000001b0: 7e0e 93bc 7de8 e5bc 1121 0dbd a3fb eabb
000001c0: a695 01ba 0a4b 8abb d756 21bd 467d 06bd
000001d0: 71b0 67bb 8e5f 1cbc 7511 8abc 3002 01bd
000001e0: cf49 c6bc 7d26 2fbb 0c45 f7bc 6348 e7bc
000001f0: cb56 b3bc 3b99 20bd 31ff f9bc a8c4 94bc
00000200: ac55 57bc 28ad 44bc 12d9 9bbc f751 86bb
00000210: 0660 c83b d634 70bc 9e5f 66bc e23b 873b
00000220: b7a8 0c3c ec86 66bc 063c 2e3b 6ce4 94bb
00000230: 0f23 a3bb 7e98 17bc a3b4 1bbc 12fa b7bc
00000240: 9484 5339 c09b 463b 5433 18ba fa60 f33a
00000250: 16ab c3ba cea0 023a 8481 47bb 9e4e 9a3b
00000260: d0c2 37bb a1a6 dfb9 96b8 f439 d2c8 a23a
00000270: b31e aebb a8e3 50bb 994a 3a3a e441 2dbb
00000280: 5451 ca3b 66dd 05bc b2d7 7a3b e875 7a3b
00000290: 1bbe c2bb c300 75bc eee9 0e3c a897 de3b
000002a0: 009d 0139 9e02 e5ba d777 7e3b 90d4 26ba
000002b0: 9c69 80ba c22c 17bc d134 0ebc c2d8 17bb
000002c0: fade 94bc baa5 cebc 41f7 9dbc 862e ccbc
000002d0: 69c6 d4bc 0ccb debb 293f f9bc 3e92 14bd
000002e0: ee74 41bc 14f4 71bb 0c7d 89bc 956a 1cbd
000002f0: 97f2 dcbc 7548 c4bc 2fd7 92bc 7454 e9bc
00000300: 0614 11bc e42a 5fbc e501 f0bb 605b e6b8
00000310: 56c3 82bb feb6 47bc aa1c f2bb 0cb0 e63a
00000320: 8b95 a1bb 635a 27bc c586 1dbc aea9 bf3a
00000330: 4914 6bbc 4a53 07bc e9bb 0fbc 28e4 a1ba
00000340: fa2e a4bc 379a 88ba c094 8bbc 151b 60bc
00000350: e791 25bb 859e 9a3b 7c57 d4bc 859a 85bc
00000360: f599 5abc f3af a3bc f300 44bc 8613 4dbb
00000370: 52a0 e3bb 6853 44ba d22d 78bc c036 89bc
00000380: 60c1 ca3b 88ab 7abc 626e 1c3b 0849 84ba
00000390: 4ec7 a0bb 20f8 b33b 18f2 143c e4e3 43bc
000003a0: 78e2 ecba b5f4 943b 1757 ddbb 8f5e fdbb
000003b0: 2809 e13b 042b 15bb 8f7e 08bc 85c7 8a3b
000003c0: 424a 32bb 63a9 19bc 3b7c 1ebc 6886 2fbb
000003d0: 1117 84bc 0233 85bc 355b 36bb 8efe 3aba
000003e0: b20d 6dbc c61d c1bb 225c 85ba 89c3 82ba
000003f0: f09e a1bb e8ee faba d08c 9abb 8edd ecba
-0.011174687 -0.012015174 -0.0023648161 -0.000966116 -0.016562026 -0.01774922 -0.00092289515 2.381658e-05
-0.02368939 -0.0100039095 -0.0051446166 0.0012444814 -0.014957748 -0.0119946655 0.00020861973 0.0001278398
-0.013525773 -0.013406394 -0.011014444 -0.005931783 -0.023107486 -0.022839613 -0.008373519 -0.0028240331
-0.023167595 -0.01965205 -0.0025198027 -0.011375368 -0.02116737 -0.017101413 -0.0015965855 -0.010907741
-0.011137049 -0.016040307 -1.8536113e-05 -0.0007214475 -0.006945877 -0.013344843 -0.017323814 -0.014004888
0.019252405 -0.006886041 -0.007416148 -0.010149055 -0.011463145 -0.00064122176 -0.0006250087 0.0016962173
0.0028224052 0.002070475 0.0051517305 0.003041824 0.0051182853 0.0024197665 0.0042175725 0.00069956377
0.005723775 -0.0019440704 0.0023846386 -0.0006836653 0.0032543351 0.0033504204 -4.6151923e-05 0.0007414358
-0.0036504015 -0.0021741586 -0.0082471995 -0.0077495747 -0.001441021 -0.00021641451 -0.013558306 -0.008341262
-0.005141995 -0.011415089 -0.01407716 -0.01672025 -0.0055815903 -0.004125486 -0.007982997 -0.009994723
-0.0023605977 -0.009873353 -0.014004271 -0.0011969544 -0.007442728 -0.016129615 -0.013910683 -0.004772932
-0.007229365 -0.0063519645 -0.008215288 -0.007252211 -0.011956055 -0.011626355 -0.014621493 0.0006591701
-0.02006212 -0.035692796 -0.043213177 -0.024275562 -0.017892579 -0.014151175 -0.0042368593 -0.015111758
-0.023681281 -0.027285827 -0.034296244 -0.02102741 -0.017951246 -0.02806496 -0.034455363 -0.0071711107
-0.0004943259 -0.004220371 -0.039389458 -0.032834314 -0.003535297 -0.009544266 -0.016854027 -0.031496227
-0.024205117 -0.0026725822 -0.030184291 -0.028232759 -0.021891972 -0.039208632 -0.030517193 -0.01816018
-0.013142984 -0.012004174 -0.019024406 -0.0040991264 0.0061149625 -0.014661035 -0.014060883 0.0041270116
0.008585147 -0.014070254 0.002658607 -0.0045438316 -0.0049785445 -0.009252666 -0.009503516 -0.02245811
0.00020171917 0.0030305237 -0.00058059883 0.001856833 -0.0014928307 0.0004983068 -0.0030442188 0.004709079
-0.0028039701 -0.00042658023 0.00046676834 0.0012419468 -0.005313718 -0.0031873975 0.0007106453 -0.002643698
0.006174246 -0.008170461 0.0038275537 0.003821725 -0.0059430725 -0.014953795 0.008722765 0.006792981
0.00012360886 -0.0017472093 0.0038828754 -0.0006364072 -0.0009797099 -0.00922698 -0.008679585 -0.002316997
-0.01817273 -0.025225509 -0.019282939 -0.024924528 -0.025973516 -0.0067991074 -0.030425625 -0.03627228
-0.011807663 -0.0036919164 -0.01678326 -0.038187582 -0.026971145 -0.023960331 -0.017924873 -0.028482653
-0.008854872 -0.013621066 -0.0073244446 -0.000109842746 -0.003990571 -0.012189625 -0.007388671 0.0017600073
-0.004931157 -0.010214421 -0.009614651 0.0014622712 -0.014348098 -0.008259604 -0.008772829 -0.0012351321
-0.020041931 -0.0010421936 -0.017038703 -0.013678332 -0.0025263967 0.004718604 -0.025920622 -0.016309032
-0.01334237 -0.01998136 -0.011963117 -0.0031292154 -0.006946602 -0.0007489235 -0.015147643 -0.01674974
0.006187603 -0.015299685 0.0023869504 -0.0010092566 -0.0049065715 0.0054922253 0.009090923 -0.011956189
-0.0018072864 0.004545773 -0.0067547667 -0.0077322195 0.0068675466 -0.0022761235 -0.008330955 0.0042352104
-0.0027204906 -0.009378764 -0.009673174 -0.0026782993 -0.01612428 -0.016259674 -0.002782536 -0.00071332685
-0.014468597 -0.005893442 -0.0010174552 -0.0009976487 -0.004932277 -0.0019144686 -0.004716493 -0.00180714

momentum_buffer f4 [50]
00000000: f208 c4bc e2e7 c5ba 8e44 45bb f486 8a3c
00000010: e601 3cbb a466 46bc 24b6 94bb 4122 8fbb
00000020: b2c5 843b c878 ae3c 6607 703c 4d54 9d3c
00000030: 48ef e2bc ea07 013c e4b0 873b 32ab bc3b
00000040: 8b8c e23c fa14 d13c d6f8 3dbc b862 543b
00000050: 02ec 8fbb 2ffb f73c 1558 cc3c 585a 50bb
00000060: 417e afbc 8d1f 873c 1da5 f03b 2c6b bebb
00000070: acf0 16bb 39f6 9cbc 0c1a 1bba d7c6 a8bc
00000080: 56cb f2bb ad18 0bbb e328 933c f022 8c3a
00000090: 1037 a9bc e07e 533a 6a07 9e3b 6d77 dfbc
000000a0: 62d8 94bc 6fd3 debc 1dd1 b3bb 5812 73bc
000000b0: ab8a 9cbb b48a 033c fba5 bf3b af46 9ebb
000000c0: 937e debc 8afa fb3b
-0.023930047 -0.0015099014 -0.0030100676 0.016910054 -0.0028687655 -0.012109432 -0.0045383144 -0.004368097
0.0040518874 0.021297827 0.014650201 0.019205237 -0.027701989 0.007875422 0.00414096 0.0057577128
0.027654907 0.025522698 -0.011594972 0.0032407474 -0.004392148 0.03027114 0.024944345 -0.003179213
-0.021422507 0.016494537 0.007343902 -0.0058111157 -0.0023031635 -0.019160377 -0.0005916662 -0.020602627
-0.0074094934 -0.0021224425 0.017963832 0.0010691565 -0.020656139 0.0008067917 0.004822661 -0.027278626
-0.018169586 -0.027200429 -0.0054875747 -0.014835916 -0.0047772727 0.008028675 0.005848644 -0.0048302035
-0.027159965 0.0076897787
