models/model_2020-12-08_21-02-16/checkpoint.pt (torch, 179791 bytes, 16 tensors)

conv1.weight f4 [10, 1, 5, 5]
000000 1c b3 9e bd 1b 0c f9 3b 25 c0 ce bd fd da 90 3d
       -0.07749006 0.00760032 -0.100952424 0.07073019
000010 88 33 35 be e7 8c 1c 3e 58 25 12 be b2 9d 22 be
       -0.17695439 0.15288125 -0.14272058 -0.15880468
000020 23 41 02 be 57 86 b1 3d 2c 8c 80 bd 47 66 a1 3d
       -0.1272016 0.086682014 -0.06276736 0.07880836
000030 1b 7e 2d be cd 5a f7 bd 77 b2 99 bd 09 07 e3 bc
       -0.16942637 -0.12077866 -0.075047426 -0.027713316
000040 f5 08 19 be 2c 36 09 3e be f1 34 bd f0 a1 84 3d
       -0.14944823 0.13399571 -0.044175856 0.064761996
000050 68 85 1b 3e 4d ee 37 3d c4 e2 7f 3d c0 87 4b 3e
       0.15187609 0.044904996 0.06247212 0.19876003
000060 61 1e af bd 53 51 75 3d 31 0a b6 bd 61 70 15 3e
       -0.08550716 0.05989201 -0.088886626 0.1459365
000070 bb 34 2b 3e e2 46 32 be 0a ee 2a 3e c7 a2 bf 3d
       0.16719334 -0.17409852 0.16692367 0.09357219
000080 9a 48 b9 3d f4 2f c0 3d 47 c7 37 3e d1 d0 ea bc
       0.09047051 0.09384146 0.17947112 -0.028664025
000090 8a b4 2b be 4c e5 37 bd f7 fe f4 bd 59 30 01 3d
       -0.16768089 -0.04489641 -0.11962693 0.03154025
0000a0 87 bf 2b bd 68 eb db bd cb 05 b3 bb 3b a4 59 3e
       -0.0419307 -0.107382596 -0.005463337 0.21254055
0000b0 ea 1c 1e 3b 2f d0 60 bb 85 43 06 bd a6 32 2d 3d
       0.002412612 -0.0034303775 -0.032779235 0.04228463
0000c0 80 c8 4a 3e f3 5e 0e 3e b8 b4 95 3d 35 92 2f 3d
       0.19803047 0.13903408 0.0730986 0.042864043
0000d0 34 79 22 3d 6b 6e 85 3d 7e ef 10 bd 88 0d 3b be
       0.03966637 0.06515201 -0.035384648 -0.1826688
0000e0 f6 c1 fe bd 04 2b 27 3e d1 a1 10 3b be 07 2d be
       -0.12439339 0.16325003 0.0022069106 -0.16897485
0000f0 fe eb 13 3d 37 08 29 3e 5a 45 46 be 2b c2 0e be
       0.03611373 0.1650704 -0.19362393 -0.13941257
000100 cc 63 ad bd 81 34 4b 3c 2f 52 3d bd a5 f9 cd bc
       -0.084663 0.012402655 -0.046220955 -0.025143454
000110 64 55 4a be db 48 b5 3d ca a8 3a 3e ce bc fe 3d
       -0.19759136 0.08851787 0.1822845 0.124383554
000120 74 c7 12 be 4f 54 27 be 26 34 a1 3d 36 be 49 3c
       -0.14333898 -0.16340755 0.07871275 0.012313416
000130 be b7 bd 3d ed 54 39 be cb d3 a7 3b 5b 3b 20 3e
       0.09263562 -0.18098803 0.0051216832 0.15647642
000140 b2 20 cd 3d 1a bd 9b 3c 68 84 69 3d 40 bf 7c b9
       0.10016002 0.01901107 0.057011038 -0.00024103839
000150 cd 7f c6 bd a7 a1 90 bd dc 2b e0 bd 08 d2 3c 3e
       -0.09692345 -0.07062083 -0.109458655 0.18439496
000160 db ed 00 3e a2 ce 9a 3d 30 f3 1b be e6 38 27 3e
       0.12590735 0.07558943 -0.15229487 0.16330299
000170 cc 24 9a 3d c8 50 17 3e f2 de 9f bd fe 82 28 3d
       0.0752655 0.1477691 -0.07806195 0.04114055
000180 52 b1 4e 3e a9 41 13 3e 50 f9 28 3e cb 95 2b bd
       0.2018483 0.14380516 0.16501355 -0.0418909
000190 72 02 17 3e ef 7a 22 be 4c 0e 98 3c 2f bb db bd
       0.14747027 -0.15867208 0.018561505 -0.10729062
0001a0 0d 39 0f bd 01 13 72 bd e5 b8 12 3c 6e c3 39 3e
       -0.034966517 -0.059100155 0.008955215 0.18140957
0001b0 be 6a da 3d f0 9e 51 3c 7c 51 08 3e 3a 0c dd bd
       0.10664891 0.012794241 0.13312334 -0.10793348
0001c0 73 ed d6 3d 76 6f bb bb 7b 52 80 bc 6c da 7b 3c
       0.104945086 -0.0057200743 -0.01566433 0.0153719
0001d0 fd c3 1e be ac 98 ef 3c 4c 48 b0 3d c1 58 44 3e
       -0.15504451 0.029247604 0.086075395 0.19174482
0001e0 dc b6 91 bd 6e dc 91 3d 95 46 58 3e 7d 56 81 bd
       -0.07114956 0.07122122 0.21120675 -0.063153245
0001f0 1d 6d 5b 3e 49 65 c2 bd e6 76 be 3d 6a 3a b9 3d
       0.21428342 -0.09491975 0.09300022 0.09044345
000200 2f 07 97 3d a1 b5 35 3e 6c 1e a2 bd 19 af 68 3d
       0.07374417 0.17745067 -0.07915959 0.05680761
000210 f6 d3 67 3c 69 bc 08 be ae f6 e3 bc 56 9b 08 be
       0.0141496565 -0.13353123 -0.027827587 -0.13340506
000220 81 f5 bd 3d 14 e5 f9 3c 86 65 1d 3d 47 33 33 bd
       0.09275342 0.03050474 0.0384269 -0.043750074
000230 94 e5 87 ba ae 8f 76 bd f6 f9 8a 3d c2 14 58 3e
       -0.0010368102 -0.060195617 0.067859575 0.21101668
000240 95 70 2f 3d fd e6 bb bd b0 10 f5 bd dc 70 ce 3c
       0.042831976 -0.09174917 -0.119660735 0.0252003
000250 da 62 0c be 00 46 12 be f6 76 04 be e6 ba 86 bd
       -0.13709584 -0.14284515 -0.12936005 -0.06578617
000260 dd dd 92 3c 9d 60 10 3e 48 8c a4 3d 67 5d 1c 3e
       0.017928058 0.14099355 0.08034569 0.15270005
000270 af 61 ff bd 0a ff ae 3c 36 70 30 be 15 5c f1 3d
       -0.124698035 0.021361846 -0.17230305 0.117851414
000280 93 a1 26 3d ac 8e 49 3e 08 ec 09 be 8d c4 29 3e
       0.040681433 0.19683331 -0.13468945 0.16578884
000290 1d b7 2f 3e f3 9b 23 3e cc bc 03 3d 4f 0c 40 3e
       0.17159696 0.15977459 0.032162473 0.18754695
0002a0 18 41 0d 3e be 43 1e 3e 77 f1 a1 bc 4b 66 1c be
       0.13794363 0.15455529 -0.01976846 -0.15273397
0002b0 7a d4 fe 3a ac 52 31 3d f3 eb 08 be 8b af ee bd
       0.0019441985 0.043291733 -0.13371257 -0.11654576
0002c0 a9 ad 43 be 83 f3 80 bd 9c 47 3e 3e 21 38 34 3d
       -0.19109215 -0.06296446 0.18582004 0.04399884
0002d0 05 79 79 bc 69 fe f4 3b dd 41 09 3e 1b 7f 26 be
       -0.015226607 0.007476617 0.13404031 -0.16259424
0002e0 a1 d5 12 be ad fa 8a bd c6 a6 e8 bd 3e f0 e6 3d
       -0.14339305 -0.06786094 -0.113599345 0.11276291
0002f0 a4 be 1e 3e 88 46 3b be 26 fe 2d be 49 87 44 be
       0.15502411 -0.18288624 -0.16991481 -0.19192232
000300 28 f5 af 3d 29 52 33 3e a7 fb 15 be da bc be bd
       0.08591682 0.1751181 -0.14646779 -0.09313364
000310 3b 06 8c 3d 4b 97 f0 bd 86 ba 3c 3e d7 c7 5a 3d
       0.06837126 -0.11747607 0.18430528 0.05341324
000320 67 3f 6d bd 36 cb df 3b fa 6d 5a 3d d6 f9 a1 bd
       -0.057921793 0.0068296446 0.053327538 -0.079089805
000330 4a e0 28 be 0b a6 30 bb a2 eb 1e bb b4 e1 d6 ba
       -0.1649181 -0.0026954438 -0.0024249335 -0.0016394169
000340 32 14 0c bd ad 37 00 3e 8f 26 77 bd 3d df ce bc
       -0.034198947 0.12521239 -0.060339507 -0.025252933
000350 09 e3 9f 3d f0 a4 01 be fa 8b 5e 3d 2d ef 46 bd
       0.078069754 -0.12660575 0.05433271 -0.04856794
000360 de 2e bb 3d bd e9 e1 bd ab 96 17 3c c8 2d be 3c
       0.091397986 -0.1103091 0.009252231 0.02321519
000370 b7 11 27 be 95 21 18 be a5 de 99 3d 0e e6 6d bd
       -0.16315351 -0.1485656 0.07513169 -0.058080725
000380 b5 2f f7 3d dc c3 4f be 37 ce d6 bd c0 c9 2c be
       0.12069646 -0.20289558 -0.10488551 -0.16873837
000390 48 ed a9 3d b2 a2 37 3c f6 b1 33 bd f7 f4 21 bd
       0.08297211 0.011208223 -0.04387089 -0.039540257
0003a0 33 80 22 be 00 1f 86 3d 38 d7 f5 3c 88 8c 14 be
       -0.15869217 0.065488815 0.03000985 -0.14506733
0003b0 53 0a 8f 3d c4 dc bc bb bc aa 3b be 5f 28 0f 3e
       0.06984391 -0.005763622 -0.18326849 0.13980244
0003c0 db 89 d0 3d 69 1c 2c bd b9 19 0d be 0c dd d8 3c
       0.10182544 -0.04201928 -0.13779344 0.02647259
0003d0 f7 b6 40 3e 48 98 3b 3e 98 4a 18 be 49 f0 a5 bd
       0.18819796 0.1831981 -0.14872205 -0.081024714
0003e0 0f 22 3d 3e 06 6d 0c 3e
       0.18470024 0.13713464

conv1.bias f4 [10]
000000 9a e4 ff 3d 66 08 c3 bd 53 0b 37 3e cf a4 24 be
       0.12494774 -0.09523086 0.17875414 -0.16078494
000010 91 f6 0e bc bb 23 1f 3c 05 5d 11 3d 0b 60 1a be
       -0.008725778 0.009713109 0.0354891 -0.150757
000020 69 cb 40 3e 49 6e 50 3e
       0.18827595 0.2035457

conv2.weight f4 [20, 10, 5, 5]
000000 b8 ea 1e bd 22 bc f7 3b e8 e7 e2 bc 61 e1 81 3d
       -0.038798064 0.007560269 -0.027698472 0.06341816
000010 ac 08 0c 3d a2 d7 1a 3d 77 98 bb 3c 08 c1 94 bb
       0.034187958 0.0378033 0.02289985 -0.0045396127
000020 67 be 01 3d bd 9d f9 ba 86 5f cc bc bf a5 ec 3c
       0.031675722 -0.0019044202 -0.024947893 0.028887628
000030 d5 61 86 3c 16 1c a0 bc 6e e1 88 bc a6 dc 6c bd
       0.016404072 -0.019544642 -0.016709056 -0.057827614
000040 bd cf b0 bc bf 4a f2 bc 4e 99 13 bd e0 8c 70 bd
       -0.021583432 -0.029576657 -0.036034875 -0.0587281
000050 35 68 3c 3d 94 23 84 bd b8 6a 65 3d 0f 2c 16 bd
       0.045997817 -0.064520985 0.056009978 -0.03666311
000060 07 ef 12 bc 2a 27 43 3d d2 fc 7b 3c ae 41 aa bc
       -0.008968121 0.04764477 0.015380101 -0.020783272
000070 8a c3 4e bd d5 95 f9 bc 9b b0 61 3d 76 9e 98 bc
       -0.05047945 -0.030466953 0.055100065 -0.018630248
000080 37 12 5e 3d cd cd 29 bc 57 7a da bb 0c ee ff 3c
       0.05421659 -0.010364008 -0.006667416 0.03124144
000090 f0 51 ec 37 c3 b7 aa 3b 28 0f 43 3d 5b ea d4 3c
       2.8171547e-05 0.0052098944 0.047621876 0.025990656
0000a0 3a 7c 20 3b 03 80 0f 3d d0 28 72 3d a8 43 90 3c
       0.0024488107 0.03503419 0.059120953 0.017610386
0000b0 e7 c8 8e bc 48 85 9a 3c e1 4b 77 bb 66 a0 58 bd
       -0.017429782 0.018862382 -0.0037734436 -0.052887343
0000c0 8c cb c2 bc 14 b5 fd 3c 30 11 af 3a 14 13 b7 3c
       -0.0237787 0.030970134 0.0013356563 0.022347964
0000d0 45 d0 17 bd f3 52 69 3d 65 50 bb bc f4 f4 15 3c
       -0.037063856 0.056963872 -0.022865484 0.00915264
0000e0 d8 c1 12 bd 11 66 fb bc 5e 6a f0 3c 6d 47 75 bc
       -0.035829395 -0.030688317 0.029347595 -0.0149706425
0000f0 f6 05 3f bd 1b e9 02 bd 69 59 38 3d a4 8e 28 3d
       -0.046636544 -0.031960588 0.045007143 0.041151658
000100 c3 ae 18 3d 8c 85 6a bd ab 09 c8 3c 20 a0 7c 3c
       0.03727604 -0.057256266 0.024418673 0.015419036
000110 bb 67 2d bd 66 12 20 bb 86 00 f3 3b 1a 22 25 bd
       -0.042335253 -0.0024425029 0.007415834 -0.040315725
000120 5f 5e cc bc 25 b8 53 3d 59 aa fe bb 1a 64 04 bb
       -0.024947343 0.051689286 -0.007771772 -0.0020201267
000130 00 fe 29 bd 37 8c 15 bd d1 d1 8a 3d 3e 82 f1 3c
       -0.041502 -0.036510672 0.067783006 0.02948105
000140 70 a9 10 bc 31 15 3d 3d f3 33 a0 bc 39 6a 47 bd
       -0.00882946 0.046162788 -0.019556021 -0.048685286
000150 c3 98 85 bd c9 19 c4 3c ef 38 82 bc ee 9b 47 3d
       -0.065232776 0.023938077 -0.015896289 0.04873269
000160 95 d1 67 3d c5 9f bb 3c f0 3c 48 3d de fa d4 bb
       0.056596357 0.022903332 0.04888624 -0.0064996323
000170 03 da 81 3d 42 cc f8 bc 0d 97 a7 bb df 0d fd 3c
       0.063404106 -0.030370835 -0.005114442 0.030890403
000180 60 e1 06 bd 34 c2 32 3d 79 c2 f7 3b eb ac 19 bb
       -0.032929778 0.043642238 0.0075610247 -0.0023449014
000190 20 7f 5b 3d 31 af 43 3d b1 c6 ba bc f2 6d 16 3c
       0.053588033 0.047774497 -0.022799822 0.009181486
0001a0 fb f2 b5 3b 0a 9c 6d 3d 2f 83 2e 3d 4d a6 65 3d
       0.005552647 0.05801014 0.042605575 0.0560668
0001b0 f4 12 22 3d a4 10 5f bd ac d1 38 3d 68 f8 11 bc
       0.039568856 -0.05445923 0.045121834 -0.008909322
0001c0 bf d9 63 3d 8a 5b 2e 3d 83 53 05 bd f0 99 c3 bb
       0.05562758 0.042567767 -0.032550346 -0.0059692785
0001d0 b0 33 60 3c bc 66 a9 3c 68 5e 6a bd 41 48 c6 3b
       0.013684198 0.02067887 -0.05721894 0.006051094
0001e0 de f1 e0 3c 09 60 07 3d 93 bd d6 3c aa ad 04 3c
       0.027459081 0.03305057 0.026213443 0.008098045
0001f0 e6 8c 76 bd 0c ff 1a 3d c6 f0 5a bd ab e5 26 bd
       -0.060192965 0.037840888 -0.053452276 -0.040746372
000200 59 82 a0 39 f0 6b 9a 3c 57 81 0c 3d 46 6b 26 bc
       0.00030614695 0.018850297 0.034303036 -0.010157412
000210 5e 29 0c bd 5e 40 ad bb 80 2f a5 3c fe 1b 14 bd
       -0.03421914 -0.005287214 0.020164251 -0.036159508
000220 14 4a 5e bd bf 04 f9 3c b4 32 2e bd 1b 20 16 bd
       -0.054269865 0.03039777 -0.042528823 -0.036651712
000230 82 a8 59 3d bd 2b 1f bd c1 41 50 bd b3 f6 40 3d
       0.053139217 -0.03886007 -0.050843958 0.04711027
000240 8f df fb bc 41 0c 94 3b 47 03 89 3d d1 60 b7 bc
       -0.03074625 0.0045180623 0.06690078 -0.022385033
000250 36 87 76 3d d2 3d 56 3d 9e 97 3c 3d ad 1e 69 3c
       0.06018754 0.05230505 0.04604303 0.014228505
000260 7c db ea bc 40 11 41 3d 5a 94 2d bd cf 48 05 bd
       -0.028669111 0.04713559 -0.042377807 -0.03254014
000270 67 30 c6 bc bd 8e 18 3d b3 49 71 3c 5b e1 20 3d
       -0.024193002 0.0372455 0.014727044 0.039277416
000280 04 0b 41 3d c6 23 42 3c cf c8 30 3d 18 72 2f bd
       0.047129646 0.011849349 0.043160256 -0.042833418
000290 42 e7 78 bd 7e 07 42 bd 1c 71 2b 3d d3 ae 7d 3d
       -0.06076742 -0.047370426 0.041855916 0.061934303
0002a0 7b 89 3a bc 9e 84 29 3d 7f a7 32 bd 84 a8 47 3b
       -0.011385317 0.04138624 -0.043616768 0.0030465433
0002b0 94 bf 37 3a 62 36 87 bc 04 6b ea bc 2e 03 f9 3c
       0.00070094434 -0.016505424 -0.028615482 0.030397024
0002c0 2b af 83 bb c8 ac 58 bc 78 42 34 3d c2 8a 44 bd
       -0.0040186844 -0.013224788 0.044008702 -0.047983892
0002d0 00 6c 27 3d f2 85 68 3d 49 29 2b bd 7e ad 78 bd
       0.04087448 0.056768365 -0.04178742 -0.06071233
0002e0 c3 08 01 3c 98 ff 4f bd da 0e d7 3c 21 36 51 bd
       0.007875624 -0.050780863 0.026252199 -0.051077012
0002f0 75 40 4f bd 2b 06 8c 3c 67 6a a3 bc ca 77 67 bd
       -0.05059858 0.017092785 -0.019948198 -0.056510724
000300 3c 26 b7 3c b5 25 ac 3c b3 18 07 3c 4a 97 18 3d
       0.022357099 0.021014074 0.008245635 0.037253655
000310 0e 8e cf bc 75 ae 5e 3d b3 f6 48 bd 67 da 69 3d
       -0.025336292 0.054365594 -0.049063396 0.05709305
000320 fe d7 3f 3d 5b f3 65 bd 5c 80 a4 bb 95 46 0b bd
       0.046836846 -0.056140285 -0.0050201844 -0.03400286
000330 01 dd 72 3d bb 9b 09 bb a8 09 17 3d 26 f0 54 3d
       0.059292797 -0.0020997364 0.036874443 0.051986836
000340 93 2e 55 bd b0 3e 16 3d db 20 62 bd 5e 4f 87 bc
       -0.05204637 0.036680877 -0.055207115 -0.016517337
000350 a6 94 ec bc 38 1e 7d bd 89 16 7a bd 9b 8f 7c bd
       -0.028879475 -0.061796397 -0.061056647 -0.06166039
000360 a9 7a 4c bd 43 97 20 bd 9e 79 b6 bc a2 4b 0c 3d
       -0.049921665 -0.039206754 -0.022274788 0.034251817
000370 4a 15 0c bc c2 94 7e bd 62 71 40 bd a5 4b 3b 3d
       -0.008549998 -0.062153585 -0.04698313 0.045726437
000380 a7 b5 7d bd 02 97 e3 bc 61 2d 5a bd f6 08 2f 3d
       -0.061940815 -0.027781967 -0.053265933 0.042733155
000390 34 4e 4a 3d 19 5e 8b 3a 63 0a f9 bc fc 4b 6c bc
       0.049390987 0.0010632902 -0.03040046 -0.014422413
0003a0 c6 c9 b9 3b 55 dd c9 3c 5d 40 71 bb b9 5b f3 bc
       0.005669805 0.024641672 -0.0036812045 -0.029706823
0003b0 14 de ea b9 69 c8 61 bb ef 12 38 bb f9 73 df 3c
       -0.0004479742 -0.003445173 -0.0028087457 0.02727698
0003c0 a3 85 be bc 95 b0 d6 b9 29 79 15 bc 23 c3 cb 3c
       -0.023257082 -0.00040948825 -0.009123125 0.024873322
0003d0 36 34 22 bd fe 12 4e bd d0 02 6b bd 92 5d 90 3c
       -0.039600573 -0.05031108 -0.05737573 0.017622743
0003e0 17 eb 47 3d 89 2f 7a 3d 9c dc d7 3c 3e 8d 34 bc
       0.048808184 0.06108049 0.026350312 -0.011020003
0003f0 fc 60 50 3c a4 5a 7b bd 00 e7 19 3c 36 39 87 bc
       0.012718435 -0.06136574 0.009393454 -0.016506772

conv2.bias f4 [20]
000000 eb ae d9 bc d2 ff 33 bd e6 dc f2 3c 5a 00 0b bc
       -0.026572665 -0.04394514 0.029646348 -0.008483971
000010 e3 0c 0e 3d 9a 89 da 3b b3 3b de bb 9c cb 62 3d
       0.03468026 0.0066692354 -0.006782019 0.05536996
000020 ac f0 09 3d f8 b7 72 3d 3b 03 30 bd 59 10 05 3d
       0.03367679 0.059257478 -0.04297183 0.032486293
000030 5e 1c 1c bd 8c a0 38 bd ff 11 40 3d 2d 78 03 3d
       -0.03811299 -0.045074984 0.046892162 0.03209703
000040 fa 15 21 bd 97 70 26 bd 8b 74 0c bd 8f b7 3f 3d
       -0.0393276 -0.040634718 -0.03429083 0.046805914

fc1.weight f4 [50, 320]
000000 c0 b3 ae 3c a3 46 55 3b d9 1b 24 bd d2 1c 9e 3c
       0.021325946 0.0032543323 -0.04006562 0.019300852
000010 31 7e 0a bc 60 d7 07 3d cd 96 15 3c c9 02 d3 3c
       -0.008452938 0.033164382 0.009130192 0.025758164
000020 91 36 6e bc 8c a1 32 3b 10 a3 fe bc 21 2a 48 3c
       -0.014539377 0.0027256934 -0.031083614 0.012217076
000030 f8 11 75 bb 0d e7 2f bd 17 04 0a 3d e2 62 af 3c
       -0.0037394743 -0.042944957 0.033695307 0.021409456
000040 55 3d 12 3d 08 ae 91 3c 27 3c 02 3c f6 98 2e 3d
       0.035703022 0.01778318 0.007948912 0.042626344
000050 2a 86 3d bd d8 1a 3f 3c 9b f9 5c 3d f7 4e ce bb
       -0.046270527 0.011664115 0.05394898 -0.0062960344
000060 9a 82 22 3d 6a 22 a3 3c 30 75 55 3d 00 48 4a 3d
       0.039675333 0.01991387 0.05211371 0.04938507
000070 40 ec b1 3c 62 67 45 3b 44 3b 41 bd 9d 56 a8 bc
       0.021719098 0.0030121435 -0.04717566 -0.020549113
000080 25 ba 48 bd d2 1b 06 bc 54 2b 05 3d d0 59 e5 3c
       -0.049005646 -0.008185344 0.032512024 0.027996927
000090 eb 2b 8a 3b c9 4e 52 bd 71 1f e8 3c dc 61 97 3c
       0.004216661 -0.051344667 0.028335305 0.01847928
0000a0 38 9c ea bc e5 84 45 bd 47 75 0f bd 95 00 90 3c
       -0.028638944 -0.04822244 -0.035023954 0.017578403
0000b0 14 69 f8 bc bf 99 1e bd dc 78 3b bd 59 32 02 bd
       -0.030323543 -0.038720842 -0.045769557 -0.031786297
0000c0 98 39 1e bc b9 6d 2a 3d d8 28 19 bd 27 14 4a bd
       -0.009657286 0.041608546 -0.037392467 -0.049335625
0000d0 91 8c 4c 3d d0 e6 e9 3c 19 fe 49 3c e9 d6 10 bd
       0.049938742 0.028552443 0.012328648 -0.035361204
0000e0 ab 53 1d 3d b7 d0 86 3c a4 9d f1 3b dc d6 31 3d
       0.03840987 0.016456945 0.0073735286 0.043417796
0000f0 5f 91 8c 3c 1c e1 0b 3d 47 71 7e bc 69 00 10 3d
       0.017159162 0.034150228 -0.015529937 0.03515664
000100 fe 20 c8 bc 90 b6 17 3c e9 de 10 bd 5b 72 40 bd
       -0.024429794 0.009259835 -0.035368834 -0.046984058
000110 d3 c2 25 bd 3b ab 2f bd 59 ff e5 3c 86 48 6c 3d
       -0.040469002 -0.042887907 0.02807586 0.05768635
000120 09 4c 2b 3d 57 79 83 bb 10 4f 53 bb 56 06 34 3c
       0.04182056 -0.0040122676 -0.003224317 0.010987839
000130 cb 62 6c 3d 18 d5 dd 3c ef 5f 06 bd c0 f7 eb bc
       0.057711404 0.02707915 -0.032806333 -0.02880466
000140 ee fa 39 3d fa f4 f8 3c 23 99 61 bd 54 f3 3c bd
       0.04540532 0.030390251 -0.055077683 -0.046130493
000150 cf 3b ea 3c ef 56 dc bc 79 b3 29 3d 8f a9 12 3d
       0.028592972 -0.026896922 0.041430924 0.035806235
000160 6e 54 33 bd b7 8d 85 3c 02 e4 14 bc 36 c3 5f bd
       -0.04378169 0.016302926 -0.009087564 -0.054629527
000170 2f d6 8d 3c a2 8b 19 3c 8b 27 33 3c 5f 60 37 bd
       0.017314045 0.00937167 0.010934721 -0.04476964
000180 73 b3 4e bc 24 a1 15 bc 5d 2c 47 bd 12 20 2f 3d
       -0.012616026 -0.009132657 -0.048626292 0.042755194
000190 e1 84 98 bc 71 cd cd 3c 7e 7a 70 bc 80 36 37 bd
       -0.01861805 0.025122376 -0.014677642 -0.04472971
0001a0 a1 3e a6 bc b8 98 1c 3c e1 cd 3b 3d f9 7a 01 3c
       -0.020293536 0.009557895 0.04585064 0.007902854
0001b0 d5 1e 0f 3d 23 90 d1 3c 3a 8e 1c bd ec 35 6c 3a
       0.034941513 0.025581425 -0.038221575 0.00090107205
0001c0 8e 6b 66 3d 93 33 86 bc e2 cf be 3c 4a 77 65 3d
       0.056254916 -0.016382014 0.023292486 0.056021966
0001d0 d6 fa d3 3b b0 23 ca bc ba bc 07 bd a5 f6 db 3b
       0.006469111 -0.02467522 -0.033138968 0.006712752
0001e0 57 28 e9 bc a3 82 52 3d 86 97 30 bd fe ca 64 3d
       -0.028461618 0.051394116 -0.043113254 0.05585765
0001f0 fb bc 1e 3d 3b ca 56 bd 9f 7d ff bc 59 85 60 3d
       0.038754445 -0.052438956 -0.03118783 0.05481467
000200 f2 6d c0 bb 30 59 14 bd 77 f6 32 3b 33 21 21 bc
       -0.0058724815 -0.03621787 0.002730755 -0.0098345755
000210 b5 12 23 3c b6 5e f4 3c 76 f4 40 bd fa d5 c9 bc
       0.009953191 0.029830318 -0.047108136 -0.024638165
000220 91 ef 7f 3b a3 f9 6b 3d 57 58 36 bd 5d fe d4 bc
       0.0039052705 0.05761112 -0.04451784 -0.026000196
000230 37 7e 12 3d 1c 16 6a 3d 65 31 ec 3b ce 37 df 3b
       0.0357649 0.05714999 0.0072080367 0.0068120724
000240 de c1 cc 3c 48 0c 46 bc 10 64 fe 3c 1f 71 69 3d
       0.024994787 -0.012087889 0.031053573 0.056992646
000250 8d 21 27 3d c0 10 5d bd c9 88 27 3d ff 7f 62 3d
       0.04080348 -0.053971052 0.040901933 0.055297848
000260 34 0d c5 3c 87 78 9c bc 42 27 29 bc fe f3 13 bd
       0.024054147 -0.01910044 -0.010324301 -0.03612136
000270 93 7d 06 bc d4 c6 14 3d 2b b0 7d bc 6d 3f 15 bc
       -0.00820865 0.03632243 -0.015483896 -0.00910936
000280 17 09 1c bc 7e f0 01 3b db 9d 48 3b 7a d6 1f bc
       -0.009523652 0.0019827182 0.0030611667 -0.009755725
000290 fc 26 5b bd 8f d8 5d bc cd ea 0f bd 8e e9 a9 bc
       -0.053503975 -0.013540401 -0.035136033 -0.02074125
0002a0 99 b9 c7 bc cc 42 07 bd ee 35 4a bd ea e5 8f bc
       -0.024380492 -0.033022687 -0.049367838 -0.017565686
0002b0 94 75 36 3c 90 01 72 3d 06 98 f4 3a b4 87 f4 3b
       0.011136431 0.05908352 0.0018661029 0.007462466
0002c0 97 5e e6 3c e2 0d 53 3c f2 a7 37 bd bc 4c 63 bd
       0.028121276 0.012881728 -0.0448379 -0.0554931
0002d0 50 24 0d bd 18 91 39 bc 3b 14 23 bd aa 5d 27 3d
       -0.03445846 -0.011326097 -0.039814215 0.04086081
0002e0 e2 7a 88 bc ab 4a c8 bc 66 89 28 bd 98 a2 c3 bc
       -0.016660158 -0.024449667 -0.04114666 -0.023881242
0002f0 92 02 2c bd a0 84 43 3d 66 b5 69 3c 95 b1 43 bd
       -0.04199464 0.047733903 0.01426444 -0.047776777
000300 02 0f 67 3d ae 90 26 bc ce b8 73 3c 91 51 07 bc
       0.056410797 -0.01016633 0.014875604 -0.008259193
000310 0c 1b f3 bb 42 13 ee 3c 04 10 40 3d 0b 9b d6 3c
       -0.0074189957 0.029061917 0.046890274 0.026196977
000320 b7 53 6c 3d 11 38 4a 3d 5d 36 2a bb 3b 84 9b 39
       0.057697024 0.049369875 -0.0025972344 0.00029662423
000330 4e 36 4a bb 10 32 87 bc d0 a5 a7 bc fa 08 36 bd
       -0.0030855122 -0.016503364 -0.020464808 -0.044442154
000340 3d 08 5c bd 04 21 bc bc b4 10 b7 bc 82 3e 5e bd
       -0.053718794 -0.022964962 -0.022346832 -0.05425883
000350 72 b8 4b bc 49 aa 06 3d 8d 59 33 bc 99 e3 c0 bc
       -0.012434112 0.03287724 -0.010946644 -0.023546027
000360 f6 c8 94 3a 41 50 0c 3d 99 27 cb bc d5 b8 ad bc
       0.0011351395 0.034256224 -0.024799155 -0.021206299
000370 69 33 07 bb c2 19 6d bb 29 48 57 3d 6e 2a 44 bd
       -0.0020630008 -0.0036178683 0.05255905 -0.047892027
000380 10 e5 1d 3b 7c 14 a9 3c cd fb 88 3b e6 0c 0d 3d
       0.002409283 0.02063965 0.0041804076 0.03443613
000390 92 48 d4 3c 92 33 64 3d f4 67 52 3d ac 9a 1e bd
       0.02591351 0.055713244 0.05136867 -0.038721725
0003a0 3c fa 9f 3c e6 00 64 3d 18 21 27 bd e7 67 57 bc
       0.0195285 0.05566492 -0.040803045 -0.013147331
0003b0 e5 ba 15 3c fa 22 48 3d ff 5d e9 3c 36 9f b6 3c
       0.009138797 0.04886148 0.028487204 0.022292715
0003c0 ed af 3d bd e8 29 64 3c 60 f4 46 3c a8 b4 96 3a
       -0.046310354 0.013926007 0.0121432245 0.0011497932
0003d0 5e 60 0b 3d 16 39 32 3d 03 e9 40 3d 78 a8 39 bd
       0.03402745 0.043511473 0.047097217 -0.04532668
0003e0 ee 67 30 bd 37 98 8c 3b 85 ec 33 bd 7c ac 09 3c
       -0.043067865 0.0042906064 -0.043926734 0.00840294
0003f0 19 97 d8 bb b9 fe 5e 3d 65 ee aa 3c 17 8b d5 b9
       -0.006609809 0.05444214 0.020865628 -0.00040730156

fc1.bias f4 [50]
000000 2b 71 09 3d 97 db 55 bd dd 8b 45 3c 11 aa 9e 3c
       0.03355519 -0.05221137 0.012057272 0.019368203
000010 9f 18 d2 bc 4c d5 2b bd 8b 61 84 bc fe ab bb 3c
       -0.025646506 -0.041951463 -0.016159793 0.02290916
000020 ca 31 ca 3b 34 b8 f4 bc 32 37 0c bc 82 9a e2 bc
       0.006170486 -0.029872991 -0.008558081 -0.027661566
000030 b6 6e c1 3c 3e bd 27 3c 4a b5 2a 3d 91 eb 74 3c
       0.023612361 0.01023799 0.041676797 0.0149487415
000040 60 c4 bc 3c c3 65 56 bc a5 06 43 bd d0 18 b8 3b
       0.023042858 -0.013085785 -0.04761376 0.0056181923
000050 17 ba 37 3d d2 59 12 3d d1 3c 9b 3c e7 e7 f2 bc
       0.044855203 0.03573019 0.018949898 -0.029651595
000060 01 49 42 bd 46 8b f0 ba 35 e8 0c bd 6f 79 0f 3d
       -0.047432903 -0.0018352054 -0.034401137 0.035027917
000070 32 03 5d bd d9 26 e2 bc e7 8c 54 bd 1d 16 91 bc
       -0.053958125 -0.027606415 -0.051892187 -0.01771074
000080 94 63 c2 3b 74 60 2b bd 5a 08 e0 bc 10 a2 82 bc
       0.005932281 -0.04184003 -0.027347732 -0.015946418
000090 51 02 3b 3d d7 f1 35 bc 22 1d e1 3c 62 c8 05 3d
       0.045656506 -0.011105022 0.027479712 0.032661803
0000a0 d7 56 a8 bc a7 fb 0f bc 12 d2 1a bd d7 e2 bc bc
       -0.020549221 -0.008788026 -0.037797995 -0.023057384
0000b0 49 ee 1a bc 34 20 1d 3d 66 4e 94 bb 82 1c b1 3c
       -0.009456226 0.03836079 -0.0045259474 0.021620039
0000c0 5b d1 50 3b c4 55 0f 3b
       0.0031863067 0.0021871189

fc2.weight f4 [10, 50]
000000 82 68 04 3e c5 9c c0 bd 28 df 8d 3d 39 cf d3 bd
       0.12930492 -0.094049014 0.06927329 -0.10342259
000010 7f 12 d1 bd 70 fd 66 3b 53 44 06 3e 21 1c a4 bd
       -0.10208606 0.0035246275 0.13112001 -0.08013178
000020 0b 32 7d bc 24 db d7 3c e6 66 a2 bd e2 01 9d 3d
       -0.015453826 0.026349612 -0.079297826 0.07666375
000030 92 c8 42 3d 90 db 98 bb 61 d2 a8 bc a0 8b 04 bc
       0.04755456 -0.0046648458 -0.020608129 -0.00808993
000040 88 0e 0d be fe 7a 13 be 67 01 c6 3d c8 bc f9 bb
       -0.13775074 -0.14402387 0.09668236 -0.0076213814
000050 10 f5 bf 3d 73 51 35 3d 97 f2 0d bd 9c c5 d4 3d
       0.09372914 0.04426713 -0.03465518 0.103892535
000060 0e 97 5a bc 57 43 c2 3d b4 c8 a8 bd 30 30 2e 3d
       -0.013341678 0.094855 -0.08241406 0.042526424
000070 68 b4 6b bc 03 d6 f3 3d 7a 8b 96 bd 25 2a 02 3e
       -0.014386274 0.11906054 -0.07350822 0.1271139
000080 c6 22 bd 3d 5f 55 a3 3c d2 cc d5 3d 65 d1 20 3d
       0.09235148 0.019938169 0.10439457 0.039262194
000090 bc 83 fa 3d 6b bd c9 3d 4a 0b fe 3d 7a fe d4 3d
       0.122321576 0.09850582 0.12404497 0.104001
0000a0 35 b5 b0 3c 75 9b ee 3d 38 c9 32 bd 1c d4 9c 3d
       0.021570781 0.11650745 -0.04364893 0.07657644
0000b0 fc 44 8b bc f5 50 e3 3c 18 d8 61 3d 6d 3a 42 bd
       -0.017000668 0.027748564 0.055137724 -0.047419
0000c0 11 d0 86 3d e9 f9 cd 3d 53 89 69 bd 69 1a 40 bc
       0.06582654 0.10057432 -0.05701573 -0.011725047
0000d0 bb 69 82 bd 46 ae 0f 3e b5 3c db 3d 06 fb 3c 3d
       -0.06367823 0.14031324 0.10704938 0.046137832
0000e0 92 4a c8 3d ab 15 e9 3d 9d 4e 03 be 11 2d f5 bd
       0.09779848 0.11381086 -0.12822957 -0.11971486
0000f0 c5 07 7b 3b ca 4b 52 3d df 3e 9b 3d 9b 7f 90 3d
       0.0038304192 0.05134181 0.07580351 0.07055589
000100 d9 ae ee bd 8c fb 1f 3e af 2d 6c bd 5b dd 2f 3e
       -0.11654443 0.15623301 -0.057660755 0.17174284
000110 fc 22 d6 3d f8 1d ca 3d 22 67 5c 3d e3 2f 03 be
       0.104558915 0.09868997 0.053809293 -0.12811236
000120 80 db db bd 3b 66 d2 3d 1e 35 77 3c 05 6c 44 bd
       -0.10735226 0.10273405 0.015088348 -0.047954578
000130 fa c2 de bc c3 8e 80 bd 8c ee 80 3d 63 0f 68 3d
       -0.027192581 -0.0627723 0.06295499 0.0566553
000140 35 30 56 3d 17 b1 c5 3d 13 3a ce 3d 76 1d 92 3d
       0.052292068 0.09652918 0.100696705 0.071345255
000150 3e 02 88 bb 35 20 cc bd d2 2a 01 bd 84 65 88 3d
       -0.004150658 -0.099670805 -0.031534977 0.066599876
000160 e2 b9 c7 bd c1 c4 fd bc a5 c1 d8 bd 95 8e d4 3d
       -0.09752251 -0.030977609 -0.1058381 0.10378758
000170 40 f2 c8 bd eb a8 dd 3d c5 55 f3 3d 3d 2b cc bd
       -0.098118305 0.10823234 0.118815936 -0.099691845
000180 b7 18 01 3e 28 3a 06 be f2 7b ce 3d 34 00 d5 bd
       0.12607084 -0.13108122 0.100822344 -0.10400429
000190 ff 1a 37 3d 1e 12 60 bc 6e d8 aa bd ff 45 0b 3e
       0.04470348 -0.0136761945 -0.08342062 0.1360092
0001a0 71 d7 06 bd 15 fb d5 bd aa d4 0b 3e 35 24 94 bd
       -0.032920305 -0.10448281 0.13655344 -0.072334684
0001b0 84 53 ed bd 09 db ab 3d 20 af fc bc 11 49 b9 3d
       -0.11588195 0.08391387 -0.030845225 0.090471394
0001c0 0b 17 19 bd c0 65 33 bd 9e d4 ef bd ea 69 31 bc
       -0.03737549 -0.04379821 -0.117104754 -0.010828475
0001d0 aa 2c aa bd 98 8b 4b bd aa c6 06 3e 9c e3 ce 3d
       -0.083093 -0.049693674 0.13161722 0.10102007
0001e0 73 7f d6 bd b2 ed c6 bd 12 48 81 bc 15 82 62 3d
       -0.10473528 -0.097133055 -0.015781436 0.055299837
0001f0 09 94 f5 3d 48 ca 17 3e fb 2c 80 3d b4 e0 09 be
       0.11991126 0.14823258 0.06258579 -0.13464624
000200 d8 dc c0 bb c4 68 a2 3d ac 75 97 3d 3b 7f eb 3d
       -0.0058857016 0.07930139 0.07395491 0.11498877
000210 24 06 fc 3d 5e 11 4b 3b c9 48 0f be e5 1e 35 bd
       0.12305859 0.0030985693 -0.13992609 -0.044218916
000220 40 57 f6 bc f7 0b 91 3d ed d2 d1 3d 79 19 a5 bb
       -0.0300709 0.0708236 0.10245309 -0.005038437
000230 73 ee 1b bd 94 ac 55 3d f8 3d 99 3d 24 b4 05 3e
       -0.0380692 0.052166536 0.07482523 0.13057
000240 c6 e5 85 bd 44 21 95 3d ea 93 97 bd 6d a5 bd bd
       -0.065379664 0.072817355 -0.07401259 -0.09260068
000250 bc bd 01 bd f5 db f5 bd 6f f5 7f bd fd 76 93 bd
       -0.031675085 -0.12004844 -0.062489923 -0.072004296
000260 b4 07 e0 bd a4 5f 9d bd 73 d1 07 bd 4f 4e 10 bd
       -0.10938969 -0.076842576 -0.03315873 -0.03523093
000270 d0 9b c4 bd 96 16 0e be e0 3a b6 3d e6 87 56 3d
       -0.096000314 -0.13875803 0.08897948 0.052375697
000280 74 8c a1 3d 8f c6 23 3d a1 dd dd 3d 6b ca d4 bd
       0.078881174 0.039984282 0.10833288 -0.10390171
000290 c2 2d 82 bd e9 07 fe 3d b1 9c c1 3d 75 fc 8a 3d
       -0.06356384 0.124038525 0.09453715 0.067864336
0002a0 b1 b3 82 3c a8 80 1e bc 36 6c f5 bd 2a a5 2d 3e
       0.015954824 -0.009674229 -0.1198353 0.16957536
0002b0 77 fe cc bd ab d6 44 bc 7d 4b 45 bd 6c dd bc bd
       -0.10009473 -0.012014071 -0.048167694 -0.0922192
0002c0 de 43 54 bd 20 8a 13 3e b3 d9 81 3d 72 dd 0d 3e
       -0.051822536 0.1440816 0.06340351 0.13854006
0002d0 67 cd a2 ba 7a e7 7f bd 44 71 db bd 94 20 96 3d
       -0.0012420834 -0.062476613 -0.10714963 0.073304325
0002e0 e6 57 28 bc 7a 93 c3 bc b8 60 68 3d 8e 78 55 3d
       -0.010274863 -0.023874033 0.056732863 0.052116923
0002f0 0b be f5 bd 0a ad fc 3c 50 ac 12 b8 aa 03 c2 3b
       -0.119991384 0.03084423 -3.496959e-05 0.005920847
000300 76 08 bf bd 53 be 02 3d 5d dc 86 3d d0 4c 11 3d
       -0.09327786 0.03191979 0.06585 0.035473645
000310 3c ef c2 bc fe 53 76 bd 02 93 0a 3d e9 dd e4 3c
       -0.023795716 -0.060138695 0.033831604 0.027937846
000320 d3 5d e0 3d a1 40 0a 3e 66 2c eb bd 33 4f 69 3b
       0.109553955 0.13501216 -0.11483078 0.0035600185
000330 1a 81 ce 3d a1 2c f1 bd 23 cc 9b 3d 2b 95 17 3e
       0.10083218 -0.117760904 0.07607295 0.14802997
000340 64 97 8b 3d 0d 8a 0b 3e 74 fb 9a 3c 06 21 d1 bd
       0.06815985 0.13626881 0.01891873 -0.10211377
000350 c5 d3 51 3d d6 40 8b 3a 6f e5 c6 3c 79 07 a7 3d
       0.05122735 0.0010624181 0.024279324 0.08155722
000360 b1 9c 1d 3d 34 9d 05 be ca a1 f6 ba 30 98 fa bd
       0.03847951 -0.1304825 -0.0018816527 -0.12236059
000370 66 ed e3 3d 9c ef 3c 3d 52 6d 0d 3e 61 54 f5 3d
       0.111292645 0.046126947 0.13811234 0.119789846
000380 85 de 72 bd c9 d3 c8 3d 4c f2 e7 3d 86 7b 0b 3e
       -0.059294242 0.0980602 0.11325511 0.13621339
000390 c2 75 5d 3c 60 e2 13 bd 9c 33 da bd 1c 45 08 3d
       0.013516845 -0.03610456 -0.10654375 0.033269033
0003a0 d5 b8 43 3c f7 16 d5 bd c4 32 5b 3d 09 c4 19 bd
       0.011945923 -0.10404771 0.05351521 -0.03754047
0003b0 66 ca da 3d 33 1f 93 3c 58 3f 92 3d 5c 63 6b 3d
       0.10683136 0.017959213 0.07140988 0.057467803
0003c0 63 a8 af 3a 8d b2 de bd 3e fc 0f be e1 25 d0 bd
       0.0013401624 -0.108738996 -0.14061067 -0.10163475
0003d0 f6 01 f3 bd 5e db ea 3c c0 7b d1 bd 22 9b 96 3d
       -0.118656084 0.028669056 -0.102286816 0.07353808
0003e0 2a 25 d8 3d 34 84 bf bd 51 b6 63 bd 4b 09 97 3c
       0.105539635 -0.093513876 -0.055593792 0.018437048
0003f0 48 5e ea 3d 6f 72 e9 3d 29 2e c1 3d 35 3a 00 bd
       0.11443764 0.113987796 0.094326325 -0.03130551

fc2.bias f4 [10]
000000 8f f9 0a be 2e ee 17 3d da 51 21 3e 40 09 4f bc
       -0.13571762 0.03709238 0.1575388 -0.012636483
000010 c8 3c f1 bd 5e e6 09 3c 9f 9b 28 3d 21 84 94 bc
       -0.11779171 0.00841674 0.041164037 -0.01812941
000020 bd 90 fb bc 7c 2a 11 be
       -0.030708665 -0.14176363

momentum_buffer f4 [10, 1, 5, 5]
000000 28 b9 7b bc c0 a7 c1 b9 4f 0a 1c 3c 94 af a3 3c
       -0.015363969 -0.00036936812 0.009523942 0.019981183
000010 4e c4 c5 3c 5f aa ca bc 26 b0 f0 bb 08 53 f7 39
       0.024141457 -0.024739442 -0.0073452173 0.00047173374
000020 7c 51 38 3c a0 cf 90 3c f3 68 eb bc ea 5a 4a bc
       0.011249896 0.017677128 -0.028736567 -0.012350777
000030 6c 00 92 3b 0e 18 61 3c 10 fe cb 3c a0 5c e1 bc
       0.0044556167 0.013738645 0.02490142 -0.027509987
000040 77 7b 41 bc b0 64 bc b9 3c af 81 3c a1 5e 7d 3c
       -0.0118092215 -0.00035933172 0.015830629 0.015464456
000050 65 90 e9 bc 4a 5a 84 bc 5b d1 46 bc b5 0d 1e bc
       -0.028511235 -0.016156334 -0.012134875 -0.009646823
000060 05 47 03 bc 04 a4 91 3c 75 67 3b 3c f2 2e 6e bc
       -0.008012538 0.017778404 0.01143824 -0.01453756
000070 b6 35 1b bd 30 68 36 bd af 8e f1 3c 23 1e af 3b
       -0.03789302 -0.044532955 0.029486982 0.0053441687
000080 a0 12 19 bd 7d c9 8e bd 3d 59 6a bd 7c bb fd 3c
       -0.037371278 -0.069720246 -0.05721401 0.030973189
000090 be 22 b7 3b bc 5d 5a bd e6 f2 b2 bd 6e 08 9f bd
       0.0055888584 -0.05331205 -0.087377355 -0.0776528
0000a0 80 e0 bf 3c 52 2d 86 3b d2 e0 53 bd 97 c0 b7 bd
       0.02342248 0.004094758 -0.051728077 -0.089722805
0000b0 c5 67 9e bd 49 3e 99 3c 3e 23 b0 3a e1 61 19 bd
       -0.07734636 0.018706458 0.0013438237 -0.03744686
0000c0 3f ce ab bd bc 4b 8b bd 5e 92 2f bc 98 aa 99 bc
       -0.08388948 -0.068015546 -0.010716049 -0.018758103
0000d0 c6 81 24 bc 5c 13 08 3c c4 ae 8a 3c 9e 4f c7 bc
       -0.010040706 0.008305397 0.016929038 -0.024329957
0000e0 18 02 b6 bc 68 3f db bb 2b ec f2 3b 78 1c 3a 3c
       -0.022217795 -0.006690908 0.0074134073 0.011359327
0000f0 09 8d 07 bd 4d c9 e2 bc 7c fc fb ba 8c 40 99 3b
       -0.033093486 -0.027683878 -0.0019225026 0.004676884
000100 44 5d 48 3c 6a 4d 06 bd 6b bf ba bc bc 16 56 3b
       0.0122292675 -0.03278867 -0.022796353 0.003266736
000110 98 d2 0f 3c b3 c2 9f 3c 2d d3 04 bd 06 21 cc bc
       0.008778237 0.01950202 -0.032427955 -0.02491809
000120 86 4d c6 3b c8 ee 7b 3c d2 19 ee 3c b6 aa da 3c
       0.006051722 0.015376754 0.029065046 0.02669273
000130 56 0b 96 bb 8e 1d 25 bd 18 b1 63 bd 84 16 5f bd
       -0.004578988 -0.04031139 -0.05558881 -0.054464832
000140 b5 b8 be 3c 21 80 ab bb 4c d1 18 bd d2 eb 77 bd
       0.023281435 -0.00523378 -0.037308976 -0.06052763
000150 aa 9f 2f bd 04 83 3a 3c c6 67 8c bc b4 18 32 bd
       -0.042876877 0.011383776 -0.017139327 -0.04348059
000160 6e 88 50 bd 3b 5a e2 bc da b6 3e ba c4 89 93 bc
       -0.05091136 -0.027630916 -0.0007275172 -0.018010028
000170 3c 7d e0 bc 22 ae b3 bc 80 e1 ab 38 a4 29 eb 3a
       -0.027403466 -0.021933619 8.195918e-05 0.0017941487
000180 77 76 01 bc f1 a5 65 bc 00 07 f3 bb 39 17 86 bb
       -0.007901779 -0.014016614 -0.007416606 -0.004092124
000190 84 84 a3 3b 70 b5 db ba ab 1a 11 bc ad 9e 4f bc
       0.0049901623 -0.0016762447 -0.008856456 -0.012672109
0001a0 80 e6 cb 38 e2 92 9e 3b 48 5d 2c bb 56 00 5b bc
       9.722728e-05 0.004839287 -0.0026300717 -0.013366779
0001b0 40 e8 b6 bc 60 a8 4e bc 2a ef 94 3b c8 0c 42 bb
       -0.022327542 -0.012613386 0.004545112 -0.002960967
0001c0 15 c4 86 bc a7 32 f6 bc b8 e7 d8 bc 4e 8d 92 bb
       -0.016450921 -0.03005345 -0.02647768 -0.0044724112
0001d0 0b fd 95 bc 82 6b a9 bc e7 af 12 bd d0 ff 4d bd
       -0.018309137 -0.020681147 -0.035812285 -0.05029279
0001e0 90 d3 c7 ba 9a 08 bb bc 8b a2 0b bd d0 ea 2a bd
       -0.0015245546 -0.02283125 -0.03409056 -0.04172784
0001f0 ac 0c 75 bd 2c 1b 1a bc ec 41 34 bc 2d 23 21 bd
       -0.059826538 -0.009405892 -0.011002045 -0.039340187
000200 40 ba 6b bd c9 dd 3a bd 90 08 37 bb 06 5b 54 bc
       -0.05755067 -0.045621667 -0.0027928688 -0.012961155
000210 48 7c ee bc 46 58 0e bd 4c d9 b7 bc b0 8e 46 3b
       -0.029111996 -0.034752153 -0.022442482 0.003029745
000220 1b 0a 94 bc f5 d4 dd bc 9e 0a 12 bd 22 d8 d0 bb
       -0.018071225 -0.027079085 -0.035654657 -0.0063734213
000230 66 14 63 3c 98 bc de bb c6 c3 99 bc 67 67 be bc
       0.013859844 -0.0067973845 -0.01877011 -0.023242665
000240 1d 78 36 bc 3c b3 a2 3c dc 3b 33 3b 08 c1 4f bc
       -0.011137036 0.019860856 0.0027348911 -0.0126803
000250 55 40 88 bc 50 8e f1 bb a4 41 58 3c 4a 23 ea 3b
       -0.016632238 -0.0073717013 0.013199244 0.00714532
000260 b0 08 d2 3a 41 b4 5e bc ec d3 9e bc 76 a9 e0 3b
       0.0016024318 -0.013592781 -0.019388162 0.006856139
000270 c4 86 c8 3b f4 05 af bc 74 e0 d0 bc 8d a9 94 bc
       0.006119581 -0.021365143 -0.025497653 -0.018147254
000280 d3 76 52 3c e4 d3 01 3c c4 1c b3 bc 6a 00 07 bd
       0.012845713 0.007924054 -0.021864302 -0.03295938
000290 7f 87 01 bd 6d 1f b8 3c 66 54 a3 3b d3 1c c6 bc
       -0.03162336 0.022475922 0.0049844263 -0.024183666
0002a0 0f 5c 3e bd 50 b5 2b bd c4 b3 ca 3c 70 d6 1d ba
       -0.046474513 -0.04192096 0.024743922 -0.00060210284
0002b0 44 72 ae bc bf 07 04 bd 12 07 cc bc 0a a9 39 3c
       -0.02129472 -0.03223395 -0.024905715 0.011331806
0002c0 46 e7 d3 3b 0a a6 05 3b 60 08 df b9 4a 9d cd bb
       0.006466779 0.0020393156 -0.00042540114 -0.006274854
0002d0 5f 58 04 3c 27 d6 bd 3b c3 b7 1f bc c4 40 86 bc
       0.00807771 0.005793351 -0.009748402 -0.016388305
0002e0 f6 7c 7f bc 10 61 51 bb 63 c6 7f bb 22 14 d3 bc
       -0.015593758 -0.0031948723 -0.003902816 -0.025766436
0002f0 82 67 f8 bc 12 4c fe bc e1 4f a3 bb 65 73 6c bc
       -0.030322794 -0.031042133 -0.0049838875 -0.014431809
000300 4a ed eb bc 96 f5 07 bd 70 3f e0 bc 4a bc 55 bc
       -0.028799672 -0.033193193 -0.027374 -0.01304538
000310 15 97 f2 bc 39 b4 0a bd ab 3d 2a bd 9d e5 ca bc
       -0.029613057 -0.03386328 -0.041562717 -0.024767691
000320 60 2e db 39 34 18 08 3c 8a 7f b1 3c 6c 37 f5 3c
       0.00041805487 0.008306552 0.02166726 0.029933654
000330 18 54 ac 3c 2c 99 01 bb ee f1 71 3c f5 04 b1 3c
       0.021036193 -0.0019775135 0.014767153 0.021608809
000340 c2 88 fe 3c cf 3e 70 3c d8 15 8a 3a 96 2b 45 3c
       0.03107107 0.014663412 0.0010535074 0.0120343175
000350 67 82 88 3c 65 26 5a 3c 0a 25 ba 3b 58 fb b1 3b
       0.016663743 0.013314818 0.005680685 0.005431574
000360 f4 10 79 3b a6 e8 f8 3b 08 e1 69 3b c8 92 38 bb
       0.003800449 0.007596093 0.0035687108 -0.002816366
000370 84 aa f5 3b b0 6e 15 3c 87 4f 87 3b a0 6d a5 ba
       0.0074971337 0.009120628 0.0041293534 -0.0012621172
000380 4f 23 ab bb bd 54 9d 3c 04 84 d0 3c d7 66 f3 3c
       -0.005222715 0.019205445 0.025453575 0.029712124
000390 c0 b1 28 3c db 53 12 bd 79 f1 e7 3c 98 93 ec 3c
       0.010296285 -0.035724502 0.028313385 0.028878972
0003a0 71 42 e6 3c 12 f8 67 bc 88 3b 81 bd b0 86 e8 3c
       0.028107854 -0.014158266 -0.06310183 0.028384537
0003b0 96 bd 11 3d fe 47 6b 3c f4 da 1f bd 16 0e c7 bd
       0.035581194 0.014360426 -0.03902717 -0.097194836
0003c0 3b 8f 0a 3d 49 05 cc 3c 70 76 2a 3b 9a ff 53 bd
       0.033828 0.024904864 0.0026010536 -0.051757433
0003d0 a6 12 c4 bd 5c c0 a1 3c 0a a5 f5 3b ec 8c 96 bc
       -0.095738694 0.019745044 0.007496481 -0.018377744
0003e0 2c 2e 83 bd fc 1d b3 bd
       -0.06405291 -0.087459534

momentum_buffer f4 [10]
000000 48 54 0a bc 8d 70 3e bc 0f c6 b6 bc 6e 15 01 bc
       -0.008442946 -0.011623514 -0.022311239 -0.007878644
000010 1a a7 74 bc 63 db 91 bc 3f 2b c9 bb 02 d8 17 bb
       -0.014932418 -0.017804807 -0.0061391885 -0.0023169522
000020 5c f1 b5 bc 50 d3 9a bc
       -0.022209816 -0.01889959

momentum_buffer f4 [20, 10, 5, 5]
000000 7e c6 9b bb 22 7e b0 bb fa 8a 3d bb 86 e0 ce 3b
       -0.0047538867 -0.00538613 -0.0028921948 0.0063133864
000010 80 42 76 3c 3b 14 e5 3b 0f 99 60 bc da bf 0c bb
       0.015030503 0.006990937 -0.013708367 -0.0021476657
000020 38 76 5d 3c 7a 46 0c 3c dc d5 68 3c b4 80 e9 3b
       0.013516955 0.008561725 0.014211144 0.0071259383
000030 64 1a 27 3c fe dd 1c 3c d0 59 9f ba 6b cf 48 3c
       0.010199163 0.009574411 -0.0012157504 0.012256484
000040 ac 44 87 3c 2e 2d 94 3c 7e 0e ef 3b 10 eb f1 3b
       0.016512237 0.01808795 0.007295429 0.007382758
000050 22 b7 ab 3b ae c3 ab 3c 05 92 5c 3c 67 45 05 3c
       0.005240337 0.02096733 0.013462548 0.008134223
000060 2c bf 4f 3c 52 47 85 3c d1 f6 ac 3c a0 a2 e8 bb
       0.012679856 0.01626936 0.021113785 -0.0070994645
000070 00 be d5 3b 8d f7 bc 3c 1c b4 d9 ba 9c 5f 92 bb
       0.006522894 0.02306726 -0.0016609463 -0.004466964
000080 5c 64 37 bb 8f 17 13 3c 62 73 2d 3c 22 c6 6d bc
       -0.0027983403 0.008977785 0.010586591 -0.014512571
000090 58 5a db bc 80 b7 30 bc c0 34 ee b8 a2 8e c4 3b
       -0.026776478 -0.010785937 -0.0001135855 0.0059984485
0000a0 79 3f a8 bb 74 7b 9c bc 96 13 30 bc 06 0e 43 bb
       -0.0051345197 -0.019101836 -0.010746857 -0.0029762997
0000b0 92 8c e1 3b 06 b9 4a 3c 1a f5 c9 3a e8 11 a0 bb
       0.0068832124 0.012373215 0.0015408129 -0.004884947
0000c0 9c 4d 66 3b 1c 69 1a 3c 46 93 31 ba 8b dc d4 bb
       0.0035141474 0.009424474 -0.00067739596 -0.0064960173
0000d0 f0 66 2d 3c f4 14 15 3c d2 44 36 bc 5e 25 f4 3b
       0.010583624 0.009099234 -0.0111248065 0.0074507436
0000e0 38 45 b7 3c bc 2a 8f 3c 70 5d 53 bb b0 bc 3a bc
       0.022371873 0.017476432 -0.0032251738 -0.011397526
0000f0 a8 a4 69 3c d6 54 01 3d 68 66 89 3c 0c 77 b2 bb
       0.0142604485 0.031575046 0.016772464 -0.0054463204
000100 b6 cc 0a 3c 8e fd 81 3c 37 25 f2 3c 8f 7a 65 3b
       0.008471658 0.015867975 0.029558761 0.0035015678
000110 dd 3a 8a 3b 3e 7c 4c 3c 28 9b 87 3c e2 a9 55 3c
       0.004218443 0.0124807935 0.016553476 0.0130409915
000120 04 f3 54 bb 3e 03 24 3c 71 0b d8 3b 78 a2 71 bc
       -0.0032493481 0.010010539 0.006593161 -0.014748208
000130 8c b5 f6 3c 6d 03 1b 3c be 8c 71 bc 9a 91 6c 3c
       0.030115865 0.009461266 -0.014743028 0.014439011
000140 00 26 56 39 c0 f9 e1 ba 28 a5 bc bc c0 d9 bf ba
       0.00020422786 -0.0017240569 -0.023027971 -0.0014637038
000150 72 e6 cd 3c f2 08 be 3c 4e 6d 9a bc d1 a6 05 bd
       0.025134299 0.023197625 -0.018850949 -0.03262979
000160 70 4b cc 3b 30 4f 64 3a 40 d1 ce 3c 05 83 27 bc
       0.006234579 0.00087093096 0.025246263 -0.010224109
000170 2c 6b 2d bc 8b 3f 25 3c fe 62 bc 3b 86 dd 9b 3c
       -0.010584634 0.010085951 0.0057491055 0.019026529
000180 60 16 38 3b 22 f4 97 3c 70 5a 31 3c d5 df 9f 3c
       0.0028089508 0.018549029 0.010824785 0.019515911
000190 69 0a b0 3b f6 b1 81 3c 10 ea db b9 c0 d7 ab 3b
       0.0053723347 0.015831929 -0.00041945325 0.0052442253
0001a0 59 38 aa 3c 2f 44 1a bc 01 c0 38 bc 3a 4c f3 bb
       0.020778822 -0.00941567 -0.011276246 -0.0074248584
0001b0 cc 74 63 3b c2 34 e3 3b bc b8 61 bb 8d 3d d5 bc
       0.0034707068 0.0069337795 -0.0034442386 -0.026030326
0001c0 30 17 4c bc 40 ff a0 b9 60 0a da b9 6f bd 96 3b
       -0.0124567 -0.00030707754 -0.0004158793 0.004600219
0001d0 aa 8f d5 bb 5e 3d a7 3b 61 0c 56 3b 43 71 f8 3a
       -0.00651737 0.005103751 0.0032661187 0.0018954653
0001e0 ff 26 74 3c b6 12 4d 3c 70 32 73 3c c2 d6 31 3c
       0.0149018755 0.012516668 0.014843568 0.010854425
0001f0 dc 3a 59 3c 52 67 a3 3b ee 76 87 3c bb d2 08 3c
       0.013258662 0.004986682 0.016536202 0.008351023
000200 a0 e6 21 39 0f 8a 12 3c 2a 22 fb 3b 08 18 a5 3c
       0.00015440071 0.008944049 0.007663985 0.02015306
000210 a3 ee 43 3c 7d af a6 3a eb 12 4b 3c 4f af 3a 3b
       0.011958751 0.0012717095 0.012394647 0.002848584
000220 b0 56 ac 3b bc 3b 39 3b 3c 97 2d 3c ec 58 3a 3c
       0.0052593574 0.0028264364 0.010595139 0.01137374
000230 25 26 1a 3b 55 9f b6 bb 7c 70 e7 ba 4d 70 50 3b
       0.002352127 -0.005573193 -0.0017657424 0.0031805218
000240 60 a5 88 3b 63 66 83 3b 7e e9 c5 bb 28 53 9a ba
       0.004170105 0.004010008 -0.0060397973 -0.001177405
000250 ed 7b ba 3a 72 d0 00 ba c4 26 e6 3b 7c d6 a1 3c
       0.0014227607 -0.0004913873 0.007023664 0.019755594
000260 0a 24 1f 3c 6c 1d c5 3b a0 41 c4 3c 48 b9 96 bb
       0.009713182 0.0060154703 0.023957074 -0.004599724
000270 dc f7 35 bc a9 3c 54 bc 62 8a 1c 3c b4 5b bd 3c
       -0.011106458 -0.012953916 0.009554477 0.023115017
000280 ec 26 bb ba 6d 91 a6 bc 71 4c d3 bc bf 3a 83 bb
       -0.0014278567 -0.020333016 -0.025793286 -0.004004806
000290 d3 90 4b 3c 70 3c 80 ba ad bf 8d bc 4c b0 8d bb
       0.0124246655 -0.0009783637 -0.017303312 -0.0043239947
0002a0 32 f2 ff bb c4 a1 6a 3b f8 fb 57 3c 38 b3 85 3b
       -0.0078108544 0.0035801986 0.013182633 0.0040802024
0002b0 d3 01 40 3c ce 2f 73 3c 9c 3e 3e 3c 18 e1 d3 bb
       0.011719185 0.0148429405 0.011611607 -0.0064660423
0002c0 5c e9 6d 3c 1e 5f 95 3b f4 3e a5 ba ca a0 1d 3b
       0.014520969 0.004558458 -0.0012607262 0.0024052137
0002d0 4a 6c bb 3b 18 91 0c 3c 66 ea 63 3b 3b 46 81 bb
       0.005719696 0.008579515 0.0034777164 -0.0039451397
0002e0 ce 62 d4 3b cc 52 ab 3c 6c b7 1e 3c 74 ff 63 3b
       0.006481505 0.020913504 0.009687286 0.0034789713
0002f0 46 8d 95 3b 1c 02 c4 3a e6 37 58 3c b8 c9 d8 3b
       0.0045639602 0.0014954242 0.013196921 0.0066158436
000300 5b d0 53 3c 77 d8 02 3c 86 3d 07 3b ce 41 54 3c
       0.012928094 0.00798618 0.0020636036 0.012955142
000310 86 85 df 3a a3 3b 4b 3c ce bd 47 3b 00 3c 21 3b
       0.0017053343 0.012404355 0.0030478123 0.0024602413
000320 7c 75 82 3c ca e6 46 3c bc ea 83 3b 2a 0d 10 3c
       0.015925162 0.012139985 0.0040257853 0.008792201
000330 54 d6 36 3c a1 3e ec 3b 98 42 82 3b 1e 68 35 3c
       0.011159498 0.0072096144 0.0039752237 0.011072187
000340 84 03 89 3c b7 f4 c8 3b af 65 a5 3b 12 e6 bc 3b
       0.01672531 0.006132688 0.005047522 0.005764731
000350 05 32 75 3c 16 ac 34 3c b8 c2 d0 3b 28 96 69 3b
       0.014965539 0.011027357 0.0063708685 0.0035642479
000360 66 22 11 3c b6 b9 4b 3c fd e5 23 3c 70 0f 02 3c
       0.008858299 0.012434414 0.010003564 0.007938251
000370 fc ac 38 3b c3 e9 34 3c 68 ea 13 3c 0a e1 07 3c
       0.0028179279 0.011042061 0.009028055 0.0082934
000380 22 d3 b8 3b be 61 cc 3c 9c 66 e5 3b cc 8b 28 bc
       0.0056404034 0.02494895 0.0070007574 -0.010287236
000390 a8 26 6e 3c 0e 64 ac 3c 91 ce be 3c 6e e5 41 3c
       0.014535584 0.021043804 0.023291858 0.011834485
0003a0 d8 77 c4 bb fc 41 5f 3c 04 d5 36 3c ae 84 9c 3c
       -0.005995732 0.013626572 0.011159185 0.019106235
0003b0 bc 70 6b 3c f0 25 d8 3c df d7 78 3c 9b ea b0 3b
       0.01437014 0.026385278 0.015188186 0.005399061
0003c0 47 bf 3d 3c b1 43 c8 3c 40 83 1d 3d 08 6a 8f 3c
       0.011581249 0.02444634 0.038455248 0.017506614
0003d0 ac 2f f8 3b 12 c1 0c 3c 08 43 c3 3c 85 6e b8 3c
       0.0075740423 0.008590953 0.023835674 0.022513637
0003e0 9c 15 a7 3c d4 ca fe 3b 73 76 06 3c 64 49 79 3c
       0.020396046 0.007775644 0.008206951 0.015215252
0003f0 c2 1c 52 3b 04 96 a6 ba 68 99 4c bb 3e 68 9c 3a
       0.0032060598 -0.0012709503 -0.0031219367 0.0011932922

momentum_buffer f4 [20]
000000 67 db 90 3c 54 28 dd 3a 6a 7d 97 3b a4 af 70 3c
       0.017682744 0.0016872981 0.004623105 0.0146903135
000010 80 2d 30 b9 62 f1 61 bc c0 f1 81 bc fe 28 51 3c
       -0.00016801618 -0.01379046 -0.015862346 0.012766121
000020 54 7c 21 3c 0e 4f e0 ba ec fa a3 bb 7a 05 40 bc
       0.009856302 -0.0017113404 -0.0050042775 -0.011720056
000030 63 99 03 bd f5 90 d5 3c f3 01 ab b8 94 d9 cb bb
       -0.032128703 0.026070097 -8.1542785e-05 -0.0062210057
000040 3a 58 42 3c 1f 0f f9 bb f6 5e 2d 3d b8 fe 3d bb
       0.011861855 -0.0076006795 0.04232689 -0.0028990936
