models/model_2020-12-02_21-46-08/checkpoint.pt (torch, 179791 bytes, 16 tensors)

conv1.weight f4 [10, 1, 5, 5]
-0.079698965 0.008118821 -0.098959595 0.07524916 -0.17131266 0.14892942 -0.1440018 -0.15895832
-0.12663701 0.08927375 -0.0721545 0.07568372 -0.1700121 -0.12196937 -0.074120395 -0.03860372
-0.15370768 0.1289598 -0.04850946 0.063226074 0.14076816 0.035841335 0.051604524 0.19084877
-0.0909662 0.06516123 -0.08854206 0.1417379 0.15892376 -0.18503743 0.1733876 0.0962439
0.08636437 0.082192615 0.1661279 -0.022807285 -0.1671309 -0.056148794 -0.13935661 0.015467962
-0.034362376 -0.10653033 -0.018108888 0.19065699 -0.0137084015 0.007150739 -0.03226864 0.030711083
0.17857486 0.12389233 0.07245733 0.043410048 0.045476146 0.07514279 -0.027043384 -0.18489315
-0.12320251 0.169617 0.010768105 -0.16312534 0.033196826 0.16638197 -0.18906918 -0.13506573
-0.08054874 0.010117338 -0.04478539 -0.021656947 -0.19526084 0.09223234 0.17935574 0.124492146
-0.14112905 -0.16150893 0.08187408 0.0070235264 0.08409262 -0.19338092 -0.009457627 0.14322506
0.095216185 0.008692916 0.040771395 -0.01634927 -0.1074257 -0.07343266 -0.12016216 0.16703042
0.11132645 0.07175113 -0.15091749 0.15559463 0.06221097 0.13641815 -0.0799265 0.043846432
0.19541626 0.13242601 0.1575018 -0.04278008 0.15070163 -0.15774682 0.01746469 -0.11063383
-0.042335175 -0.053935062 0.012884093 0.18168 0.10088996 0.002369836 0.14046973 -0.10316952
0.10267991 -0.016741764 -0.03197615 0.023047078 -0.15265658 0.024255851 0.06978217 0.17315777
-0.062919304 0.07135145 0.2016808 -0.082227595 0.19352631 -0.09859855 0.08895423 0.080325775
0.059149392 0.16072266 -0.08085364 0.053268198 0.00326754 -0.14841862 -0.046411343 -0.1342107
0.088561036 0.01882682 0.021032 -0.059562795 0.000140004 -0.06308299 0.058784433 0.1965121
0.031964008 -0.08885312 -0.12177617 0.017220005 -0.1467146 -0.14914984 -0.13122061 -0.068945475
0.013172178 0.13659579 0.07625851 0.15092874 -0.12792863 0.014023228 -0.17960663 0.11254204
0.038649186 0.18981393 -0.1456329 0.15793547 0.16635887 0.15754826 0.024634095 0.17927204
0.13194686 0.14806391 -0.016504873 -0.15507802 -0.0035783327 0.03814915 -0.13665766 -0.11380237
-0.19091715 -0.07024319 0.1721198 0.033612043 -0.011086312 0.008922904 0.12456677 -0.1778808
-0.15417893 -0.06529908 -0.11441899 0.10232332 0.14023566 -0.19368415 -0.16846536 -0.19429536
0.074511744 0.15976903 -0.15551507 -0.0916232 0.063818656 -0.13074301 0.1679185 0.04532384
-0.057475045 0.012231298 0.06354673 -0.06932884 -0.15524961 -0.00095382036 0.0025182948 0.0048834495
-0.02747434 0.12934239 -0.058042224 -0.020813221 0.082889415 -0.12415998 0.05514484 -0.045658983
0.094708115 -0.10857827 0.008466586 0.020513719 -0.16167189 -0.14596759 0.076468624 -0.058372106
0.11970415 -0.19606833 -0.09804395 -0.16435513 0.07893652 -0.005614564 -0.03712774 -0.033248994
-0.15641725 0.057101674 0.005622424 -0.13761602 0.075550646 -0.003746073 -0.1936992 0.10752529
0.10747666 -0.03706613 -0.13802974 0.007876901 0.1513785 0.183718 -0.15082255 -0.090913415
0.15628754 0.09857508
00000000: 3639 a3bd ce04 053c 54ab cabd 3b1c 9a3d
00000010: 966c 2fbe f480 183e 3575 13be f8c5 22be
00000020: 22ad 01be 28d5 b63d bdc5 93bd 1100 9b3d
00000030: a717 2ebe 14cb f9bd 6fcc 97bd ef1e 1ebd
00000040: 8c65 1dbe 0a0e 043e dbb1 46bd ac7c 813d
00000050: 8725 103e 5dce 123d 445f 533d dc6d 433e
00000060: 7d4c babd 4073 853d 8a55 b5bd bd23 113e
00000070: e9bc 223e 747a 3dbe 858c 313e 861b c53d
00000080: cedf b03d 9a54 a83d 6f1d 2a3e 58d6 babc
00000090: 5d24 2bbe 47fc 65bd 80b3 0ebe 566d 7d3c
000000a0: 90bf 0cbd 932c dabd 1759 94bc 963b 433e
000000b0: 3499 60bc bf50 ea3b 1f2c 04bd cf95 fb3c
000000c0: 54dc 363e 43bb fd3d 8264 943d bcce 313d
000000d0: 3245 3a3d 77e4 993d 168a ddbc a154 3dbe
000000e0: 9951 fcbd 14b0 2d3e b56c 303c 540a 27be
000000f0: 65f9 073d 0960 2a3e 5a9b 41be ac4e 0abe
00000100: bdf6 a4bd 31c3 253c e370 37bd e969 b1bc
00000110: 75f2 47be 4fe4 bc3d 08a9 373e bdf5 fe3d
00000120: 2284 10be 9962 25be 99ad a73d 9c25 e63b
00000130: c038 ac3d a605 46be 2af4 1abc 97a9 123e
00000140: b400 c33d bb6c 0e3c e8ff 263d e7ee 85bc
00000150: 0102 dcbd dd63 96bd 9417 f6bd 060a 2b3e
00000160: 1fff e33d 42f2 923d 1d8a 1abe 3354 1f3e
00000170: eed0 7e3d 33b1 0b3e 81b0 a3bd 5198 333d
00000180: 331b 483e af9a 073e 2748 213e 2a3a 2fbd
00000190: 8751 1a3e 6288 21be 1c12 8f3c fd93 e2bd
000001a0: a667 2dbd 03eb 5cbd ce17 533c 520a 3a3e
000001b0: 659f ce3d 404f 1b3b 4cd7 0f3e 8b4a d3bd
000001c0: d849 d23d 0626 89bc 6cf9 02bd 3acd bc3c
000001d0: 0252 1cbe 35b4 c63c f4e9 8e3d 4550 313e
000001e0: d6db 80bd b620 923d 6985 4e3e f166 a8bd
000001f0: c32b 463e 09ee c9bd a32d b63d d781 a43d
00000200: a246 723d 7b94 243e 9896 a5bd c12f 5a3d
00000210: 3924 563b 0dfb 17be d219 3ebd 886e 09be
00000220: 7d5f b53d b43a 9a3c 4d4b ac3c 1ef8 73bd
00000230: 0ace 1239 a831 81bd f2c7 703d 783a 493e
00000240: b1ec 023d a0f8 b5bd c965 f9bd f810 8d3c
00000250: 5a3c 16be bcba 18be b25e 06be 4933 8dbd
00000260: 1ed0 573c c4df 0b3e 6c2d 9c3d 108d 1a3e
00000270: b9ff 02be aec1 653c cdea 37be 717c e63d
00000280: 9c4e 1e3d 955e 423e ca20 15be d6b9 213e
00000290: fb59 2a3e 5554 213e 71cd c93c 1793 373e
000002a0: 141d 073e 119e 173e 3a35 87bc c6cc 1ebe
000002b0: 7682 6abb 4842 1c3d fcef 0bbe 3811 e9bd
000002c0: c97f 43be a9db 8fbd 2c40 303e c8ac 093d
000002d0: 5da3 35bc 5f31 123c dd1c ff3d 6226 36be
000002e0: 15e1 1dbe 86bb 85bd 8154 eabd e48e d13d
000002f0: f099 0f3e 2355 46be 2f82 2cbe 5df5 46be
00000300: 9d99 983d 7e9a 233e 583f 1fbe f2a4 bbbd
00000310: 5bb3 823d 7fe1 05be d4f2 2b3e 7ea5 393d
00000320: f46a 6bbd c865 483c ca24 823d 47fc 8dbd
00000330: c1f9 1ebe cd09 7aba fa09 253b 5805 a03b
00000340: de11 e1bc 5572 043e afbd 6dbd 7d80 aabc
00000350: edc1 a93d 9647 febd 8edf 613d ea04 3bbd
00000360: 54f6 c13d 495e debd 6fb7 0a3c 630c a83c
00000370: 518d 25be 8778 15be 959b 9c3d 9717 6fbd
00000380: 7327 f53d 23c6 48be 44cb c8bd b64c 28be
00000390: 78a9 a13d 60fa b7bb 4213 18bd 1930 08bd
000003a0: d82b 20be 72e3 693d 503c b83b 37eb 0cbe
000003b0: 4cba 9a3d ad80 75bb 1559 46be 3836 dc3d
000003c0: b91c dc3d a8d2 17bd ab57 0dbe 1e0e 013c
000003d0: f702 1b3e 9220 3c3e 3a71 1abe d030 babd
000003e0: d709 203e bbe1 c93d

conv1.bias f4 [10]
0.12397268 -0.09866617 0.17430443 -0.1640373 -0.010952426 0.005119256 0.032577895 -0.15354542
0.18502131 0.19669603
00000000: 63e5 fd3d 7d11 cabd dc7c 323e 65f9 27be
00000010: ce71 33bc 6fbf a73b 6670 053d 033b 1dbe
00000020: 3a76 3d3e af6a 493e

conv2.weight f4 [20, 10, 5, 5]
-0.04374377 0.0022398077 -0.033103768 0.05964102 0.033436675 0.036000945 0.019360697 -0.007742115
0.033501484 -0.00046076236 -0.02336332 0.031921096 0.018730285 -0.016937103 -0.017246595 -0.056207296
-0.018337915 -0.027556337 -0.035249133 -0.057592753 0.04773661 -0.059229836 0.06028013 -0.03431627
-0.0061923442 0.05004055 0.020159967 -0.016814351 -0.051906977 -0.027938573 0.049597643 -0.022614947
0.053256888 -0.012576542 -0.008800303 0.02587897 -0.008021919 -0.00043239072 0.04176667 0.019791987
-0.0023253604 0.025013778 0.05374198 0.015050584 -0.019347124 0.020789979 -0.0062571117 -0.050274156
-0.025823332 0.027450155 0.0011046139 0.022895064 -0.038490936 0.059558734 -0.02583541 0.013294071
-0.033466056 -0.03194394 0.029026119 -0.017322188 -0.04114297 -0.028225379 0.045568395 0.0396763
0.0368919 -0.055745523 0.026971797 0.015717939 -0.042358488 6.998709e-05 0.0105907675 -0.035800148
-0.02635156 0.051181793 -0.006584812 -0.0026580822 -0.041040074 -0.035940543 0.060899835 0.021943806
-0.013144291 0.03780317 -0.027203579 -0.0554274 -0.066196464 0.023455178 -0.02256824 0.041129183
0.052618396 0.018394167 0.055199984 -0.010561121 0.056914385 -0.031974874 -0.009133785 0.040648114
-0.032245543 0.046103776 0.012990169 -0.0032106142 0.05359376 0.047740564 -0.02451011 0.0052671283
0.005608025 0.05141662 0.036171574 0.05157229 0.03740673 -0.056173213 0.04142847 -0.014831724
0.05071776 0.03812874 -0.038151093 -0.0048348703 0.0110142 0.018065948 -0.05958993 0.0021323236
0.03260254 0.035654984 0.02986272 0.008231729 -0.062258363 0.040893823 -0.050511982 -0.03758815
0.00036153023 0.019199077 0.03625378 -0.008891058 -0.032246917 -0.005603894 0.020232849 -0.036471132
-0.0554025 0.030370202 -0.04267319 -0.036602158 0.051452804 -0.04201616 -0.051836528 0.046965845
-0.030698687 0.0037902254 0.06412792 -0.025391195 0.05851453 0.049999993 0.047423918 0.018056555
-0.027576147 0.04073746 -0.044684984 -0.038976822 -0.030130373 0.028510956 0.0070941667 0.036722858
0.03985119 0.004428307 0.03723352 -0.048052046 -0.06326281 -0.050481763 0.037962344 0.058002003
-0.018568963 0.03439681 -0.042580187 0.0008075277 -0.00046798208 -0.019903768 -0.031878058 0.029416751
-0.005195457 -0.012427382 0.043382872 -0.048637323 0.04068716 0.05580952 -0.039315823 -0.060268465
0.008380709 -0.04817011 0.026014218 -0.050227452 -0.049760364 0.016762944 -0.016987674 -0.056321464
0.024368936 0.021987993 0.00829897 0.040160358 -0.025706941 0.05672008 -0.04861852 0.05696282
0.046388328 -0.056123286 -0.006002162 -0.034972984 0.06090775 -0.0030165908 0.037609503 0.053969342
-0.050401453 0.037807576 -0.055278577 -0.017496184 -0.02721869 -0.060440987 -0.05977975 -0.061134256
-0.04979256 -0.036891934 -0.021610232 0.034860007 -0.009912444 -0.06311343 -0.046610497 0.04488471
-0.06211004 -0.031487092 -0.056349255 0.035036337 0.04199498 0.0031139154 -0.03226049 -0.015173156
0.0020602765 0.024043866 -0.0005709011 -0.028021416 0.0035140691 0.00017246397 -0.0014331593 0.027269002
-0.022294477 0.0037387968 -0.0018351711 0.025880968 -0.039032217 -0.049295332 -0.053765975 0.02382851
0.048957016 0.06181207 0.023512898 -0.012722433 0.012299399 -0.06252276 0.008561442 -0.01973806
00000000: ab2c 33bd bdc9 123b d197 07bd 244a 743d
00000010: e5f4 083d ba75 133d 539a 9e3c 91b1 fdbb
00000020: da38 093d 7a92 f1b9 6f64 bfbc b2bf 023d
00000030: 4170 993c aebf 8abc bb48 8dbc 9f39 66bd
00000040: 6539 96bc d4bd e1bc 6561 10bd 61e6 6bbd
00000050: 7787 433d fc9a 72bd 4ce8 763d 388f 0cbd
00000060: 26e9 cabb 52f7 4c3d 8426 a53c 40be 89bc
00000070: 699c 54bd 6fdf e4bc e626 4b3d fb42 b9bc
00000080: e523 5a3d d70d 4ebc 252f 10bc 2200 d43c
00000090: 5e6e 03bc 80b2 e2b9 8713 2b3d ce22 a23c
000000a0: 1365 18bb b2e9 cc3c 8d20 5c3d ba96 763c
000000b0: dc7d 9ebc bf4f aa3c 7508 cdbb 46ec 4dbd
000000c0: 748b d3bc 26df e03c b1c8 903a 6e8e bb3c
000000d0: aca8 1dbd dcf3 733d c8a4 d3bc 60cf 593c
000000e0: b413 09bd a6d7 02bd 2fc8 ed3c 43e7 8dbc
000000f0: 8885 28bd e938 e7bc eda5 3a3d 9e83 223d
00000100: f61b 173d 6b55 64bd f5f3 dc3c e8c2 803c
00000110: 1880 2dbd 08c6 9238 e684 2d3c 2da3 12bd
00000120: 3adf d7bc 00a4 513d 68c5 d7bb 3833 2ebb
00000130: a319 28bd 6436 13bd 1b72 793d 7fc3 b33c
00000140: 275b 57bc 7fd7 1a3d 0ada debc d707 63bd
00000150: 0392 87bd 1325 c03c 08e1 b8bc 1377 283d
00000160: 6386 573d 5daf 963c 6119 623d 8d08 2dbc
00000170: 0f1f 693d 16f8 02bd dfa5 15bc a37e 263d
00000180: e713 04bd 50d7 3c3d b8d4 543c 2b69 52bb
00000190: 2185 5b3d 9c8b 433d 6dc9 c8bc e097 ac3b
000001a0: 86c3 b73b 3c9a 523d a528 143d 773d 533d
000001b0: cd37 193d e215 66bd e6b0 293d c200 73bc
000001c0: 6dbd 4f3d e22c 1c3d 5244 1cbd d56d 9ebb
000001d0: e774 343c 0aff 933c 9214 74bd 74be 0b3b
000001e0: 3e8a 053d f60a 123d aaa2 f43c 60de 063c
000001f0: a002 7fbd 4880 273d a7e5 4ebd 08f6 19bd
00000200: c48b bd39 6247 9d3c d87e 143d cdab 11bc
00000210: 5815 04bd dfa0 b7bb 5cbf a53c c162 15bd
00000220: bbed 62bd eeca f83c 15ca 2ebd 25ec 15bd
00000230: 2dc0 523d 2319 2cbd 8a52 54bd 425f 403d
00000240: d07b fbbc 6e65 783b 8055 833d 3201 d0bc
00000250: efac 6f3d cbcc 4c3d 953f 423d 57eb 933c
00000260: 5fe7 e1bc 53dc 263d 9a07 37bd 29a6 1fbd
00000270: f9d3 f6bc cf8f e93c 2f76 e83b b56a 163d
00000280: 003b 233d 551b 913b 2d82 183d 39d2 44bd
00000290: ef8f 81bd f7c5 4ebd 677e 1b3d 8293 6d3d
000002a0: f01d 98bc abe3 0c3d 9068 2ebd 44b0 533a
000002b0: 7e5b f5b9 3a0d a3bc 9192 02bd 66fb f03c
000002c0: a73e aabb 389c 4bbc 3db2 313d ee37 47bd
000002d0: 94a7 263d 8698 643d a109 21bd 11dc 76bd
000002e0: 3e4f 093c 054e 45bd c51b d53c 4dbb 4dbd
000002f0: 86d1 4bbd 7152 893c bc29 8bbc 56b1 66bd
00000300: 5da1 c73c 2a20 b43c 67f8 073c 307f 243d
00000310: 5d97 d2bc 5153 683d 3724 47bd d951 693d
00000320: b001 3e3d 88e1 65bd c9ad c4bb d53f 0fbd
00000330: 687a 793d ffb1 45bb 6c0c 1a3d f50e 5d3d
00000340: c171 4ebd 1edc 1a3d ca6b 62bd 2854 8fbc
00000350: bbf9 debc f890 77bd 9cdb 74bd ea67 7abd
00000360: 49f3 4bbd ff1b 17bd f107 b1bc 5ec9 0e3d
00000370: ce67 22bc 9d41 81bd a6ea 3ebd 08d9 373d
00000380: 1967 7ebd 9cf8 00bd 7ace 66bd 4382 0f3d
00000390: ee02 2c3d d512 4c3b 9323 04bd d498 78bc
000003a0: b405 073b a4f7 c43c 86a8 15ba 2b8d e5bc
000003b0: 4c4c 663b 72d7 3439 d9d8 bbba 3e63 df3c
000003c0: e8a2 b6bc 9a06 753b 208a f0ba 5304 d43c
000003d0: 3fe0 1fbd e7e9 49bd b639 5cbd 0234 c33c
000003e0: 2787 483d a72e 7d3d 1f9e c03c c071 50bc
000003f0: 6b83 493c ef0b 80bd 4a45 0c3c b6b1 a1bc

conv2.bias f4 [20]
-0.025521254 -0.047032066 0.028134743 -0.0025820087 0.038154133 0.006854684 -0.011993844 0.055158418
0.03718663 0.058075424 -0.047472425 0.02905289 -0.038604565 -0.041817185 0.046955504 0.02716855
-0.039453063 -0.042122588 -0.036526892 0.04836656
00000000: f311 d1bc b2a4 40bd d57a e63c eb36 29bb
00000010: 8247 1c3d 429d e03b d481 44bc cbed 613d
00000020: 0251 183d 7fe0 6d3d 7272 42bd 5400 ee3c
00000030: d21f 1ebd 7f48 2bbd 6a54 403d 9490 de3c
00000040: 8999 21bd bc88 2cbd 399d 15bd 041c 463d

fc1.weight f4 [50, 320]
0.020208957 0.0041952915 -0.037964348 0.021415865 -0.010108329 0.035402395 0.012995917 0.028455991
-0.01657384 0.0030253655 -0.029870264 0.013552795 -0.00367023 -0.044822603 0.034383498 0.023522787
0.034242507 0.023903126 0.007526047 0.040439155 -0.046542462 0.015614434 0.047713455 -0.007898795
0.043861933 0.023754062 0.0498043 0.049279816 0.0264773 0.006269015 -0.046817653 -0.020352047
-0.049222164 -0.008816406 0.033280898 0.029525602 0.0042028045 -0.05359833 0.029172344 0.02013042
-0.028684748 -0.050581332 -0.031567413 0.018163513 -0.030214744 -0.038808614 -0.044372685 -0.032962542
-0.0060967724 0.045416877 -0.03269693 -0.045545325 0.05155073 0.033200078 0.019122278 -0.03157766
0.044217087 0.02534978 0.010110909 0.046147153 0.019006824 0.037633307 -0.012646536 0.037009723
-0.024775146 0.012273053 -0.033993673 -0.049760498 -0.044164028 -0.043141454 0.029863315 0.054583497
0.036379457 -0.002424376 -0.00090912933 0.007985753 0.05486058 0.028803386 -0.03345931 -0.03098364
0.04479138 0.030086994 -0.054727733 -0.046422344 0.028463617 -0.026576012 0.04160678 0.036326922
-0.0442595 0.01440342 -0.009223894 -0.054184586 0.01779357 0.008271814 0.009927755 -0.045034952
-0.012942146 -0.009865058 -0.04848713 0.043255053 -0.017110053 0.025907647 -0.014686379 -0.043955613
-0.016608631 0.010041566 0.044642776 0.008403914 0.037192445 0.025497116 -0.038353644 0.0015717798
0.05262472 -0.016595032 0.02473901 0.05090533 0.0009063496 -0.021525979 -0.031594545 -0.0005959318
-0.033114318 0.054556806 -0.045289338 0.050732225 0.03865898 -0.048927493 -0.03265797 0.051574748
-0.0041196956 -0.03599496 0.005491487 -0.007689082 0.010397115 0.027098428 -0.043219823 -0.022680797
0.0031248257 0.05774815 -0.040126357 -0.025432426 0.03556784 0.0576597 0.008990363 0.005902936
0.025023077 -0.011094041 0.032418393 0.05557025 0.040234998 -0.05496084 0.042376682 0.053752203
0.02339001 -0.018425707 -0.008899893 -0.03681406 -0.008964941 0.035710204 -0.015907563 -0.009084458
-0.009754483 0.00065668696 0.007010102 -0.007917769 -0.05396736 -0.015301358 -0.029640676 -0.01906274
-0.026016047 -0.03612984 -0.045083072 -0.017847598 0.009014366 0.05692314 0.0056489026 0.0071248934
0.027325274 0.012589773 -0.044726953 -0.054564085 -0.034562882 -0.011546025 -0.03825632 0.04190074
-0.017407632 -0.026185973 -0.0402452 -0.024099756 -0.042042345 0.0471375 0.0145414295 -0.04750038
0.054992773 -0.010223993 0.017916989 -0.00810841 -0.009405919 0.031255204 0.0492904 0.022481695
0.055356607 0.053178243 -0.0030481014 -0.003526735 -0.0043459428 -0.01337986 -0.020248761 -0.044560008
-0.052097157 -0.021352557 -0.020224888 -0.053123325 -0.010109851 0.037304707 -0.006690478 -0.023153849
0.0013312617 0.037132513 -0.023640273 -0.021737227 -0.001882623 -0.0009723975 0.05388544 -0.047206253
0.0024138526 0.02063965 0.004182048 0.034438655 0.025910236 0.05571544 0.051368922 -0.03872167
0.01952923 0.05566492 -0.040803045 -0.013137002 0.009101733 0.04886148 0.028490141 0.022306697
-0.04946619 0.017408863 0.0120251 -0.00028936716 0.031307682 0.046681583 0.04466359 -0.045370653
-0.042038716 0.00552654 -0.045358893 0.009925843 -0.004915736 0.054804523 0.021682383 0.00019271416
00000000: 418d a53c a878 893b 8180 1bbd 5370 af3c
00000010: 689d 25bc 1a02 113d d4ec 543c 8a1c e93c
00000020: ddc5 87bc 3645 463b 7cb2 f4bc 8b0c 5e3c
00000030: 3e88 70bb e897 37bd b6d5 0c3d dcb2 c03c
00000040: df41 0c3d 7dd0 c33c 0f9d f63b 87a3 253d
00000050: 4fa3 3ebd afd3 7f3c 2f6f 433d f369 01bc
00000060: 92a8 333d e197 c23c 98ff 4b3d a2d9 493d
00000070: ece6 d83c 4f6c cd3b dec3 3fbd 56b9 a6bc
00000080: 2e9d 49bd b072 10bc 8d51 083d addf f13c
00000090: aeb7 893b ec89 5bbd d7fa ee3c 8de8 a43c
000000a0: 47fc eabc 5f2e 4fbd d54c 01bd a6cb 943c
000000b0: e984 f7bc c8f5 1ebd 22c0 35bd bb03 07bd
000000c0: 6fc7 c7bb 0c07 3a3d 37ed 05bd bc8d 3abd
000000d0: dc26 533d cefc 073d 53a6 9c3c 9457 01bd
000000e0: fa1c 353d 58aa cf3c 3aa8 253c cc04 3d3d
000000f0: 33b4 9b3c 6225 1a3d 6b33 4fbc 8297 173d
00000100: 3ff5 cabc ea14 493c f33c 0bbd aad1 4bbd
00000110: 57e5 34bd 18b5 30bd e9a3 f43c f292 5f3d
00000120: a002 153d 48e2 1ebb a352 6eba add6 023c
00000130: 7db5 603d 14f5 eb3c a10c 09bd 67d1 fdbc
00000140: 2b77 373d 0079 f63c 302a 60bd 5b25 3ebd
00000150: 882c e93c f0b5 d9bc df6b 2a3d 8acb 143d
00000160: 7349 35bd 52fc 6b3c d11f 17bc a8f0 5dbd
00000170: d2c3 913c 8186 073c 06a8 223c 9276 38bd
00000180: 4b0b 54bc 0da1 21bc 719a 46bd 362c 313d
00000190: 622a 8cbc 463c d43c 239f 70bc cd0a 34bd
000001a0: d30e 88bc 6185 243c 58db 363d 92b0 093c
000001b0: 1b57 183d 54df d03c b618 1dbd 2e04 ce3a
000001c0: 058d 573d 4ef2 87bc 77a9 ca3c 1b82 503d
000001d0: 1898 6d3a 4057 b0bc 4869 01bd 4e38 1cba
000001e0: e1a2 07bd f576 5f3d 5081 39bd 98cc 4f3d
000001f0: e158 1e3d 3268 48bd 5dc4 05bd 0b40 533d
00000200: 83fe 86bb 746f 13bd eff1 b33b b2f4 fbbb
00000210: a958 2a3c 86fd dd3c 4507 31bd 14cd b9bc
00000220: e0c9 4c3b 5389 6c3d 895b 24bd aa57 d0bc
00000230: 95af 113d 942c 6c3d 514c 133c 6b6d c13b
00000240: 32fd cc3c c8c3 35bc 26c9 043d a19d 633d
00000250: 74cd 243d 9e1e 61bd 2c93 2d3d 452b 5c3d
00000260: 689c bf3c 82f1 96bc dbd0 11bc 57ca 16bd
00000270: b0e1 12bc dd44 123d 9450 82bc fbd6 14bc
00000280: 44d1 1fbc 8425 2c3a ffb4 e53b 88b9 01bc
00000290: e10c 5dbd 8cb2 7abc 01d1 f2bc 7729 9cbc
000002a0: 9b1f d5bc e2fc 13bd 07a9 38bd 2035 92bc
000002b0: feb0 133c 3d28 693d 6e1a b93b f077 e93b
000002c0: 41d9 df3c 5645 4e3c 9c33 37bd 977e 5fbd
000002d0: cf91 0dbd 8a2b 3dbc a9b2 1cbd 1ca0 2b3d
000002e0: 739a 8ebc f783 d6bc 27d8 24bd da6c c5bc
000002f0: 9834 2cbd 4013 413d 2d3f 6e3c c28f 42bd
00000300: 1a40 613d 8982 27bc a6c6 923c 23d9 04bc
00000310: 491b 1abc 7505 003d bbe4 493d 882b b83c
00000320: 9cbd 623d 6ed1 593d a8c2 47bb cb20 67bb
00000330: 6968 8ebb 3337 5bbc bbe0 a5bc 8e84 36bd
00000340: d463 55bd 8feb aebc aaae a5bc d897 59bd
00000350: caa3 25bc d2cc 183d cc3b dbbb 24ad bdbc
00000360: bb7d ae3a 4318 183d 3fa9 c1bc 4512 b2bc
00000370: 58c2 f6ba 7ee8 7eba fbb6 5c3d 585b 41bd
00000380: ba31 1e3b 7c14 a93c 9009 893b 8c0f 0d3d
00000390: b441 d43c e035 643d 3868 523d 9d9a 1ebd
000003a0: c4fb 9f3c e600 643d 1821 27bd 943c 57bc
000003b0: 6f1f 153c fa22 483d 2864 e93c 89bc b63c
000003c0: 0f9d 4abd 089d 8e3c ed04 453c 34b6 97b9
000003d0: 7c3c 003d 3035 3f3d 2bf1 363d 94d6 39bd
000003e0: ca30 2cbd fa17 b53b 3fca 39bd 01a0 223c
000003f0: 2f14 a1bb b57a 603d 419f b13c 5013 4a39

fc1.bias f4 [50]
0.036863424 -0.048699405 0.0092120245 0.018750584 -0.03156023 -0.046074327 -0.022642598 0.017906677
0.0080636535 -0.029331798 -0.012887145 -0.02746916 0.01773665 0.0130538335 0.04422234 0.0085409405
0.021848783 -0.020917336 -0.045735743 0.0063976278 0.048198752 0.03434338 0.02106134 -0.029602738
-0.046849716 -0.0005256409 -0.034163367 0.030469116 -0.055371817 -0.030169092 -0.053740047 -0.018646047
0.0021110182 -0.048085365 -0.024325848 -0.014642648 0.043996364 -0.010283111 0.031129476 0.031983696
-0.023711307 -0.008865515 -0.037680753 -0.020950466 -0.017073113 0.035832953 -0.0025460469 0.01861975
0.0043766736 0.0052939006
00000000: 1afe 163d 0779 47bd 08ee 163c d39a 993c
00000010: 4d45 01bd 6fb8 3cbd f87c b9bc 06b1 923c
00000020: 6a1d 043c 3d49 f0bc 9b24 53bc 0107 e1bc
00000030: 734c 913c bfdf 553c 7c22 353d 4def 0b3c
00000040: 38fc b23c d55a abbc 6755 3bbd 31a3 d13b
00000050: 0e6c 453d a5ab 0c3d d588 ac3c 7181 f2bc
00000060: 7de5 3fbd 2acb 09ba e3ee 0bbd 5e9a f93c
00000070: 8fcd 62bd 2c25 f7bc 861e 5cbd 98bf 98bc
00000080: 0259 0a3b 29f5 44bd 0047 c7bc b8e7 6fbc
00000090: 8835 343d 7e7a 28bc 3e03 ff3c 5601 033d
000000a0: 373e c2bc aa40 11bc 2257 1abd 50a0 abbc
000000b0: eadc 8bbc 93c5 123d 94db 26bb 7288 983c
000000c0: 336a 8f3b 7578 ad3b

fc2.weight f4 [10, 50]
0.13090658 -0.09588076 0.04843412 -0.101411805 -0.0915839 0.006761542 0.1357084 -0.066387095
-0.021588007 0.026662648 -0.07312564 0.07324446 0.04740739 -0.010915272 -0.019780234 0.002785575
-0.13100205 -0.12813397 0.10687161 -0.0051441924 0.08587333 0.04638061 -0.029990539 0.106240004
-0.013028597 0.092216425 -0.083122164 0.050445713 -0.00443226 0.116596855 -0.07052031 0.13385414
0.08901599 0.017994814 0.10366096 0.041122105 0.106908955 0.099494666 0.11896951 0.07846829
0.020570464 0.11646058 -0.04093178 0.07609311 -0.00591489 0.028905774 0.05064074 -0.05643869
0.062433 0.102109574 -0.058153182 -0.00977432 -0.049559288 0.13649428 0.11261184 0.029080266
0.09283567 0.108514 -0.10962559 -0.09998913 0.0076174135 0.0557339 0.073050186 0.07814915
-0.11764323 0.13713624 -0.05656126 0.13724792 0.097241186 0.10138862 0.056128826 -0.11278791
-0.08686367 0.09981877 0.009038232 -0.04151593 -0.02696138 -0.057297733 0.05448117 0.055232693
0.057907738 0.0890353 0.09372805 0.06970838 -0.008286022 -0.10065504 -0.024689108 0.07227391
-0.097426176 -0.0073172343 -0.098657146 0.10382267 -0.08227704 0.108904056 0.110984355 -0.09841691
0.13409965 -0.120415166 0.10166198 -0.095966905 0.035419397 -0.011838471 -0.08156512 0.1317944
-0.021461647 -0.10132385 0.12834926 -0.08484354 -0.114082284 0.074412175 -0.036291998 0.08861508
-0.033505306 -0.042887904 -0.119552165 -0.014494026 -0.0802157 -0.04247958 0.124429 0.0991381
-0.10385306 -0.097540855 -0.025478013 0.05462804 0.12073767 0.13904433 0.06221382 -0.13348652
-0.0055109444 0.06426192 0.0714219 0.11562261 0.11345181 -0.0040346896 -0.14115594 -0.044602446
-0.033684857 0.063988514 0.104611434 -0.016508838 -0.0397037 0.05223147 0.0647194 0.12995462
-0.06511202 0.071673386 -0.06956758 -0.0887893 -0.028804546 -0.120372966 -0.06484074 -0.0747482
-0.098369904 -0.08356605 -0.03448304 -0.035364687 -0.09157317 -0.13251631 0.08551123 0.051083524
0.080800615 0.039525725 0.0990284 -0.10856448 -0.061397154 0.11928179 0.08813943 0.050062656
0.011704413 -0.010956953 -0.11890257 0.1337888 -0.09927463 -0.01294477 -0.050780024 -0.09319201
-0.051533025 0.1392536 0.062431373 0.1369704 -0.0024060048 -0.062366217 -0.108891614 0.07746128
-0.011875604 -0.023033876 0.057781477 0.041412625 -0.120075524 0.037333038 -0.0018125911 0.0049922885
-0.100396454 0.033276517 0.06416744 0.039218415 -0.019642519 -0.062010508 0.035685718 0.007211393
0.11329485 0.13695043 -0.115495235 0.010162654 0.093585774 -0.116294 0.07391817 0.13819602
0.061360154 0.13800105 0.016750557 -0.09965448 0.057133507 0.0050109485 0.02396684 0.0899505
0.04035175 -0.12537135 -0.002761181 -0.12222183 0.11654118 0.061568905 0.13489139 0.120375074
-0.056359112 0.1008097 0.11309822 0.13864243 0.018167937 -0.028144997 -0.10893416 0.030088333
0.016117109 -0.10064437 0.05439745 -0.036734268 0.112756915 0.02761693 0.07663815 0.07015715
-0.0077813934 -0.1078485 -0.1382702 -0.10148997 -0.12543544 0.024846887 -0.10145968 0.080707505
0.1070078 -0.092252694 -0.051347464 0.017593777 0.12387356 0.118273206 0.09281822 -0.030627772
00000000: 600c 063e 225d c4bd db62 463d feb0 cfbd
00000010: 5790 bbbd ed8f dd3b 25f7 0a3e f5f5 87bd
00000020: 55d9 b0bc a06b da3c e5c2 95bd 3101 963d
00000030: 402e 423d f8d5 32bc 280a a2bc 328e 363b
00000040: 6725 06be 8d35 03be 81df da3d 9d90 a8bb
00000050: 5bde af3d 98f9 3d3d b8ae f5bc 5c94 d93d
00000060: e675 55bc f7db bc3d f43b aabd 2aa0 4e3d
00000070: 7e3c 91bb 55ca ee3d f46c 90bd 0f11 093e
00000080: 044e b63d dc69 933c 334c d43d a76f 283d
00000090: 15f3 da3d dcc3 cb3d 49a6 f33d fcb3 a03d
000000a0: 6483 a83c e282 ee3d 15a8 27bd b4d6 9b3d
000000b0: b2d1 c1bb cdcb ec3c aa6c 4f3d 412c 67bd
000000c0: bfb9 7f3d d31e d13d 0832 6ebd 7824 20bc
000000d0: aefe 4abd 28c5 0b3e 09a1 e63d bd39 ee3c
000000e0: a120 be3d 973c de3d 6283 e0bd 1ac7 ccbd
000000f0: 7f9b f93b 3b49 643d 569b 953d a90c a03d
00000100: efee f0bd 716d 0c3e c8ac 67bd b88a 0c3e
00000110: 6326 c73d d6a4 cf3d 57e7 653d 59fd e6bd
00000120: 94e5 b1bd c96d cc3d 1815 143c 9c0c 2abd
00000130: 1dde dcbc 07b1 6abd a627 5f3d ad3b 623d
00000140: aa30 6d3d 2458 b63d 7ef4 bf3d 44c3 8e3d
00000150: 18c2 07bc 3b24 cebd d040 cabc 5804 943d
00000160: 6087 c7bd 69c5 efbb c20c cabd fba0 d43d
00000170: dd80 a8bd 1709 df3d c44b e33d ce8e c9bd
00000180: 6b51 093e 3a9c f6bd 2834 d03d 4c8a c4bd
00000190: ee13 113d 25f6 41bc 9d0b a7bd 1cf5 063e
000001a0: 56d0 afbc e182 cfbd fd6d 033e 73c2 adbd
000001b0: f9a3 e9bd 6965 983d eba6 14bd d37b b53d
000001c0: dc3c 09bd 3aab 2fbd c4d7 f4bd 5a78 6dbc
000001d0: 2148 a4bd 11ff 2dbd a2d4 fe3d eb08 cb3d
000001e0: eab0 d4bd 80c3 c7bd 44b7 d0bc a7c1 5f3d
000001f0: 5045 f73d a361 0e3e ebd3 7e3d b1b0 08be
00000200: 2795 b4bb c19b 833d a545 923d 8ccb ec3d
00000210: 6c59 e83d 6e35 84bb 2f8b 10be 0eb1 36bd
00000220: 22f9 09bd 690c 833d 853e d63d 8b3d 87bc
00000230: 59a0 22bd aaf0 553d 9b8b 843d d312 053e
00000240: 7359 85bd 7fc9 923d 7379 8ebd 2ad7 b5bd
00000250: 83f7 ebbc 1a86 f6bd 39cb 84bd 9615 99bd
00000260: 2976 c9bd ad24 abbd 173e 0dbd 90da 10bd
00000270: b78a bbbd 5bb2 07be 8320 af3d f53c 513d
00000280: cb7a a53d bae5 213d 67cf ca3d 0e57 debd
00000290: 957b 7bbd 034a f43d 7282 b43d 800e 4d3d
000002a0: dec3 3f3c cb84 33bc 3183 f3bd eeff 083e
000002b0: 7f50 cbbd 4d16 54bc b7fe 4fbd 74db bebd
000002c0: 4b14 53bd 7f98 0e3e 0ab8 7f3d f841 0c3e
000002d0: 10ae 1dbb b873 7fbd 9102 dfbd 05a4 9e3d
000002e0: e591 42bc 8ab1 bcbc 45ac 6c3d 49a0 293d
000002f0: 28ea f5bd 87ea 183d 7794 edba 5a96 a33b
00000300: a89c cdbd f54c 083d 386a 833d 7da3 203d
00000310: 59e9 a0bc bbfe 7dbd 302b 123d 8d4d ec3b
00000320: 2107 e83d bc3c 0c3e c488 ecbd 4381 263c
00000330: e6a9 bf3d 8c2b eebd 6962 973d 4283 0d3e
00000340: c954 7b3d 2650 0d3e 7738 893c a617 ccbd
00000350: d304 6a3d e232 a43b 1b56 c43c f837 b83d
00000360: e047 253d 5961 00be eef4 34bb 704f fabd
00000370: 24ad ee3d ad2f 7c3d f820 0a3e 3587 f63d
00000380: d0d8 66bd 5175 ce3d 0aa0 e73d 48f8 0d3e
00000390: edd4 943c 5690 e6bc df18 dfbd cf7b f63c
000003a0: 0708 843c a31e cebd dccf 5e3d ac76 16bd
000003b0: 19ed e63d e63c e23c 76f4 9c3d 8dae 8f3d
000003c0: 0ffb febb addf dcbd b496 0dbe f9d9 cfbd
000003d0: 2672 00be b38b cb3c 18ca cfbd fa49 a53d
000003e0: e826 db3d fbee bcbd b851 52bd d320 903c
000003f0: 6cb1 fd3d 3939 f23d 7b17 be3d 18e7 fabc

fc2.bias f4 [10]
-0.108772896 0.022401616 0.14880624 -0.043013234 -0.09905009 0.023183556 0.040335603 -0.027766524
-0.039695706 -0.12896396
00000000: 53c4 debd 9883 b73c aa60 183e a52e 30bd
00000010: c6da cabd 71eb bd3c f236 253d 9f76 e3bc
00000020: f797 22bd 210f 04be

momentum_buffer f4 [10, 1, 5, 5]
0.010423617 0.0050730594 0.0006072075 0.0043151653 0.012349462 0.0037649963 0.0010714083 0.0004400768
0.004008489 0.014228784 0.006085181 -0.0023287614 0.00049260946 -0.0019625379 0.0067489874 0.0070677
0.0034529392 0.004803565 -0.0013626476 0.0019734588 0.0014105502 -0.0056254845 0.004084204 0.004659367
0.0045830794 0.0114203235 0.016442256 0.021009302 0.009886207 0.006597955 0.0037751177 0.0151764965
0.005953558 -0.00897381 -0.013540428 -0.0067269662 -0.0064566694 -0.017334843 -0.026242089 -0.03338581
-0.00032649562 0.0047016176 -0.012680656 -0.03168833 -0.038921323 0.005931777 0.0039475337 -0.013262816
-0.029431056 -0.02993963 -0.0065231384 -0.00026750634 0.004901394 0.005156871 0.0073509673 -0.0057823835
-0.0044223703 0.004333536 0.008770956 0.008056352 -0.004223792 -0.010588851 -0.00060240726 0.0012657628
0.002596437 -0.008242456 -0.016663525 -0.0067135855 -0.0016935254 0.0056506405 -0.0042169434 0.00049535534
0.0037889287 0.007889999 0.007823033 -0.03604737 -0.030462766 -0.025708284 -0.026925368 -0.015409218
-0.028060872 -0.018334027 -0.019198693 -0.020190183 -0.02291159 -0.022618463 -0.021175422 -0.020908484
-0.022213764 -0.03165749 -0.027642427 -0.04640134 -0.036601793 -0.022829406 -0.024334487 -0.03116478
-0.042627357 -0.026937928 -0.021074705 -0.0331161 -0.012968636 -0.019944431 -0.03240427 -0.031826086
-0.038749672 0.0035814964 -0.006357041 -0.030279595 -0.04377048 -0.037227117 -0.0010186115 0.00088639697
-0.024701515 -0.04921053 -0.05234578 -0.00033499394 0.013372639 -0.027693154 -0.068041734 -0.07801541
0.008013938 0.0009795439 -0.033138484 -0.07867697 -0.085079074 -0.007540062 -0.012123173 -0.012946375
-0.0025163093 -0.0035220906 -0.0031895174 -0.004655862 -0.0034838482 -0.0015145461 -0.005756826 -0.0068688653
0.001472461 0.0047857463 -0.0046800086 -0.01084186 -0.0029844297 0.012229832 0.006015688 -0.0050946726
-0.0155269895 0.011327476 0.017598452 0.004033789 -0.0056552235 -0.012527754 0.024886992 0.03343969
0.028564367 0.014135835 0.008705346 0.03558315 0.043255586 0.032939978 0.013346955 0.0211641
0.018225327 0.040020928 0.045866396 0.022410065 0.018436868 0.013056386 0.0352461 0.037793934
0.022528317 0.007889027 0.0282056 0.030512834 0.035638444 0.0031483404 -0.0060212696 0.0016072907
0.002579816 0.0034229867 0.006295032 0.010389859 -0.0017214043 -0.005516015 -0.004651545 -0.0006766727
0.00016853493 -0.0019822586 -0.009341897 -0.0052856337 -0.005236886 -0.0050834054 -0.0049206913 -0.0064644455
-0.007466101 -0.008980412 -0.0060404716 9.853556e-05 -0.003169645 -0.008439313 -0.0020696698 -0.0074421177
0.010049573 0.005997002 0.0017802044 -0.0041467883 0.0041095037 0.004202854 0.0018979281 0.0039884034
-0.004893946 -0.014997317 0.0034173275 0.003512866 -0.0006476366 -0.017873231 -0.02833739 -0.0011988692
-0.0049488596 -0.0062358617 -0.013409192 -0.010948427 0.0011195004 -0.0047265557 -0.0016280493 0.0058853882
-0.005374074 -0.006605695 -0.0060385833 -0.0011844177 0.0061898925 0.0025049443 0.009093132 0.004627222
0.008992043 0.005950472 0.0013231621 0.012387035 0.012513651 0.010117645 0.0085904645 0.004368174
0.0038180938 0.0042030476 -0.0008957514 0.005040761 0.009291276 0.0045159734 0.004705264 0.0049100425
0.0076218895 0.010897191
00000000: d2c7 2a3c e83b a63b 012d 1f3a 3b66 8d3b
00000010: 6655 4a3c 28be 763b 7f6e 8c3a 1cba e639
00000020: a559 833b d81f 693c 3366 c73b 229e 18bb
00000030: 7622 013a ec9d 00bb 9c26 dd3b 2a98 e73b
00000040: b54a 623b 3967 9d3b de9a b2ba 2555 013b
00000050: 36e2 b83a fc55 b8bb c9d4 853b 9aad 983b
00000060: a82d 963b 4f1c 3b3c e9b1 863c b31b ac3c
00000070: c2f9 213c a833 d83b f767 773b d7a6 783c
00000080: 1016 c33b e306 13bc acd8 5dbc e26d dcbb
00000090: 7892 d3bb cd01 8ebc a6f9 d6bc 8fbf 08bd
000000a0: 802d abb9 0710 9a3b 87c2 4fbc 9fcb 01bd
000000b0: f76b 1fbd 5a5f c23b 505a 813b 484c 59bc
000000c0: 6619 f1bc f443 f5bc 0dc0 d5bb 1840 8cb9
000000d0: df9b a03b f8fa a83b 62e0 f03b 267a bdbb
000000e0: 88e9 90bb 5600 8e3b 0eb4 0f3c cafe 033c
000000f0: bc67 8abb dc7c 2dbc deea 1dba f4e7 a53a
00000100: fc28 2a3b 5e0b 07bc f281 88bc a3fd dbbb
00000110: 48f9 ddba 0229 b93b 492e 8abb bcda 013a
00000120: ad4f 783b 0e45 013c 2e2c 003c 68a6 13bd
00000130: 0d8d f9bc 2e9a d2bc 9792 dcbc f276 7cbc
00000140: eadf e5bc 3e31 96bc 9446 9dbc e265 a5bc
00000150: 16b1 bbbc 5b4a b9bc 1478 adbc 4548 abbc
00000160: a4f9 b5bc 49ab 01bd 5f72 e2bc 550f 3ebd
00000170: c3eb 15bd bc04 bbbc 1e59 c7bc 484d ffbc
00000180: 069a 2ebd eeac dcbc dca4 acbc bfa4 07bd
00000190: 677a 54bc 8162 a3bc 57ba 04bd 125c 02bd
000001a0: fab7 1ebd 8ab7 6a3b ba4e d0bb ea0c f8bc
000001b0: ad48 33bd 767b 18bd ee82 85ba 185d 683a
000001c0: d55a cabc fb90 49bd 8768 56bd 20a2 afb9
000001d0: ea18 5b3c c1dc e2bc 7759 8bbd 8bc6 9fbd
000001e0: e44c 033c 0a64 803a 38bc 07bd 6421 a1bd
000001f0: f03d aebd a012 f7bb 46a0 46bc 081d 54bc
00000200: aae8 24bb e0d2 66bb 3907 51bb 3490 98bb
00000210: 4651 64bb bc83 c6ba c2a3 bcbb 3814 e1bb
00000220: 98ff c03a c0d1 9c3b c25a 99bb 0fa2 31bc
00000230: 6c96 43bb a25f 483c 401f c53b 36f1 a6bb
00000240: ea64 7ebc e196 393c a12a 903c e02d 843b
00000250: 744f b9bb 3541 4dbc cedf cb3c 0ef8 083d
00000260: d2ff e93c fd99 673c dea0 0e3c a3bf 113d
00000270: c52c 313d 12ec 063d 30ad 5a3c 5660 ad3c
00000280: 484d 953c fcec 233d 67de 3b3d 5095 b73c
00000290: ea08 973c 74ea 553c 375e 103d d0cd 1a3d
000002a0: 4e8d b83c fa40 013c 6e0f e73c 0df6 f93c
000002b0: 9ef9 113d 6354 4e3b 124e c5bb baab d23a
000002c0: 2112 293b 3054 603b 8e46 ce3b 3a3a 2a3c
000002d0: bea0 e1ba b0bf b4bb fd6b 98bb bc62 31ba
000002e0: c0b8 3039 c8e8 01bb c20e 19bc 1c33 adbb
000002f0: 2f9a abbb b292 a6bb c03d a1bb b3d3 d3bb
00000300: 32a6 f4bb 9422 13bc 26ef c5bb e0a4 ce38
00000310: d2b9 4fbb 0b45 0abc 4ca3 07bb 02dd f3bb
00000320: f7a6 243c 8082 c43b bf55 e93a c8e1 87bb
00000330: 04a9 863b 18b8 893b e6c3 f83a 27b1 823b
00000340: 655d a0bb 4fb7 75bc 3ef5 5f3b 1d38 663b
00000350: 28c6 29ba e26a 92bc d023 e8bc 6023 9dba
00000360: 0b2a a2bb 3356 ccbb 3ab2 5bbc 0861 33bc
00000370: 33bc 923a 39e1 9abb 4564 d5ba 37da c03b
00000380: 0019 b0bb 9674 d8bb 4fdf c5bb 773e 9bba
00000390: 95d4 ca3b fe29 243b 5cfb 143c f49f 973b
000003a0: 5d53 133c 2dfc c23b f46d ad3a fef2 4a3c
000003b0: 0e06 4d3c 7bc4 253c 05bf 0c3c e622 8f3b
000003c0: fc38 7a3b b8b9 893b dcd0 6aba f82c a53b
000003d0: 703a 183c bbfa 933b 9d2e 9a3b 6ce4 a03b
000003e0: 0bc1 f93b 228a 323c

momentum_buffer f4 [10]
0.005282536 -0.009224768 -0.010056544 -0.018802054 -0.019060254 -0.0145720495 0.011113677 0.003400584
0.00471595 0.013643541
00000000: 2019 ad3b 7b23 17bc 34c4 24bc c406 9abc
00000010: 4024 9cbc 9bbf 6ebc 2416 363c 55dc 5e3b
00000020: 4288 9a3b 2989 5f3c

momentum_buffer f4 [20, 10, 5, 5]
-0.014630572 -0.022587352 -0.030991346 -0.020689568 -0.0048807645 -0.007472312 -0.008213943 -0.004718686
0.0021609594 -0.002743142 -0.00573162 -0.0034334203 -0.0022128527 -0.007636212 -0.019022603 -0.001696526
-0.0023853048 0.00018769922 -0.0015580556 -0.007145946 0.0024578893 -0.0001587309 0.0009179653 0.0012185005
0.000117187854 -0.019908877 -0.02834754 -0.037396543 -0.012376124 -0.0066827997 -0.033403073 -0.03788647
-0.033879742 -0.021561218 -0.018616103 -0.04117414 -0.045856357 -0.055340692 -0.039830424 -0.016343426
-0.020741563 -0.032991625 -0.043956276 -0.027730333 -0.008896079 -0.026605755 -0.03704958 -0.032088853
-0.021207355 -0.023489028 -0.0052961553 -0.014820527 -0.009128621 -0.014704959 -0.022699555 -0.000756552
-0.00020956341 -0.0037378883 -0.019089911 -0.027940083 -0.00012348313 -0.002239816 -0.0153872445 -0.019292712
-0.020429242 -0.00040829368 -0.003621281 -0.0018508062 -0.012050843 -0.008595709 -0.009385304 -0.0064035133
-0.008762188 -0.027164739 -0.010524605 -0.024098167 -0.03747432 -0.057677 -0.059589736 -0.02276931
-0.030859675 -0.03871895 -0.060515605 -0.03774109 -0.009293364 -0.03621254 -0.043560147 -0.053078517
-0.04538606 -0.030506026 -0.03398756 -0.039236058 -0.0519946 -0.040430706 -0.031494442 -0.0034271148
-0.028389389 -0.03586743 -0.015814267 -0.011202267 -0.031173177 -0.04443021 -0.044735126 -0.026140442
-0.011493359 -0.03740349 -0.04523628 -0.040236924 -0.026649643 -0.011748059 -0.026766602 -0.045527343
-0.044060748 -0.035728455 -0.020360919 -0.029534541 -0.032984663 -0.042898297 -0.031756934 -0.020159325
-0.016770562 -0.026841521 -0.026889607 -0.011506201 -0.011451083 -0.004023739 -0.0003567452 -0.002724201
-0.0019510136 -0.005029479 -0.012122268 -0.0049107024 -0.008968357 -0.0044352943 -0.003895408 -0.0036777966
-0.0037229643 -0.009630285 -0.0065653287 -0.0007393132 -0.013459286 -0.011575485 -0.005037528 -0.0074485
-0.00040599785 -0.010801922 -0.017411575 -0.014335402 -0.013265 -0.0060753343 -0.022518184 -0.029430691
-0.04075508 -0.041970193 -0.033315457 -0.034838945 -0.054388367 -0.05771545 -0.033746038 -0.014710091
-0.03125269 -0.045198977 -0.045895368 -0.026409736 -0.013147851 -0.043007925 -0.058595974 -0.052942988
-0.041064527 -0.04035891 -0.035462763 -0.048597567 -0.04919432 -0.030758232 -0.011923023 -0.010951623
-0.009649578 -0.009329911 -0.0010015939 7.204263e-05 -0.01163619 -0.0032409462 -0.0013097592 0.0011652864
-0.0008426674 -0.00878328 -0.0026032226 -0.0076225596 -0.0041180807 2.1410175e-05 -0.0077582966 -0.00032492005
-0.0030578882 -0.0020955435 -0.0011652303 -0.0018187028 -0.0010627613 0.000769831 -0.0003487168 -0.0018995061
-0.014767078 -0.013064798 -0.009961129 -0.00026389072 -0.00024627848 -0.012550381 -0.0112979375 -0.006213393
0.0011360082 -0.0052263937 -0.00948732 -0.0076909717 -0.0049131038 -0.00046742428 -0.0022261438 -0.005667783
-0.007489931 -0.004461312 -0.0061334902 -0.0035390568 -0.011228208 -0.014497458 -0.0034475136 -0.004954747
-0.0032265724 -0.023646727 -0.030032387 -0.031294286 -0.016633805 -0.012185485 -0.016829312 -0.021601634
-0.015034915 -0.0034735892 -0.005435763 -0.020870373 -0.017665297 -0.011540713 -0.0008833725 -0.015616578
-0.018444937 -0.020956427 -0.012299859 -0.0055988063 -0.0034659824 -0.018959338 -0.011929225 -0.011457397
-0.0052093947 0.0011424161 -0.0013882262 0.0038207795 -0.004242071 -0.002656026 -0.008255392 -0.0032276078
00000000: 11b5 6fbc 1c09 b9bc 90e1 fdbc 2b7d a9bc
00000010: d2ee 9fbb 4cda f4bb c693 06bc 359f 9abb
00000020: e29e 0d3b 49c6 33bb 50d0 bbbb 3c03 61bb
00000030: 8205 11bb 3039 fabb 4ad5 9bbc f75d deba
00000040: c652 1cbb 20d1 4439 ac37 ccba 8a28 eabb
00000050: 8a14 213b 0071 26b9 9ca3 703a 18b6 9f3a
00000060: c0c2 f538 f117 a3bc 1a39 e8bc 1e2d 19bd
00000070: 3ac5 4abc 63fb dabb a9d1 08bd d82e 1bbd
00000080: 7cc5 0abd 27a1 b0bc cc80 98bc 37a6 28bd
00000090: e0d3 3bbd ecac 62bd 3a25 23bd a6e2 85bc
000000a0: 36ea a9bc 3a22 07bd 7f0b 34bd b92a e3bc
000000b0: dcc0 11bc 50f4 d9bc 4dc1 17bd 9a6f 03bd
000000c0: 0cbb adbc 106c c0bc 5f8b adbb ccd1 72bc
000000d0: 3690 15bc 11ed 70bc 6bf4 b9bc 5853 46ba
000000e0: 40be 5bb9 5cf7 74bb 7262 9cbc 9ae2 e4bc
000000f0: 407b 01b9 e0c9 12bb c81a 7cbc c00b 9ebc
00000100: 3a5b a7bc 4010 d6b9 0353 6dbb c096 f2ba
00000110: e670 45bc 04d5 0cbc d1c4 19bc 90d4 d1bb
00000120: 488f 0fbc 9688 debc 656f 2cbc 8569 c5bc
00000130: ac7e 19bd b83e 6cbd 5e14 74bd b486 babc
00000140: 6ecd fcbc c397 1ebd 36df 77bd 6796 1abd
00000150: 3243 18bc 9a53 14bd 206c 32bd dc68 59bd
00000160: bce6 39bd c6e7 f9bc 8a36 0bbd fdb5 20bd
00000170: 4af8 54bd ab9a 25bd 5100 01bd 7299 60bb
00000180: dd90 e8bc bae9 12bd ec8c 81bc b789 37bc
00000190: e45e ffbc 74fc 35bd 2e3c 37bd 7b24 d6bc
000001a0: a44e 3cbc 6734 19bd ad49 39bd 79cf 24bd
000001b0: 5a50 dabc ee7a 40bc a245 dbbc e17a 3abd
000001c0: 0b79 34bd 0058 12bd f1cb a6bc 6cf2 f1bc
000001d0: ed1a 07bd 20b6 2fbd 8f13 02bd 2b25 a5bc
000001e0: 6b62 89bc c0e2 dbbc 9847 dcbc 8184 3cbc
000001f0: 539d 3bbc 92d9 83bb 8809 bbb9 8288 32bb
00000200: 27b9 ffba 54ce a4bb 7a9c 46bc f5e9 a0bb
00000210: 04f0 12bc f255 91bb 1a4a 7fbb 3007 71bb
00000220: fafc 73bb 58c8 1dbc f821 d7bb 78ce 41ba
00000230: 5684 5cbc 1aa7 3dbc d911 a5bb 8c12 f4bb
00000240: 1cdc d4b9 8bfa 30bc b8a2 8ebc 09df 6abc
00000250: 7155 59bc 9913 c7bb 0e78 b8bc a218 f1bc
00000260: ccee 26bd f0e8 2bbd ca75 08bd 48b3 0ebd
00000270: 56c6 5ebd 0967 6cbd 4939 0abd 9802 71bc
00000280: d202 00bd 9022 39bd c8fc 3bbd 3b59 d8bc
00000290: 166a 57bc 1429 30bd 5502 70bd bfda 58bd
000002a0: 4733 28bd 624f 25bd 6741 11bd 3e0e 47bd
000002b0: fc7f 49bd b0f8 fbbc c858 43bc 706e 33bc
000002c0: 4319 1ebc 7cdc 18bc ea47 83ba 9815 9738
000002d0: b8a5 3ebc 0e66 54bb 3aac abba 86bc 983a
000002e0: 74e6 5cba bfe7 0fbc d49a 2abb aac6 f9bb
000002f0: f7f0 86bb 009a b337 4f39 febb 085a aab9
00000300: da66 48bb 6355 09bb a4ba 98ba 8a61 eeba
00000310: 5a4c 8bba 7cce 493a fad3 b6b9 d9f8 f8ba
00000320: 9df1 71bc bc0d 56bc 0134 23bc d05a 8ab9
00000330: f01e 81b9 1da0 4dbc fc1a 39bc b899 cbbb
00000340: 1ce6 943a 2b42 abbb b470 1bbc 8c04 fcbb
00000350: 1afe a0bb a010 f5b9 7fe4 11bb cfb8 b9bb
00000360: 186e f5bb 3330 92bb 72fb c8bb 85ef 67bb
00000370: 85f6 37bc bf86 6dbc aeef 61bb 6e5b a2bb
00000380: e774 53bb c8b6 c1bc 7b06 f6bc 702e 00bd
00000390: 9e43 88bc a1a5 47bc a0dd 89bc e9f5 b0bc
000003a0: 0155 76bc 28a5 63bb 7c1e b2bb 58f8 aabc
000003b0: d0b6 90bc 4215 3dbc 2092 67ba addc 7fbc
000003c0: d619 97bc d0ac abbc 5985 49bc 3176 b7bb
000003d0: 8925 63bb 9d50 9bbc cc72 43bc ceb7 3bbc
000003e0: 92b3 aabb 20bd 953a 24f5 b5ba 0b66 7a3b
000003f0: 1201 8bbb b910 2ebb a041 07bc 4686 53bb

momentum_buffer f4 [20]
-0.02571204 -0.019190978 3.060326e-06 0.004887059 0.0019483321 0.00063212286 0.00068583735 0.0063568177
0.013551307 -0.00042506505 -0.0036781034 0.0060322545 -0.00332552 -0.01808862 -0.0004888299 0.009479164
0.028249117 -0.011067151 0.011723543 -0.011679705
00000000: 0ea2 d2bc 6636 9dbc 0060 4d36 9f23 a03b
00000010: 2d5f ff3a 0cb5 253a c4c9 333a da4c d03b
00000020: 4d06 5e3c 44db deb9 560c 71bb 38aa c53b
00000030: f8f0 59bb 962e 94bc d224 00ba 7f4e 1b3c
00000040: b16a e73c ff52 35bc 1a14 403c 3c5c 3fbc

momentum_buffer f4 [50, 320]
-0.0016202097 -0.0044869445 -0.015326276 -0.027984656 -0.007122588 -0.0077184015 -0.017135 -0.027655806
-0.008207231 -0.017910697 -0.02020549 -0.017790338 -0.002950216 -0.015290668 -0.023180313 -0.0057089864
-0.008247217 0.0035382113 -0.005371196 -0.0077985935 -0.010577565 0.010455461 -0.009711019 -0.012103792
-0.0019595607 -0.0025275752 -0.011305632 -0.00967085 -0.00595646 -0.0039333096 0.0018637786 0.0010725891
-0.0011357847 0.0001376202 0.0028967308 0.00328429 0.00017625242 -0.0010724443 -0.00044919844 -0.0005441755
0.0019153173 -0.0043002376 0.003059427 0.0014326632 5.967634e-06 0.00012787808 0.0002720169 -0.0035741345
-0.00023155427 -0.023280982 -0.015891451 -0.026824612 -0.0301322 -0.017365351 -0.0054762405 -0.02801175
-0.03279353 -0.020545112 -0.013691321 -0.018460523 -0.013140621 -0.026768448 -0.017354202 0.00026302412
-0.013799034 0.007893493 -0.006207275 -0.00708603 -0.0105502885 0.0025382834 0.005369224 0.00080050994
-0.016579058 -0.0008395929 0.0047993204 0.003482404 -0.009581915 0.003978072 -0.00046748854 0.0017492925
-0.0004480438 -0.0032637282 -0.00016128906 -0.00089009694 -0.002993789 -0.00051113055 -0.0044686305 0.00017705304
0.00076269987 -0.007605043 -0.004160352 0.0023745727 -0.0050413404 -0.016243726 -0.0009239131 0.0026936098
0.004976667 -0.002219842 -0.001338543 0.00096336985 0.011264472 0.0033734576 -0.002531893 0.0030661318
0.014779317 0.0055869073 -0.0015193674 0.0012702799 0.007160113 0.0043495046 0.00054418785 0.0025159786
-0.017373905 -0.004170532 0.001927346 -0.015257526 -0.022998799 0.008616363 -0.0015819278 -0.023354094
-0.017868288 0.011173471 -0.011006689 -0.013510803 -0.01587649 -0.0017489826 -0.006303761 -0.0049586976
-0.006848872 -0.002693167 -0.010220123 -0.012577716 -0.0044710618 -0.011370322 -0.0072444994 -0.014708969
-0.012154532 -0.015631687 -0.003915722 -0.004612402 -0.012545032 -0.012868052 -0.009464378 -0.01893945
-9.005081e-05 0.0012448907 0.002110415 0.003257465 8.280139e-05 0.0021972237 0.0022954415 -0.002371408
0.0003083336 0.0024376612 0.0074110823 0.003630535 -0.00013986533 0.0016555703 0.00089585804 0.0012290115
-0.00052493357 8.401647e-05 0.0035643482 0.003753525 0.001221343 -0.009994581 0.004093882 -0.0036559312
0.00064665603 -0.00815912 -0.0024044798 -0.008785071 0.0013383953 -0.0013931489 -0.0054623685 -0.0055484422
-0.0007629914 -5.316129e-05 -0.002266153 0.0015735377 3.3688416e-06 0.00093936536 0.0022769189 -0.0036311103
-0.0009141156 -0.0005601739 0.0019310152 -0.0032950144 0.0015019572 -0.0055946223 -0.001473547 -0.0019464015
-0.0011497254 -0.0071441177 0.0039641573 -0.0079596145 -0.0076227277 -0.0065983655 0.0016272985 -0.012582647
-0.004818083 -0.0013652262 0.0003070084 -0.017987084 -0.0001846536 0.00017908798 -0.0029084194 -0.009705786
0.0007925534 -0.0014169274 0.0038652187 -0.0043475167 0.0042404393 0.0048735854 -0.00012898538 -0.0038479476
0.0022340529 0.00047259196 0.0007741605 -0.003393061 -0.0029987406 -0.0022910086 0.0019146195 -0.0020811812
-8.5934084e-07 0.0 0.0 0.0 0.0 -2.4310437e-05 0.0 0.0
0.0 0.0 0.0 0.0 0.0006937718 0.0 0.0 2.4974604e-05
-0.010086677 -0.0009911286 -0.005090504 -0.003076488 -0.0065327464 0.0037987628 -0.008964437 -0.0067787115
0.001852572 -0.0069003375 -0.0075060828 0.0023806442 -0.0011283777 0.002819497 -0.0029964643 0.0026143685
00000000: 375d d4ba 3807 93bb 101b 7bbc 1440 e5bc
00000010: 9964 e9bb a5ea fcbb b35e 8cbc 6e8e e2bc
00000020: 9f77 06bc 74b9 92bc fc85 a5bc 0bbd 91bc
00000030: 6958 41bb b685 7abc a4e4 bdbc 7312 bbbb
00000040: 561f 07bc 56e1 673b dc00 b0bb 588b ffbb
00000050: 864d 2dbc 624d 2b3c f71a 1fbc fc4e 46bc
00000060: f96b 00bb ada5 25bb 423b 39bc 7c72 1ebc
00000070: 682e c3bb fee2 80bb 084a f43a 1e96 8c3a
00000080: 9cde 94ba 244e 1039 14d7 3d3b 3e3d 573b
00000090: 66d0 3839 4291 8cba 6582 ebb9 00a7 0eba
000000a0: 620b fb3a 02e9 8cbb ab80 483b 33c8 bb3a
000000b0: 963d c836 0317 0639 7e9d 8e39 073c 6abb
000000c0: 60cd 72b9 c2b7 bebc ca2e 82bc 4abf dbbc
000000d0: ced7 f6bc c841 8ebc 0972 b3bb e678 e5bc
000000e0: 8252 06bd 394e a8bc 9051 60bc 863a 97bc
000000f0: c24b 57bc 8149 dbbc 662a 8ebc 80e6 8939
00000100: 5815 62bc b653 013c 6666 cbbb ee31 e8bb
00000110: 1edb 2cbc 5459 263b 51f0 af3b 50d9 513a
00000120: ced0 87bc 2018 5cba 9e43 9d3b 0b39 643b
00000130: 77fd 1cbc 7d5a 823b 4019 f5b9 8448 e53a
00000140: 6ce7 eab9 46e4 55bb b41f 29b9 6555 69ba
00000150: 7233 44bb 64fd 05ba 976d 92bb 50a7 3939
00000160: ecef 473a b933 f9bb 9053 88bb b89e 1b3b
00000170: d431 a5bb 9011 85bc c232 72ba 4687 303b
00000180: 4f13 a33b c57a 11bb 0d72 afba a88a 7c3a
00000190: 9f8e 383c 3a15 5d3b 1eee 25bb 28f1 483b
000001a0: f324 723c 6012 b73b 8325 c7ba 857f a63a
000001b0: 629f ea3b 4a86 8e3b d4a7 0e3a 1ee3 243b
000001c0: b853 8ebc f5a8 88bb 009f fc3a b4fa 79bc
000001d0: fa67 bcbc a52b 0d3c b058 cfba 1651 bfbc
000001e0: 8460 92bc ef10 373c 6655 34bc 6a5c 5dbc
000001f0: 6a0f 82bc 1e3e e5ba c88f cebb 927c a2bb
00000200: 816c e0bb d87f 30bb 4e72 27bc c412 4ebc
00000210: fc81 92bb 964a 3abc 4463 edbb e3fd 70bc
00000220: cd23 47bc 060e 80bc 754f 80bb a223 97bb
00000230: ae89 4dbc 86d4 52bc 7a10 1bbc e826 9bbc
00000240: a9d9 bcb8 9a2b a33a e34e 0a3b 327b 553b
00000250: a8a5 ad38 4cff 0f3b 1e6f 163b a069 1bbb
00000260: d6a7 a139 2bc1 1f3b aad8 f23b 45ee 6d3b
00000270: d0a8 12b9 b9ff d83a 04d8 6a3a c816 a13a
00000280: b29b 09ba 0032 b038 d797 693b b3fd 753b
00000290: 7815 a03a 50c0 23bc f925 863b 5998 6fbb
000002a0: 5a84 293a d4ad 05bc 7a94 1dbb 42ef 0fbc
000002b0: 186d af3a 529a b6ba abfd b2bb b5cf b5bb
000002c0: 7c03 48ba 80f9 5eb8 bd83 14bb 2a3f ce3a
000002d0: 4214 6236 be3f 763a 5c38 153b ecf7 6dbb
000002e0: 42a1 6fba a2d8 12ba 1e1a fd3a 2bf1 57bb
000002f0: 52dd c43a 1853 b7bb 0824 c1ba 661e ffba
00000300: 62b2 96ba 3419 eabb c3e5 813b 0b69 02bc
00000310: 13c8 f9bb 1a37 d8bb 144b d53a 7227 4ebc
00000320: 02e1 9dbb 64f1 b2ba f8f5 a039 a659 93bc
00000330: 939f 41b9 90c9 3b39 2e9b 3ebb 0405 1fbc
00000340: 5cc3 4f3a 32b8 b9ba 9c4f 7d3b 9d75 8ebb
00000350: 62f3 8a3b 99b2 9f3b 4040 07b9 d92d 7cbb
00000360: 3069 123b 38c6 f739 08f1 4a3a 1e5e 5ebb
00000370: 8586 44bb bf24 16bb f8f3 fa3a 6d64 08bb
00000380: 74ad 66b5 0000 0000 0000 0000 0000 0000
00000390: 0000 0000 44ee cbb7 0000 0000 0000 0000
000003a0: 0000 0000 0000 0000 0000 0000 0000 0000
000003b0: 3dde 353a 0000 0000 0000 0000 8e80 d137
000003c0: 9742 25bc c2e8 81ba 3ece a6bb e79e 49bb
000003d0: a610 d6bb aaf4 783b 93df 12bc f41f debb
000003e0: 00d2 f23a 3a1c e2bb 96f5 f5bb 9504 1c3b
000003f0: 13e6 93ba 4fc7 383b 5460 44bb d355 2b3b

momentum_buffer f4 [50]
-0.0032092314 0.00047838036 0.00468513 0.0021150212 -0.0019564591 0.006729651 -0.011691004 -0.014388585
0.022454735 0.00084457884 0.00749125 0.0027521362 -0.009064982 -0.008650376 0.0026043858 0.00526839
0.029421771 -0.0018483037 0.026709711 0.0042293626 0.009412527 -0.022176608 0.007573936 -0.028875038
0.0048497245 0.022024054 -0.00021864344 0.03426266 0.009684807 0.020608174 -0.0024326215 -0.0021866187
-0.009203749 -0.009060224 -0.022578318 0.0005381734 0.0024049054 0.013651939 0.0007638661 0.00087620644
-0.006163466 0.00090700836 -0.008616031 -0.0025651027 -0.015849808 -0.001394803 -0.04572072 0.015619501
0.01072884 -0.011682384
00000000: f851 52bb 20cf fa39 b885 993b 2b9c 0a3b
00000010: f037 00bb 6784 dc3b a08b 3fbc 1abe 6bbc
00000020: fef2 b73c ba66 5d3a 2979 f53b 2f5d 343b
00000030: 4a85 14bc 4fba 0dbc 58ae 2a3b 75a2 ac3b
00000040: ed05 f13c c842 f2ba 53ce da3c 7796 8a3b
00000050: 0037 1a3c b8ab b5bc c82e f83b 588b ecbc
00000060: 70ea 9e3b ca6b b43c a743 65b9 0157 0c3d
00000070: 06ad 1e3c 79d2 a83c 9e6c 1fbb 604d 0fbb
00000080: 52cb 16bc 5571 14bc 2af6 b8bc 3514 0d3a
00000090: 9e9b 1d3b 62ac 5f3c 303e 483a 38b1 653a
000000a0: e6f6 c9bb 4dc4 6d3a 412a 0dbc 481b 28bb
000000b0: 75d7 81bc d3d1 b6ba a645 3bbd efe8 7f3c
000000c0: 04c8 2f3c 7867 3fbc
