models/model_2020-12-02_21-30-56/checkpoint.pt (torch, 179791 bytes, 16 tensors)

conv1.weight f4 [10, 1, 5, 5]
000000 ec e2 82 bd c0 df df 3b e8 1b d3 bd f0 60 7d 3d
       -0.06390938 0.006832093 -0.10308057 0.061860025
000010 80 f5 40 be 63 46 30 3e 01 3c 10 be ba c2 2a be
       -0.18843651 0.1721435 -0.1408539 -0.16675845
000020 e8 41 10 be 5b 76 97 3d 1e 85 03 bd 25 84 b3 3d
       -0.14087641 0.073956214 -0.032109372 0.08765439
000030 5c b6 30 be 20 dd f8 bd 0b 4d 8d bd 80 af df 3c
       -0.17257065 -0.12151551 -0.068994604 0.027305365
000040 d1 46 db bd 12 71 39 3e 8b 9d 66 3b df a5 e5 3d
       -0.107068665 0.18109539 0.0035189118 0.11213278
000050 f2 9e 76 3e 81 d7 09 3e 61 ef 1c 3e 55 26 94 3e
       0.2408407 0.13461114 0.15325691 0.28935495
000060 82 f7 ed bb 1d 05 c3 3d 1d 89 63 bd 6a 42 43 3e
       -0.0072621712 0.0952246 -0.055550683 0.19068304
000070 44 a4 6d 3e 81 dc 05 be 00 01 3d 3e 3b 46 fc 3d
       0.23207194 -0.13072397 0.18457413 0.12318083
000080 a2 18 1a 3e b2 01 3d 3e c1 dc 76 3e a2 73 3b bd
       0.15048459 0.18457678 0.24107648 -0.045764573
000090 51 a4 1e be 4c de c2 3c db 35 83 bc e6 1a d6 3d
       -0.15492369 0.02378764 -0.016016891 0.10454349
0000a0 52 35 98 bd fa 0f dc bd 32 ee 59 3d 01 90 9c 3e
       -0.07432045 -0.10745235 0.053205676 0.30578616
0000b0 c5 75 94 3d 8d 1c 42 bd f3 b7 36 bd 67 43 a7 3d
       0.07249025 -0.04739051 -0.04460902 0.08167153
0000c0 1d b3 8b 3e ec 54 4d 3e 16 ed d9 3d 41 33 b4 3d
       0.2728509 0.20051926 0.10640924 0.087988384
0000d0 99 ab 87 3d a7 86 9f 3d 8f 90 06 bd 2a 59 15 be
       0.066245265 0.07789355 -0.032852706 -0.14584795
0000e0 f5 ac ae bd 7b 1c 34 3e cd e4 f1 bb 48 f7 3a be
       -0.08529083 0.1758899 -0.0073820115 -0.18258393
0000f0 72 a0 9d 3d 1f 57 4d 3e 49 7a 42 be 91 0d 1f be
       0.07696618 0.20052765 -0.1899196 -0.15532519
000100 40 ca cb bd a9 be 66 3d 53 55 a9 bc c2 bd 23 bd
       -0.099506855 0.05633417 -0.020670569 -0.03997589
000110 5f 60 61 be 76 92 a0 3d 90 23 64 3e ff d7 08 3e
       -0.22009419 0.07840435 0.22279191 0.13363646
000120 20 52 2b be 8b 38 38 be 9e 49 b1 3d 4e 56 e9 ba
       -0.16730547 -0.1799032 0.086566195 -0.001780221
000130 f0 9f b1 3d e9 f3 15 be e0 2b ae 3d 48 f8 5d 3e
       0.08673084 -0.14643826 0.08504462 0.21676743
000140 d2 a1 a9 3d bc 4c a2 3c a8 57 ea 3d 86 3c b7 3d
       0.08282818 0.01981198 0.114425 0.08947091
000150 99 80 3f bd ee fc 98 bd 17 61 92 bd 1f 7b 92 3e
       -0.0467535 -0.074701175 -0.07147425 0.2860956
000160 66 74 70 3e 82 b6 00 3e 94 b1 07 be b8 c3 81 3e
       0.23481902 0.12569621 -0.13251334 0.25344634
000170 e8 c3 56 3e d6 8d 86 3e 65 2d ea bc 81 36 ad 3d
       0.2097317 0.26280087 -0.028586099 0.084576614
000180 83 66 9c 3e 1b a8 88 3e 94 86 85 3e ef 48 7c 3b
       0.3054696 0.26690754 0.26079237 0.003849562
000190 da 94 1c 3e 9b ee 30 be eb 39 8b 3c 0e d5 a6 bd
       0.15291157 -0.17278521 0.01699539 -0.08146106
0001a0 31 d4 40 bc e1 10 7c bd 11 48 64 3b 61 25 48 3e
       -0.01176934 -0.061539534 0.0034832994 0.19545509
0001b0 6a d0 12 3e 9b f3 4c 3d 1e e1 0c 3e 49 29 c3 bd
       0.14337316 0.050037008 0.1375775 -0.09529359
0001c0 56 68 1d 3e bd 56 80 3d 29 2f 30 3d 23 56 9f 3c
       0.15371832 0.06266544 0.043013725 0.019450253
0001d0 9a 7c 00 be 77 e4 d1 3d e9 cb 3e 3e df 42 8d 3e
       -0.12547532 0.10248654 0.18632473 0.2759008
0001e0 9c 2b 75 bd b4 6d db 3d eb 05 92 3e 82 f2 f6 3c
       -0.059856042 0.107142836 0.2852014 0.030144934
0001f0 c6 75 92 3e 88 b8 6f bd 0a c1 19 3e a6 60 2a 3e
       0.2860548 -0.058525592 0.15015045 0.16638431
000200 e6 05 1a 3e eb 57 6b 3e 9f 06 3d bd 88 1d e5 3d
       0.15041313 0.22982757 -0.046148892 0.11187273
000210 d0 d8 b7 3d 76 e4 8b bd dd 2c 4e 3c a0 a4 01 be
       0.089769006 -0.06830685 0.012583938 -0.12660456
000220 33 5a 02 3e 0b cb b0 3d cd 05 ba 3d 7e ac 2f bc
       0.12729721 0.086324774 0.09083138 -0.010722278
000230 73 72 c4 bc 69 a2 5d bd 4e 0a bb 3d a7 65 70 3e
       -0.023980355 -0.054109965 0.09132825 0.23476277
000240 39 ff 6f 3d c7 e3 01 be b5 21 09 be eb a4 5f 3c
       0.05859301 -0.12684546 -0.13391764 0.013650159
000250 f8 22 1c be 1e 4c 26 be 4f 26 0f be 89 1e af bd
       -0.15247715 -0.16239974 -0.13979457 -0.08550746
000260 24 84 e3 3b 9b 2e 23 3e bc a0 e8 3d c8 26 26 3e
       0.0069432426 0.15935747 0.11358783 0.16225731
000270 c3 79 e9 bd 8a 87 3a 3d 26 ea f8 bd a5 c7 29 3e
       -0.11400177 0.045539416 -0.12154035 0.16580065
000280 aa d7 a3 3d 7c 63 77 3e 9d 1f 83 bd 9f 47 86 3e
       0.08000119 0.24159044 -0.06402514 0.26226518
000290 c8 d9 81 3e 1f c7 46 3e c1 8c ae 3d 89 84 8a 3e
       0.25361466 0.19411896 0.085229404 0.2705424
0002a0 69 73 76 3e c9 91 76 3e 8f 41 04 bd 15 08 11 be
       0.24067463 0.2407905 -0.032289084 -0.1416324
0002b0 98 e1 17 3d 02 08 d4 3d 9d ba bd bd 9f 31 07 be
       0.037080377 0.1035309 -0.09264109 -0.13202523
0002c0 9b 79 49 be 77 f4 09 bd 14 b0 7b 3e 17 21 ae 3d
       -0.19675295 -0.033680405 0.24578887 0.08502405
0002d0 0e 7f 3a bd 80 41 42 bc 1e 56 2d 3e 0b da ba bd
       -0.045531325 -0.011856437 0.16927382 -0.0912362
0002e0 65 aa ce bd 27 61 c3 bd fd cb 01 be 00 54 1d 3e
       -0.10091094 -0.09540015 -0.12675472 0.15364075
0002f0 25 db 61 3e ec c2 15 be c8 56 42 be f7 b0 40 be
       0.22056253 -0.14625138 -0.18978417 -0.18817507
000300 77 f3 07 3e e7 7e 72 3e de f2 ea bd c4 57 d3 bd
       0.13276468 0.23681222 -0.114721045 -0.10319474
000310 74 00 b5 3d 72 a3 92 bd 9b f4 73 3e 79 ef 94 3d
       0.08837977 -0.07160081 0.23823778 0.07272238
000320 89 09 86 bd 01 73 6f bc d5 3d bb 3c e0 2a c8 bd
       -0.065447874 -0.014614821 0.022856632 -0.09773803
000330 ea a5 2e be d4 97 c5 bc 0e 56 fd bc 20 81 fd bc
       -0.17055479 -0.024120249 -0.030924823 -0.03094536
000340 01 05 5e bd 0a 86 05 3e 97 2a a8 bd c7 c1 57 bd
       -0.05420399 0.13039413 -0.08211248 -0.052675035
000350 ce e9 48 3d 8e a9 0a be 2a db 9f 3d 41 75 84 bd
       0.0490511 -0.13541242 0.07805474 -0.06467677
000360 a6 e2 9c 3d 68 dd f7 bd c0 2f d2 3c f0 70 85 3d
       0.07660417 -0.12102777 0.025657535 0.06515682
000370 bf 67 2f be ab fe 17 be 3c f3 ab 3d 07 f3 bc bc
       -0.1712942 -0.14843242 0.08396003 -0.023065103
000380 f0 00 35 3e e7 02 7b be 9a 5d 1b be 8c 92 68 be
       0.17676139 -0.24512826 -0.15172425 -0.22712153
000390 4d 01 72 3d 02 4d 5f 3d 4e e8 c5 bd ca 13 bb bd
       0.05908327 0.0545168 -0.09663449 -0.09134634
0003a0 f5 a2 59 be 84 52 7f 3d ff 6a cc 3d f0 74 4a be
       -0.2125357 0.062334552 0.099813454 -0.1977117
0003b0 1a 4a 6e 3c 1f 30 3d bd 12 71 1d be 9b e2 71 3e
       0.014544034 -0.04618847 -0.15375164 0.236216
0003c0 7b 81 86 3d 0b 79 9f bd f1 51 1b be 94 a6 bc 3d
       0.06567665 -0.07786759 -0.15167977 0.0921146
0003d0 bc 0a 92 3e 4f 1d 39 3e 32 68 1a be 44 c5 66 bd
       0.28523815 0.18077587 -0.1507881 -0.05634047
0003e0 bf ba 91 3e ed 2f 82 3e
       0.28462788 0.2542719

conv1.bias f4 [10]
000000 4e f6 1c 3e c0 0b 9d bd 74 7b 5d 3e 59 38 fe bd
       0.15328333 -0.07668257 0.21629125 -0.12413091
000010 9c 26 80 3c d2 4f 47 3d 5f d4 78 3d f7 78 0e be
       0.01564341 0.048660107 0.060749408 -0.13913332
000020 eb 4f 51 3e a8 f8 6a 3e
       0.20440643 0.22946417

conv2.weight f4 [20, 10, 5, 5]
000000 e5 1d ba bc d4 98 60 3c 00 24 d5 bc 19 fd 8a 3d
       -0.022719333 0.013708312 -0.026018143 0.06786556
000010 d4 aa 06 3d 95 23 76 3d c8 60 5a 3d 12 9a 05 3d
       0.03287776 0.060092527 0.053314954 0.032617636
000020 0e 8d 63 3d 22 f3 48 3c d4 cc 44 bc 57 81 3f 3d
       0.055554442 0.012264999 -0.012011725 0.046754207
000030 4f d4 d9 3c e6 28 0b bc 4a 3d 08 3b c9 8a 81 bd
       0.026590494 -0.008493638 0.0020788484 -0.06325299
000040 68 05 0e bd 7f 7f 30 bd 3e fe 19 bd f9 c3 75 bd
       -0.034673125 -0.04309034 -0.03759598 -0.060001347
000050 5e 04 da 3c 2c 33 bc bd 2e 61 ee 3c 72 e5 80 bd
       0.02661341 -0.09189448 0.029099073 -0.06293763
000060 ef 1f d7 bc 6e 25 f0 3c a9 41 93 bc 11 dc 32 bd
       -0.026260344 0.029314723 -0.017975645 -0.043666903
000070 6e 7f 86 bd 29 d8 2d bd 50 4c 8b 3d 1e 07 f0 bb
       -0.06567274 -0.042442475 0.06801665 -0.007325067
000080 2a 8e 72 3d dc ff 9b bc 0d 7c 25 bc 12 eb 88 3d
       0.05921761 -0.019042902 -0.010100377 0.06685461
000090 ff 9b 2b 3d 8b 65 f4 3c f7 00 70 3d 69 3c 2e 3d
       0.041896816 0.029833576 0.05859467 0.04253808
0000a0 b9 f5 08 3d 8b ea 9e 3d d2 b8 c1 3d f9 8a 20 3d
       0.033437464 0.07759579 0.0945908 0.039195035
0000b0 d0 9c 37 ba 6c 62 47 3c ba a4 53 ba 84 3e 69 bd
       -0.0007004263 0.012169462 -0.00080735574 -0.056944385
0000c0 fd 28 03 bd f3 37 0f 3d 6a b9 cf 3b e7 49 f1 3c
       -0.03202151 0.034965467 0.0063392418 0.029454185
0000d0 aa 55 dc bc bc e0 65 3d cf 5a c3 bc 8f 26 9b 3b
       -0.026896317 0.056122527 -0.023847012 0.004734821
0000e0 4c 64 33 bd 31 f3 0d bd 0c 91 06 3d 87 c2 2c bc
       -0.043796822 -0.034655754 0.03285317 -0.010544426
0000f0 cc 49 83 bd 86 36 73 bd 48 e7 02 3d f6 77 19 3d
       -0.0641056 -0.05937817 0.03195885 0.03746792
000100 f2 0e ed 3c 0d b9 a3 bd 2a 73 27 3b bc 8f a0 3b
       0.02893779 -0.0799428 0.002555082 0.004899947
000110 51 13 4a bd ce d9 29 bc de 91 f5 bb b9 b9 57 bd
       -0.049334828 -0.01036687 -0.0074941954 -0.052667353
000120 5d 64 b7 bc be 21 68 3d d5 3d 31 bc 32 69 b9 3a
       -0.022386724 0.056672804 -0.010817965 0.001414573
000130 7d 89 92 bd e1 79 a5 bd da 63 42 3d 68 40 d1 3c
       -0.0715513 -0.08079887 0.047458507 0.025543407
000140 29 55 1e 3c 87 67 6c 3d ba c2 43 ba 66 13 c4 bc
       0.009663858 0.05771592 -0.0007467676 -0.023935031
000150 4e dd 54 bd 90 ba 4f 3d 21 28 fc 3c 22 9b d0 3d
       -0.051968865 0.05071503 0.030780854 0.10185839
000160 ea a4 bb 3d 98 4f 44 3d 71 27 61 3d f3 ef df 3c
       0.09162314 0.04792747 0.054969255 0.027336096
000170 4c 14 ba 3d 8f b5 fc bb 8a a6 03 3c e1 7f 85 bc
       0.090859026 -0.007712073 0.0080353115 -0.016296329
000180 36 28 6d bd 60 2a 2d 3c 4b 5d 09 bd 65 d7 fd bc
       -0.057899676 0.010569185 -0.033536237 -0.030986497
000190 6f 98 35 3d de 76 a2 3c a5 3f 41 bd 3b c6 1c bb
       0.044334825 0.01983207 -0.047179837 -0.0023921866
0001a0 fe cf 0b 39 d1 d0 a7 3d b2 06 7c 3d 2d 3b 91 3d
       0.00013333556 0.081941254 0.061529823 0.07091365
0001b0 bd 09 4f 3d 2f ec 41 bd e8 07 a3 3d 34 c5 15 3d
       0.050546397 -0.047344383 0.07960492 0.03656502
0001c0 70 47 c3 3d 20 90 89 3d 62 44 0d bc bf 04 12 3c
       0.0953511 0.06716943 -0.008622261 0.008912264
0001d0 7f 97 33 3d 68 80 2a 3d 95 67 36 bd b6 78 9c 3c
       0.04384565 0.041626364 -0.044532377 0.019100528
0001e0 8c e6 d4 39 fb 68 27 3c eb f1 74 bb c3 b3 8c bc
       0.00040607562 0.0102179 -0.003737564 -0.01717556
0001f0 52 1f 98 bd 55 06 cf 3c 3b 7b 97 bd bc 38 7a bd
       -0.07427849 0.025271574 -0.07396551 -0.061089262
000200 57 8e 6f bc f7 96 0e 3c df f7 cf 3c fe 2a ec bc
       -0.014621339 0.008702985 0.025386749 -0.028829094
000210 12 2e 5e bd 3a 6b 8c bc 74 82 4e 3c ca f6 16 bd
       -0.054243155 -0.017140973 0.012604345 -0.03685645
000220 83 4e 71 bd aa 85 af 3c cc 08 31 bd 0b 91 1e bd
       -0.058912765 0.02142604 -0.04322128 -0.038712543
000230 90 9f 93 3d 96 48 8b bc e3 d3 f8 bc 95 a6 7d 3d
       0.072081685 -0.017002385 -0.030374473 0.061926443
000240 e1 12 b3 bc 63 f1 be 3c 46 93 bf 3d ad 57 d7 ba
       -0.021859588 0.023308462 0.09354262 -0.0016429328
000250 e7 ab 9a 3d b6 37 8a 3d 7c a8 13 3d de 1a a0 bc
       0.07552319 0.06748907 0.03604935 -0.019544061
000260 7f 78 92 bd 59 18 81 3c 4b 6a 50 bd 01 ac e5 bc
       -0.07151889 0.01575868 -0.05088262 -0.02803612
000270 e4 fb d2 bc ad 2e 21 3d e8 23 17 3c 3e c6 19 3d
       -0.025754876 0.039351154 0.009224869 0.037542574
000280 80 e8 b0 3d 78 3c 62 3d 74 cb b0 3d ab ed eb bb
       0.08638096 0.05523345 0.086325556 -0.007199963
000290 9c 7a f0 bc f3 66 31 bc e0 73 ba 3d 6f c0 d1 3d
       -0.02935534 -0.010827768 0.09104133 0.10241782
0002a0 2e 68 a1 3c bc 59 95 3d 71 98 48 bd 1b b6 fe 3b
       0.019702997 0.07292506 -0.048973504 0.0077731735
0002b0 1d d1 73 ba 1c 3f f2 bc 7b 81 e4 bc dc 7f f8 3c
       -0.00093008747 -0.029571109 -0.027893772 0.030334406
0002c0 99 2e 0c bc 25 13 9d bc 9e b4 33 3d b6 db 20 bd
       -0.008556032 -0.019174168 0.04387342 -0.039272033
0002d0 7e b2 38 3d d6 f2 76 3d 89 cb 36 bd 2f 65 6d bd
       0.0450921 0.06029018 -0.0446277 -0.057957824
0002e0 8d af 2a 3c fb 56 5b bd 58 2a c7 3c 9f 56 6a bd
       0.010417831 -0.053549748 0.024312183 -0.057211515
0002f0 b7 2b 53 bd 11 01 91 3c ca bd 03 bd 87 e9 84 bd
       -0.05155536 0.017700704 -0.03216342 -0.06489854
000300 84 f2 28 3c 50 5b 41 3c 99 42 09 3b c9 d8 9a 3c
       0.0103117265 0.011801556 0.0020944236 0.0189022
000310 68 da 1d bd ee db 15 3d 0c 5f 6e bd 1b 80 6a 3d
       -0.038538367 0.036586694 -0.058196113 0.057251077
000320 7d d4 26 3d c0 4b 86 bd 04 9f bd bb 2a f5 cc bc
       0.04072999 -0.06557417 -0.0057867784 -0.025019247
000330 34 6c 83 3d 70 55 14 bc be 90 df 3c f1 a2 38 3d
       0.064171225 -0.009053573 0.027290698 0.045077268
000340 56 52 64 bd 7c 38 0e 3d 59 90 81 bd 4e fd e1 bc
       -0.055742584 0.034721836 -0.0632636 -0.027586605
000350 ea 2c 27 bd 52 20 93 bd 5b 40 84 bd 05 c7 8b bd
       -0.040814318 -0.07183899 -0.06457587 -0.06825069
000360 b5 cb 78 bd b5 88 53 bd 7f 11 00 bd 22 9a da 3c
       -0.060741145 -0.051644046 -0.031266686 0.026684824
000370 19 52 6a bc 2a 0b 8a bd fb b7 5b bd d4 ae 31 3d
       -0.0143018 -0.067404106 -0.053642254 0.04337962
000380 67 3e 7a bd b5 17 2e bd f3 a6 9b bd 16 bb 0c 3d
       -0.061094668 -0.042503078 -0.076002024 0.034358107
000390 45 20 57 3d 94 6b 62 3c b2 f9 21 bd 99 a4 80 bc
       0.05252101 0.013819594 -0.03954477 -0.015703486
0003a0 13 c8 a8 3c d8 27 25 3d 48 71 27 3c 2c e9 fc bc
       0.020603215 0.0403212 0.010219879 -0.030872904
0003b0 2a ca 81 bb 1c 4e e7 bb 7c 77 21 39 f4 64 10 3d
       -0.0039608674 -0.007058872 0.00015398668 0.035252526
0003c0 f7 01 1b bd c8 fe df bc b7 6c 09 bd da a4 99 3b
       -0.03784367 -0.027343169 -0.033550944 0.0046888413
0003d0 7c 9b 3c bd 70 49 93 bd 3d 54 b6 bd 68 aa 7d bc
       -0.04604672 -0.071917415 -0.08902786 -0.015482523
0003e0 bb b6 da 3c 28 d4 64 3d d7 d5 cb 3c 45 49 51 bc
       0.02669846 0.05586639 0.02488224 -0.0127738165
0003f0 b9 c6 6a 3c 25 ca 82 bd 8b d1 d1 3b 3c 4c 5d bc
       0.014329606 -0.06386212 0.0064031533 -0.013506945

conv2.bias f4 [20]
000000 da 63 f4 bc 8f 21 33 bd 8b 9b f0 3c ca 07 07 bc
       -0.02983277 -0.043733176 0.029371044 -0.008241603
000010 01 2b e8 3c 7a 6a 80 3b 02 df 27 3a 66 42 40 3d
       0.028340818 0.003918943 0.0006403775 0.046938322
000020 26 c0 d3 3c 57 61 60 3d 10 60 49 bd 80 08 fc 3c
       0.02584846 0.05478033 -0.049163878 0.030765772
000030 6e ec 40 bd 7b 26 4e bd 1b 43 3f 3d 8f b5 0b 3d
       -0.047100477 -0.050329667 0.046694856 0.034108695
000040 62 cc 19 bd e3 93 26 bd 1a fb 28 bd c8 7d 34 3d
       -0.03754843 -0.04066838 -0.041255094 0.044065267

fc1.weight f4 [50, 320]
000000 29 b9 c6 3c fd c6 47 3b fc 7f 72 bd c1 63 7a 3c
       0.024258213 0.0030483596 -0.059204087 0.015282572
000010 ac 14 f7 b9 87 66 7f 3c e4 ee 6c bc 07 6d dd 3c
       -0.00047126913 0.015588409 -0.014461253 0.027029527
000020 00 1f c9 3b c3 ab 2f 3c 31 3d d0 bc 52 46 6c 3a
       0.0061377287 0.0107221035 -0.025419803 0.0009013164
000030 a7 ee 6c bb 98 d2 e4 bc 67 24 44 3d 16 ed 60 3c
       -0.003615299 -0.02793245 0.04788628 0.013728401
000040 98 d6 fa 3c 6d b4 c4 bc 67 d8 5d 3b b4 f5 3c 3d
       0.030619904 -0.024011815 0.003385091 0.04613276
000050 ed 9b 61 bd c3 82 59 bc 2c 02 b1 3d dc f7 9a b9
       -0.055080343 -0.013275805 0.086429924 -0.0002955784
000060 4c 96 02 3d 01 7b a7 bc 82 a5 00 3d 98 89 2f 3d
       0.031881616 -0.020444395 0.03140784 0.04285583
000070 30 aa b6 ba dc f6 f1 bc 6e 8c 85 bd ef 32 d6 bc
       -0.0013936218 -0.029536657 -0.065209255 -0.026147334
000080 3e 4c 3a bd 50 2c a1 bb ab 2c eb 3c c9 d2 e4 3c
       -0.045482866 -0.0049186125 0.028707823 0.027932541
000090 d0 c9 d6 3b 76 4d 27 bd c6 ea e8 3c 58 80 e0 3b
       0.0065548196 -0.040845357 0.028432261 0.0068512373
0000a0 59 0c df bc fe 71 f9 bc 5a 46 23 bd 0a 75 09 3c
       -0.027227568 -0.030449864 -0.039862014 0.008389721
0000b0 46 89 f5 bc 90 e5 11 bd 32 b2 37 bd f1 1c f1 bc
       -0.029972684 -0.03561932 -0.044847675 -0.029432746
0000c0 07 99 78 bc 9b 8a 49 3d 59 93 55 bd 4a e0 68 bd
       -0.015173203 0.04920445 -0.052142475 -0.056854524
0000d0 5a 3b 2b 3d 75 78 a9 3c 9b b0 da bb d9 27 f1 bc
       0.04180465 0.020687321 -0.006673885 -0.029437946
0000e0 d4 01 7e 3c 5c d9 3f bb 06 79 af bb 78 64 4e 3d
       0.015503366 -0.0029273843 -0.0053550033 0.050388783
0000f0 71 f0 31 3c e7 c3 0c 3d ea b4 cd bc f2 ba c5 3c
       0.010860548 0.034366515 -0.02511068 0.024136994
000100 43 e2 bf bc 44 fb a5 3b 72 64 41 bd df 57 0d bd
       -0.02342332 0.0050653536 -0.047214933 -0.03450763
000110 19 ff 87 bc 6e 5f 11 bd 7e 34 9d 3c be 01 8e 3d
       -0.016601132 -0.0354914 0.01919007 0.06933926
000120 4e 5b 8b 3d 82 ca a5 3b 63 2d a1 bc 42 6b 81 3c
       0.06804524 0.005059541 -0.019674962 0.015798215
000130 49 03 b6 3d 4e 44 18 3d e5 6b dc bc fb 79 03 bd
       0.08887345 0.037174515 -0.026906917 -0.03209875
000140 c4 75 51 3d 3d 19 02 3d 20 55 74 bd ab 87 0f bd
       0.0511377 0.03176235 -0.059651494 -0.035041492
000150 2c b2 cc 3c 4b 4d f7 bc ba 08 11 3d d2 a8 01 3d
       0.024987303 -0.030188223 0.035408713 0.03165514
000160 51 23 29 bd a8 81 2e 3d 2f 4f 41 ba db 1b 62 bd
       -0.041293446 0.04260412 -0.0007374165 -0.055202346
000170 64 75 d8 3a a2 d5 08 3d cc b6 5b 3c d9 b2 2c bd
       0.0016514477 0.03340686 0.013410281 -0.04216275
000180 b5 72 0e ba ad fe 5e ba 18 39 4f bd fe ca 2b 3d
       -0.0005433963 -0.00085065776 -0.05059156 0.041941635
000190 8d d8 97 bc 8b fa a3 3c 49 80 50 bc 2b 04 30 bd
       -0.018535877 0.02001693 -0.012725898 -0.042972725
0001a0 06 a4 fa bc 0a f3 d3 3b bb 60 63 3d 0f 3a b7 3b
       -0.03059579 0.0064681815 0.05551217 0.005591638
0001b0 08 0e d9 3c 75 27 96 3c 86 ae 1c bd b5 c4 3b bb
       0.026495948 0.018329361 -0.038252376 -0.0028651182
0001c0 08 e8 3b 3d 9c 35 7b ba 58 7c 4e 3c e3 d7 96 3d
       0.04587558 -0.00095828786 0.012602888 0.07365396
0001d0 d7 e5 d0 3c f5 92 08 bc 9a 46 14 bd fc 2a 36 3d
       0.025500221 -0.008335819 -0.036200143 0.044474587
0001e0 6c 01 b5 ba e7 ca ac 3d 0e 0f 4e bd 99 78 3e 3d
       -0.0013809628 0.08437138 -0.050307326 0.04650173
0001f0 19 45 66 3d 47 8a 89 bd 60 70 67 bd 2c 5d d2 3c
       0.05621824 -0.067158274 -0.056503654 0.025679193
000200 53 2f 3c ba ef 80 02 bd b5 00 8b 3b 6a b9 89 bb
       -0.0007178683 -0.031861242 0.0042420276 -0.0042030113
000210 45 2f 68 3c 96 6b 5f 3d 4a 06 5b bd f5 2f 77 bc
       0.014171426 0.05454596 -0.053472795 -0.015087117
000220 ff 1f 89 3c c9 60 a1 3d 18 e4 5e bd d0 3b c6 bc
       0.01673889 0.078797884 -0.054416746 -0.024198443
000230 b4 1c 50 3d 57 5f c8 3d 1f 07 2a 3c da 1c 20 3c
       0.050808623 0.0978381 0.010377674 0.009772504
000240 4a 3e d2 3c cb 1e c5 bc 45 3a 1d 3c ca b7 8d 3d
       0.025664467 -0.024062535 0.009596412 0.069198206
000250 e3 67 43 3d 0f 5a 22 bd 44 c6 da 3c 4c 4e 85 3d
       0.047706496 -0.039636668 0.026705869 0.065090746
000260 d0 1e fe 3c e0 9f 71 bc cb 03 e6 bc 31 09 2c bd
       0.031020552 -0.01474759 -0.02807798 -0.042000953
000270 bb cb 59 bb 14 98 42 3d 88 cb 53 bc c2 6d 24 bc
       -0.0033233005 0.047508314 -0.012926944 -0.010035934
000280 72 66 99 bb 9e a7 8e 3c 6e 41 da 3b f9 6e f0 bb
       -0.004681402 0.01741391 0.006660632 -0.0073374477
000290 52 bd 41 bd db 6d 57 3c da bd 01 bd 3b d0 3b bc
       -0.04729969 0.01314875 -0.031675197 -0.01146322
0002a0 ca 53 1f bc 45 65 93 3b c5 a1 9e bc e1 b7 c9 39
       -0.009724567 0.0044981563 -0.019364247 0.00038474708
0002b0 eb 0a ed 3c d0 ce d5 3d e0 06 d1 3c 39 bb ac 3c
       0.02893587 0.10439837 0.025515974 0.021085368
0002c0 f5 af 0f 3d 9b e6 b8 3c 5b 30 09 bd d6 33 38 bd
       0.035079915 0.022570899 -0.03349338 -0.04497131
0002d0 e4 0b 15 bd cf 6b 7f bc 05 4c 0f bd 7d b4 39 3d
       -0.036388293 -0.015589668 -0.034984607 0.045338143
0002e0 ad 39 4f bc 03 cb 86 bc 22 16 ed bc 96 84 8f bc
       -0.012648028 -0.016454225 -0.028941218 -0.017519277
0002f0 e3 3b 28 bd d1 9a 86 3d 27 ad 17 3d 69 32 27 bd
       -0.041072737 0.06572498 0.037030365 -0.04081956
000300 95 a6 71 3d c1 19 e0 ba b6 8f 24 3b f0 53 5d 37
       0.058996756 -0.0017097519 0.0025110072 1.319217e-05
000310 4b a2 ab ba 93 db 91 3c 77 55 33 3d 02 d7 76 3d
       -0.0013094632 0.017804896 0.043782678 0.06026364
000320 a3 53 81 3d dc 97 36 3d 54 64 dd bb 53 24 2f 3c
       0.063147806 0.044578418 -0.006756345 0.010689813
000330 4b 10 a7 3c 28 8b 17 bd d3 fc 27 bd f2 69 75 bd
       0.020393511 -0.036997944 -0.041012596 -0.05991549
000340 52 dc 61 bd 51 5f e9 bb 6e 97 95 bc 55 94 53 bd
       -0.055141754 -0.0071219583 -0.018260684 -0.051655132
000350 44 db a6 bc 00 37 04 3d 46 a3 d9 bc 93 cc 4c bc
       -0.020368226 0.032279015 -0.026567113 -0.012499946
000360 ef 30 9b 3b c6 d6 f7 3c 70 c2 07 bd f9 34 1f bc
       0.004736058 0.03025378 -0.033144414 -0.0097172195
000370 33 c7 bd 3c ea 25 3e 3c bc ca 5e 3d 46 d9 41 bd
       0.023166275 0.011605719 0.05439256 -0.04732635
000380 71 23 1c 3b d6 11 a9 3c 00 37 89 3b a7 cf 0c 3d
       0.0023824836 0.020638388 0.0041874647 0.03437772
000390 44 23 d4 3c 17 33 64 3d df 64 52 3d 5b cd 1e bd
       0.025895722 0.055712786 0.05136573 -0.03877006
0003a0 2a 00 a0 3c e6 00 64 3d 18 21 27 bd 67 2d 5a bc
       0.019531328 0.05566492 -0.040803045 -0.013316489
0003b0 6b dd 14 3c 8c 04 48 3d 40 49 e9 3c 55 1c b3 3c
       0.009085993 0.04883246 0.028477311 0.021864096
0003c0 ac c7 01 bd bb 53 d9 bb a1 fd 80 3c da a8 ae 3c
       -0.031684563 -0.006632296 0.01574594 0.02132075
0003d0 08 a1 41 3d fc 14 fe 3c b2 7f 9f 3d 22 1b f2 bc
       0.047272712 0.031015866 0.07788028 -0.029553954
0003e0 f8 f5 bb bc 1c f6 98 bc 40 2f 25 bd bd 9d b5 3b
       -0.022944435 -0.018672042 -0.040328264 0.0055424855
0003f0 74 98 e8 bb 19 17 02 3d 60 2b 5f 3c 8b e3 4e bb
       -0.007098252 0.03176031 0.013621181 -0.0031568732

fc1.bias f4 [50]
000000 4d 87 13 3d d7 36 3a bd f2 c9 a1 3c b4 f5 91 3c
       0.036017705 -0.045462456 0.019749615 0.017817356
000010 da c3 df bc 6e 67 2a bd da 29 95 bc 16 53 bb 3c
       -0.027315069 -0.041602544 -0.018208433 0.022866767
000020 24 95 35 3c ea 45 03 bd a6 b1 1f bc 2c 4c cd bc
       0.011082921 -0.032049097 -0.0097469445 -0.025060736
000030 62 82 c8 3c 38 58 9f 3c 19 d6 22 3d 2d a9 ba 3c
       0.024476234 0.019451246 0.03975496 0.022785747
000040 1a ca 96 3c 86 08 85 bb 9a 9d 39 bd 2f 35 24 3c
       0.018406916 -0.004059854 -0.045316316 0.010022446
000050 78 77 5d 3d a3 d1 20 3d 41 c3 67 3c a2 72 e8 bc
       0.054069012 0.039262425 0.014145673 -0.028374974
000060 31 ce 29 bd 48 6e 9a ba b2 fb 01 bd e3 cd f8 3c
       -0.041456405 -0.0011782134 -0.031734176 0.030371612
000070 19 48 35 bd 89 59 c7 bc fd 1a 36 bd 7d b6 52 bc
       -0.04425821 -0.024334686 -0.04445933 -0.012860891
000080 10 ca d3 3b e8 2f 17 bd 94 4d 9d bc d0 2b 92 bc
       0.0064632967 -0.03691092 -0.019202031 -0.017843157
000090 a6 6c 54 3d 00 d2 f7 bb f6 9d c4 3c c1 12 fe 3c
       0.051861428 -0.0075628757 0.024001103 0.031014802
0000a0 84 b6 73 bc 1f 52 a0 bb 60 1a 08 bd e9 32 c1 bc
       -0.014875058 -0.004892602 -0.03322828 -0.023583846
0000b0 16 26 89 bb 5f b1 0f 3d 9d 15 95 ba 0c 65 95 3c
       -0.0041854484 0.035081264 -0.0011374239 0.01823666
0000c0 0e cd 75 3b 3f 0a e0 3b
       0.0037506255 0.006837159

fc2.weight f4 [10, 50]
000000 ce 27 1d 3e 68 2b e5 bd 88 37 15 3e 6a 50 dd bd
       0.15347216 -0.1118992 0.14571965 -0.108063534
000010 9c 34 42 be 99 f2 a8 bc 7a d7 5e 3d c0 47 22 be
       -0.18965381 -0.020623492 0.054404713 -0.15847683
000020 bf 94 88 bc 4b b8 41 bd ea b0 e2 bd 3f 40 13 3e
       -0.01667249 -0.047294896 -0.110689 0.14379977
000030 09 8f c2 bc 11 e7 31 bd 8b 8f 28 bd 04 77 be bd
       -0.023749845 -0.043433253 -0.04115252 -0.09300044
000040 f0 5b 59 be 75 bc 64 be a0 9e 87 3d 10 f0 96 bd
       -0.21226478 -0.22337516 0.06622052 -0.07370007
000050 fa 89 18 3e 10 3a 23 bc 0c 73 c1 bd 42 10 7b 3d
       0.14896384 -0.009962574 -0.094457716 0.0612948
000060 52 d0 eb bc a2 15 f2 3d 89 50 b4 bd 7e fc d4 bc
       -0.028785858 0.118205324 -0.08804423 -0.025999304
000070 57 dd 66 bd 19 bb ea 3d 40 90 06 be f1 02 7d 3d
       -0.05636343 0.11461467 -0.13140965 0.061770383
000080 ed 51 0a 3e 80 4e 21 3d 5a 09 96 3d ac 44 11 3d
       0.13507815 0.039381504 0.073260024 0.03546588
000090 3a ac 3a 3e e9 32 07 3e 06 2c 27 3e 82 40 40 3e
       0.18229762 0.13203014 0.16325387 0.18774608
0000a0 c5 3a ba 3c 4a 7f 2d 3e 86 cd 8e bd 49 54 b4 3d
       0.022733102 0.16943088 -0.06972794 0.088051386
0000b0 ce b3 c2 bd 09 36 8d 3c bc d9 93 3d d6 ac f9 bc
       -0.09506951 0.01723768 0.07219264 -0.030477922
0000c0 81 1d 89 3d 4a 21 d7 3d f2 14 cd bd 14 6b 31 bd
       0.066950805 0.10504396 -0.100137606 -0.04331501
0000d0 bf f3 e3 bd c6 38 1f 3e 16 0c 8f 3d be 48 0a 3e
       -0.11130475 0.15549001 0.06984727 0.13504311
0000e0 44 94 b1 3d 02 48 24 3e 73 fa 62 be 81 ad 2f be
       0.086708575 0.16043094 -0.22165851 -0.1715603
0000f0 7b d8 66 bc 69 7e 60 3c fd e2 b8 3d e7 28 e1 3d
       -0.014089699 0.0137020135 0.090276696 0.1099413
000100 7f 41 c6 bd 22 ed 4b 3e ac e4 ad bd 32 64 3f 3e
       -0.09680461 0.19914678 -0.08490881 0.18690565
000110 21 78 e3 3d d8 7a d2 3d 7e 9e 84 3b 71 a9 3f be
       0.11106897 0.10277337 0.004047214 -0.1871698
000120 80 f9 27 be 13 36 f0 3d b4 10 53 3d b0 52 c4 bd
       -0.1640377 0.11729064 0.0515296 -0.09586084
000130 cc ac 07 bd 37 45 d7 bd 9a f9 01 3e 44 d1 45 3d
       -0.033123776 -0.105112486 0.12692872 0.048295274
000140 bb bf 5f 3d 2c 50 29 3e de 32 b7 3d a6 37 61 3d
       0.054626208 0.1653449 0.08945249 0.05498471
000150 2f dd 11 bd 48 59 c4 bd 9a 27 b3 bd fc 7e 0c 3c
       -0.035611328 -0.095873415 -0.08747788 0.008575197
000160 99 8e ec bd fb 14 cc bd f9 78 4a be 61 b0 bb 3d
       -0.11550636 -0.09964939 -0.1977271 0.09164501
000170 ec 42 11 be 36 7d d6 3d 27 b3 28 3e 6a 9c d5 bd
       -0.14185685 0.10473101 0.16474591 -0.10430224
000180 7d ff 28 3e 6c 48 1c be 77 e5 bf 3d ee d3 2b be
       0.16503711 -0.15262002 0.09369939 -0.16780064
000190 f3 d1 5a 3d 7a 98 36 bd e7 14 22 be ea 29 05 3e
       0.05342288 -0.044579007 -0.15828286 0.1300427
0001a0 c7 82 6e bd 88 c1 c4 bd ac a5 34 3e 9a 61 3b bd
       -0.058230188 -0.09607226 0.17641324 -0.045747377
0001b0 5c 2d 1b be 0e ae cc 3d f0 fb 1c bc 77 d4 6d 3d
       -0.15154022 0.09994136 -0.009581551 0.05806395
0001c0 55 0c 98 bd 7e 82 83 bd d7 f1 e0 bd a6 9b 40 3d
       -0.07424227 -0.06421374 -0.10983627 0.047023438
0001d0 ba a5 01 be 3e 13 ab bd bf f5 55 3e 23 2e 28 3e
       -0.12660876 -0.083532795 0.20894526 0.1642385
0001e0 03 ec 08 be ac c0 ae bd 25 e4 f8 3c 2a 8a be 3d
       -0.13371281 -0.08532843 0.030382225 0.093036965
0001f0 16 fa 33 3e 0f 88 04 3e bd 26 8d 3d 58 ed 0a be
       0.17575869 0.12942527 0.06892154 -0.13567102
000200 e6 46 c8 3c 48 6b 12 3e 44 6b b7 3d 2a 25 03 3e
       0.02444787 0.14298737 0.08956006 0.12807146
000210 64 52 16 3e a3 de 1b 3d 96 51 35 be bb 92 37 bd
       0.14679867 0.03805412 -0.17706904 -0.044817667
000220 37 dc 9b bd e8 c4 f4 3d e8 20 9e 3d 64 bd 40 3d
       -0.07610362 0.119516194 0.0772112 0.047055617
000230 95 7f 97 bc d3 7a 1e 3d ae ae dd 3d c2 e5 06 3e
       -0.018493453 0.038691353 0.10824333 0.13173583
000240 0b cb f1 bc 35 21 a6 3d 35 64 ad bd 3e f3 b5 bd
       -0.029515764 0.081118025 -0.084663786 -0.088842854
000250 97 d2 23 bd da 55 00 be 19 b6 f0 bd 43 5a 72 bd
       -0.039995756 -0.1253275 -0.11753482 -0.05916811
000260 bf 16 ec bd 4e 79 64 bd 15 20 4e bd b7 e6 30 bd
       -0.11527776 -0.055779748 -0.050323565 -0.043188777
000270 3d 75 15 be 26 d1 27 be de 23 e4 3d d9 f0 e5 3d
       -0.14595504 -0.16388378 0.111396536 0.11227579
000280 a2 94 ed 3d aa 51 90 3d 2b b5 23 3e ef e1 22 be
       0.11600615 0.07046826 0.15987079 -0.159065
000290 11 ee 8a bd 18 ca 10 3e 8b ff 5a 3d ce f5 2a 3e
       -0.06783689 0.14139593 0.05346636 0.1669533
0002a0 ff f5 10 3d 72 64 d6 3c 38 8f 14 be b6 81 45 3e
       0.03539085 0.026170943 -0.14507759 0.19287762
0002b0 ec c5 17 be ea d7 40 bd 21 48 75 bc d5 8c e3 bd
       -0.14821595 -0.04708091 -0.01497081 -0.11110846
0002c0 fb 8c 74 bd 19 2c e9 3d 93 6c b6 3d 8a 12 2d 3e
       -0.059704762 0.11385364 0.08907428 0.16901603
0002d0 32 84 a2 3d 44 02 9d bd 74 1b ec bd a3 93 d4 3d
       0.079353705 -0.07666448 -0.11528674 0.10379722
0002e0 44 47 56 3d b8 1d de bc dd 42 6a 3d 0a bf 1a 3e
       0.052314058 -0.02711378 0.057192672 0.15111938
0002f0 be 14 ff bd 0f 45 24 3b b6 aa c1 3c 23 87 6e 3c
       -0.12455128 0.0025065576 0.023640972 0.014558586
000300 04 40 ee bd 66 c5 00 3d 17 f5 cd 3d 03 13 4e bc
       -0.11633304 0.031438254 0.10056513 -0.012577775
000310 27 d0 99 bd 08 33 c6 bd 30 e3 aa 3c 2e ce 02 3e
       -0.07510405 -0.09677702 0.020860285 0.12773964
000320 48 dc 2c 3d 7e d1 a7 3d 88 24 f7 bd 6e 66 fa 3b
       0.042202264 0.08194254 -0.12067515 0.007641605
000330 0f c6 29 3e 82 82 ff bd 71 cc 22 3e 8a 5b 1d 3e
       0.1657946 -0.12476064 0.158983 0.1536695
000340 d0 ce ac 3d 85 9e cd 3d 3f 47 0a 3d 71 c0 11 be
       0.08437884 0.10040001 0.03375935 -0.14233567
000350 e0 7e 3b bc d6 32 88 3c 0f 59 d8 3c 97 80 d8 3d
       -0.011443824 0.016625803 0.026409654 0.105714016
000360 93 c8 09 3e 03 29 e9 bd 07 b7 29 bc d7 c3 03 be
       0.13455419 -0.113847755 -0.0103585785 -0.12867676
000370 70 ac 92 3d 69 74 2e bb 85 1c 08 3e ae 7d 17 3e
       0.07161796 -0.0026619679 0.1329213 0.14794037
000380 77 98 90 bd 2b b9 b2 3d 52 bc 04 3e 4d 46 e6 3d
       -0.0706033 0.08726724 0.12962463 0.112438776
000390 15 06 e1 bc 17 45 9c bd f0 f2 a4 bd 51 64 19 3d
       -0.02746872 -0.07630365 -0.08054149 0.037449185
0003a0 8f 1c 28 3d ab d6 f7 bd d5 29 d7 3c 4c 4e 0d bd
       0.04104286 -0.121014915 0.026265064 -0.034498498
0003b0 50 cd 9a 3d 18 94 6a bd 68 35 6a 3d 81 63 79 3d
       0.075586915 -0.05727014 0.05717984 0.06088591
0003c0 ed c3 86 3d 98 97 01 be c7 0e 16 be ea 0a d7 bd
       0.065803386 -0.12655485 -0.14654075 -0.105001286
0003d0 a2 6c 0a be cf 4a bb 3d 12 0b b9 bd cb b9 b8 3d
       -0.13518003 0.09145128 -0.090353146 0.09019812
0003e0 0e f2 e3 3d 5e 5c 3e be 8b 85 9c bd 21 dc 87 3d
       0.11130153 -0.18589923 -0.07642659 0.06633783
0003f0 82 56 1f 3e ec ca f3 3d 6a 83 11 3e 17 6b 17 bd
       0.15560344 0.11903939 0.14210287 -0.036967363

fc2.bias f4 [10]
000000 bc f0 3e be 0a 1c 2a 3d 10 79 21 3e ee 87 3d 3c
       -0.1864652 0.041530646 0.15768838 0.011568053
000010 53 c3 16 be fd 04 6d 3d 7a fc 34 ba 19 5e fe bb
       -0.14722948 0.057866085 -0.0006904077 -0.007762682
000020 e0 33 87 3c 2a 47 1f be
       0.016504228 -0.1555449

momentum_buffer f4 [10, 1, 5, 5]
000000 56 18 19 bd 52 eb 7c bc 68 9c a8 bb 90 e4 44 ba
       -0.037376724 -0.015436964 -0.005145598 -0.0007510865
000010 b6 e3 88 bc 0a 33 33 bd 15 9f e1 bc 7a 2f 03 bb
       -0.016710144 -0.043749847 -0.027541677 -0.0020017312
000020 8b 2c 08 bc 27 52 6c bc 3c 00 61 bd ee 0e 2d bd
       -0.008311401 -0.0144238835 -0.054931864 -0.042250566
000030 6b 01 b8 bc 51 35 f2 bc bc ae cc bc a8 ab 77 bd
       -0.022461614 -0.029566439 -0.024985664 -0.06046644
000040 d3 53 83 bd 2e 4e 82 bd b5 a4 82 bd 10 7d 61 bd
       -0.064124726 -0.06362568 -0.063790716 -0.05505091
000050 40 b7 4d bd f2 48 95 bd 5e 8b 8a bd 91 ca 83 bd
       -0.05022359 -0.07289304 -0.067648634 -0.06435121
000060 3e 18 30 bd 8e 27 0a bd 50 88 a4 bc 74 77 75 bc
       -0.04299187 -0.03372913 -0.02008453 -0.014982093
000070 e4 d8 05 3c 28 a8 8d 3b 68 5a 39 bc 74 13 39 3c
       0.008169387 0.0043230243 -0.011313058 0.011296142
000080 ca 1f d0 3c b6 f0 91 3c dc e4 c7 3a 6a f5 d1 3b
       0.025405783 0.017814975 0.00152507 0.0064074295
000090 10 b1 ea 3c dd b4 32 3d 23 df b5 3c 60 f8 09 3b
       0.028648883 0.043629516 0.022201126 0.0021052584
0000a0 e7 e0 a7 3c b7 9f 3b 3d 7b ac 91 3d b3 3d 0f 3d
       0.020492984 0.045806613 0.07112976 0.03497095
0000b0 05 18 85 3c 45 11 44 3d 1a a8 95 3d a7 08 a7 3d
       0.016246805 0.047868032 0.073074535 0.08155947
0000c0 82 ea 45 3d 42 3a d5 3c ad f2 5b bc e7 9a 50 bb
       0.048319347 0.026028756 -0.013424558 -0.003183061
0000d0 a1 62 29 bc ab 74 7b bc dc 53 2c ba 79 ce a0 bc
       -0.010338456 -0.01534764 -0.00065737753 -0.019629704
0000e0 0f 81 4c bc 51 57 4c bc b4 80 bc bb b4 22 ce 3b
       -0.012481942 -0.01247199 -0.0057526473 0.006290758
0000f0 94 81 cf bc ef 93 a9 bc 6a e2 f3 bb 6a 02 9f 3b
       -0.025330342 -0.020700423 -0.007442762 0.0048525827
000100 bf 4a e2 3b bc 2b 0a bd 43 90 96 bc d0 55 32 bb
       0.006905883 -0.033733115 -0.018379336 -0.0027211793
000110 70 86 00 3c a2 33 47 3c a5 59 07 bd 82 82 9e bc
       0.007844552 0.012158306 -0.033044476 -0.01934934
000120 b8 d8 31 bc 58 da 56 bb 58 d3 25 bb 7c cc 3a bd
       -0.010854892 -0.0032783952 -0.0025302973 -0.045605168
000130 d5 54 e6 bb fe 93 d8 bc 44 70 1e bd 14 b1 49 bd
       -0.0070291557 -0.026437756 -0.038681284 -0.04924114
000140 b7 6d 09 bd f6 6e ec bb f5 64 aa bc f6 00 2e bd
       -0.033551898 -0.007215376 -0.020800093 -0.042481385
000150 38 31 51 bd 40 6e f2 bc 62 45 cc bc d6 9b 1d bd
       -0.05107233 -0.029593587 -0.024935428 -0.038478695
000160 4c dc 35 bd 82 66 17 bd 98 0a 77 3c 10 2f 47 bc
       -0.044399545 -0.036962993 0.015078209 -0.012157217
000170 27 0c ef bc 90 97 d8 bb f0 04 56 3a 10 16 9b 3c
       -0.0291806 -0.0066098645 0.0008164188 0.018931419
000180 80 7c d0 38 34 b9 9f 3b 62 32 56 3c 52 aa c9 3c
       9.941403e-05 0.004874373 0.013073536 0.024617348
000190 00 23 65 bd aa a3 04 bd 23 46 b5 bc 88 1f 0d 3c
       -0.05594158 -0.032382645 -0.02212817 0.008613475
0001a0 1f 75 05 3c 17 a9 42 bd 60 f4 f6 bc 61 1d 2d bc
       0.0081456 -0.047524538 -0.030145824 -0.0105660865
0001b0 ef f8 1d 3c 0b 1f 1d 3c da 1f 07 bd 6e 8e 98 bc
       0.00964187 0.009589921 -0.03298936 -0.018622603
0001c0 78 4b 0a bc bc bc b7 3b 38 42 13 3a 2c 21 39 bc
       -0.008440845 0.0056072157 0.00056174723 -0.011299413
0001d0 18 7d 44 3c 94 8a b0 3c 48 f6 6a 3c 74 34 c2 3b
       0.011992715 0.021550454 0.014340945 0.005926663
0001e0 dc a8 b8 3b b2 3f 0f 3d 4c 09 19 3d f0 94 f2 3c
       0.005635364 0.034972854 0.03736238 0.029612035
0001f0 06 04 f9 3c a4 c4 c7 3c bf a3 c2 3c 22 f4 db 3c
       0.030397426 0.024385758 0.02375972 0.02684981
000200 f4 f8 88 3c 97 78 03 3c 6b 8f 28 3d b9 a0 1f 3d
       0.016720273 0.008024356 0.0411524 0.038971636
000210 b2 9b 14 3d c6 16 14 3d 80 78 0a 3d c8 c4 b8 3c
       0.036281295 0.03615453 0.033806324 0.02255477
000220 77 cc b2 3c 76 f7 c8 3c ad 2c 0f 3d a8 06 f5 3c
       0.021826012 0.024532061 0.034954716 0.0299104
000230 86 f9 37 3c 65 17 41 3c e0 60 0a 3d 2e 81 2d 3d
       0.011228925 0.011785363 0.033783793 0.042359523
000240 d8 75 d2 3c f6 d2 e1 3c 6b f1 d7 3c bf 30 2b 3d
       0.025690958 0.027566414 0.026360234 0.041794535
000250 6e 14 21 3d b6 11 8a 3c f5 ed 3d bd 15 2b 4b bd
       0.039326124 0.016854148 -0.04636951 -0.049601633
000260 0e ef 44 bd d4 a7 03 bd bc 68 ec bc 98 50 2f bd
       -0.048079543 -0.032142475 -0.028858535 -0.04280147
000270 c7 2c 39 bd f0 90 39 bd 37 fd 11 bd 28 ec 0e bd
       -0.04520872 -0.04530424 -0.035641875 -0.034893185
000280 3f 3b 18 bc 52 4d 15 bc 7e f1 92 bc 04 f6 8e bc
       -0.009291469 -0.009112673 -0.017937418 -0.017451294
000290 31 66 00 bb 33 50 ae 3c b4 54 c1 3c a6 12 be 3c
       -0.001959216 0.021278476 0.02359996 0.023202252
0002a0 38 dd a4 3c dc ad d8 3c e9 90 4c 3d dc c4 26 3d
       0.020125017 0.02645009 0.049942885 0.040715083
0002b0 6a 82 2e 3d d5 34 f1 3c e9 55 dc 3c b3 d8 8b bb
       0.04260484 0.029444138 0.026896434 -0.004267776
0002c0 c4 d8 04 bc 44 09 25 bc 36 35 44 bc 6e 2f 5b bb
       -0.008108322 -0.01007301 -0.011975577 -0.0033445018
0002d0 9e 2d 3d 3b 46 d2 2d 3c 48 03 d1 ba 1d 3e 55 bc
       0.0028866301 0.010609215 -0.0015946412 -0.013015297
0002e0 17 b2 1d bc 00 59 29 3c 51 35 1c 3c 2a 13 ac bb
       -0.009624979 0.010336161 0.009534196 -0.005251308
0002f0 b8 d7 9f bc 31 69 bf bc a0 ee ab 38 7f 2b 70 3b
       -0.019512042 -0.023365589 8.198363e-05 0.003664702
000300 84 dc e2 ba b0 fb c1 bc 70 4d cf bc f3 f6 3b bb
       -0.001730815 -0.023679584 -0.02530548 -0.0028681129
000310 10 1b 71 bb 5b d8 fe bb 1d 69 08 bd be e3 23 bd
       -0.0036789812 -0.0077772564 -0.03330337 -0.040012114
000320 98 3e 08 3b e3 d8 17 bb 1c 73 db 3a 3b fd e6 3b
       0.0020789262 -0.0023170046 0.0016742679 0.0070492304
000330 18 de c1 ba 52 4c 83 bb 8c 8e ee ba 60 4c c7 bb
       -0.001479092 -0.004006901 -0.0018200441 -0.0060821027
000340 be fd f5 bb 6c 31 c2 3b 36 10 29 bc 90 05 f9 bb
       -0.007507055 0.0059263017 -0.010318806 -0.00759954
000350 b2 43 e4 bb 46 e9 82 bb 64 63 87 bb bf ed 33 bc
       -0.0069660777 -0.0039950935 -0.0041317213 -0.010981976
000360 64 63 1f bc 90 cf 87 bb 46 01 74 bc 43 2a cb bc
       -0.009728286 -0.0041446164 -0.014892882 -0.024800425
000370 bd df 73 bc e6 ab 8c bc ae 38 96 bc db dd d9 bc
       -0.014884886 -0.017171811 -0.018337574 -0.026595047
000380 f5 67 4c bd c0 4b ac 3a ff ac 87 3b 74 8d 9f 3c
       -0.04990383 0.0013145134 0.004140496 0.01947663
000390 4a 1a 86 3c 2c 58 41 bc 4f bd b3 bb e0 cf 11 3a
       0.016369957 -0.011800807 -0.005485214 0.0005562287
0003a0 18 25 33 3c ea 6c 19 3c 4c c1 33 bc 7c 08 a8 bc
       0.010934137 0.009364346 -0.010971379 -0.020511858
0003b0 88 94 bf bc 72 3f 64 bc 72 08 92 bc ba e8 dc bc
       -0.023386255 -0.013931142 -0.017826293 -0.026966441
0003c0 c0 67 2a bd 5d 7d 13 bd fa 0b 45 bc ff cd bd bc
       -0.04160285 -0.036008228 -0.012026781 -0.023169516
0003d0 0a b4 f4 bc 6f 9c 34 bd 2e dc 35 bd 8b 11 df bc
       -0.029871006 -0.0440945 -0.044399433 -0.027230045
0003e0 71 84 92 bc cc ea 1c bc
       -0.017885419 -0.009577464

momentum_buffer f4 [10]
000000 88 df fe ba c7 77 75 3c 4e 61 2e 3b d8 e5 c8 bb
       -0.001944528 0.01498217 0.002660829 -0.006130915
000010 fe d8 f9 3b 4e 6f f0 3a 59 cc fd 3a a6 50 05 bc
       0.0076247444 0.0018343718 0.0019363269 -0.008136904
000020 d0 09 3e bb 84 b5 36 bb
       -0.0028997548 -0.0027879188

momentum_buffer f4 [20, 10, 5, 5]
000000 be 72 3f bc 73 51 ca bc bc e2 f8 bc d6 8c 13 bd
       -0.0116850715 -0.024697041 -0.030381553 -0.036022983
000010 07 6d 0b bd a7 bf 1d bc 3b fa 03 bd 54 b6 12 bd
       -0.034039523 -0.009628213 -0.03222106 -0.035818413
000020 33 89 06 bd 9e b6 ff bc 98 8c 13 3d a3 5e 0c 3d
       -0.032845687 -0.031215008 0.036022753 0.03426994
000030 58 f7 de 3c 93 9e c6 3c b8 35 11 3b 14 5a 75 3d
       0.027217552 0.024245536 0.0022157263 0.05990036
000040 9e 13 71 3d 28 bd 29 3d d4 03 02 3d 14 40 e8 3c
       0.0588566 0.04144016 0.031741932 0.028350867
000050 94 78 24 3d 4a 7a c5 3c d1 a8 6b 3c d4 0a 7d 3c
       0.040154055 0.024106164 0.014383511 0.015444476
000060 1a ee c9 3c e9 c3 38 bd 5a 85 62 bc c0 fe a5 ba
       0.024649668 -0.04510871 -0.013825739 -0.0012664422
000070 4a 90 9e bc dc c1 cd bb 96 12 81 bd ff db 25 bd
       -0.019355912 -0.0062792134 -0.06302373 -0.040493008
000080 d8 bb a3 bc 2b 93 07 bd 9c 92 a0 bc 37 53 1d bd
       -0.019987032 -0.033099335 -0.019601159 -0.038409438
000090 27 8a d2 bc 28 92 c8 ba 0a f5 03 bd 68 0e c2 bc
       -0.025700642 -0.0015302347 -0.03221611 -0.02368851
0000a0 83 7c e1 3c c9 b9 1d 3d 6a 51 00 3d 30 42 0d bb
       0.027525192 0.038507257 0.031327643 -0.0021554343
0000b0 98 e7 9c 3b 48 d4 92 3d 00 d9 97 3d 4a 2e 85 3d
       0.0047883503 0.07169396 0.07414436 0.065029696
0000c0 9e f9 38 3d 46 49 1b 3d 2e 81 8e bb 0e 1e 46 bc
       0.04515993 0.037911676 -0.0043488955 -0.0120921265
0000d0 66 ac 89 bb e2 20 5c 3c 0d 4a dc 3b 69 4f 1d 3c
       -0.0042014597 0.013435574 0.0067226947 0.009601452
0000e0 ea 07 f1 3b 50 a7 fc 3b c3 7c 72 3c 60 6e f0 ba
       0.0073556798 0.007710375 0.014800253 -0.0018343441
0000f0 e6 ca da 3c 70 b4 1e 3c 08 71 1f 3b e3 c6 c6 3c
       0.026708078 0.009686574 0.0024328846 0.024264758
000100 2b b4 d0 3b ea f3 2a 3c 8e 89 21 bc 8e 9d 75 bb
       0.006369134 0.01043413 -0.009859456 -0.0037477943
000110 53 56 3e 3c 18 78 4e 3a 72 86 2e 3c a4 df e6 bb
       0.011617261 0.0007876172 0.010652171 -0.007045703
000120 f3 f2 5e 3b 5d f8 1d 3c ee df 13 bc 31 8f 89 bd
       0.003401932 0.009641734 -0.009025557 -0.06716765
000130 ae 62 2a bd 78 8d f0 bb ea 98 d1 bc c5 40 f9 bc
       -0.041598015 -0.007341083 -0.02558561 -0.030426392
000140 05 96 46 bd 7e f5 8f bd bc be 33 bd be 39 43 bd
       -0.048482914 -0.07029246 -0.04388307 -0.04766249
000150 a2 90 4f bd 00 69 0b 3a 8c b5 55 bb e7 13 92 3c
       -0.050675042 0.00053180754 -0.003260943 0.017831756
000160 8e 62 74 3b 04 f9 56 bc 01 cf af 3d 8c 02 d1 3d
       0.0037290188 -0.013120893 0.08584405 0.10205564
000170 e4 58 e7 3d a4 ae 71 3d ba 93 67 3c 6c f3 0a 3e
       0.112962514 0.05900444 0.014134342 0.1356942
000180 e0 c0 ed 3d c9 6f d0 3d 3b 67 4f 3d 40 28 53 3d
       0.116090536 0.10177571 0.050635558 0.051552057
000190 2a 50 2c bd 9f 92 d7 bc 30 38 7a bc 3d a7 02 bd
       -0.042068638 -0.026315032 -0.015272185 -0.031897772
0001a0 92 2a ab bc bc df 4b bd 6a b4 38 bd 65 87 fe bc
       -0.020894323 -0.049773917 -0.04509393 -0.03107042
0001b0 6a aa 27 bd 31 47 f9 bc 80 58 49 b9 00 37 10 37
       -0.040934004 -0.030429455 -0.00019201823 8.5958745e-06
0001c0 0a 1e 9a 3b 18 60 31 bc d2 77 5f bc 49 3d 8f 3d
       0.004703288 -0.010826133 -0.013639407 0.06994111
0001d0 d9 17 94 3d e8 90 7b 3d 1a 9f d5 3c d8 a4 b4 3c
       0.07231111 0.06141749 0.026076842 0.02205126
0001e0 ce 56 b7 3d b5 4d 9f 3d b6 fa 5e 3d 45 9b 29 3d
       0.089521036 0.07778493 0.054438315 0.041407842
0001f0 85 ae 14 3d 9e 7d ab bc fe 33 30 bb 86 1b 9e 3c
       0.036299247 -0.020933922 -0.0026886459 0.019300234
000200 88 28 17 3c e0 10 2f 3c 16 d5 f6 bc b4 b9 6b bc
       0.009225972 0.010685176 -0.030130904 -0.014387537
000210 6a 5c 49 3c c0 99 f6 b9 44 5c a1 bb 43 73 28 bd
       0.0122901 -0.0004703533 -0.004924329 -0.041125547
000220 fe 05 21 bd 8a 14 b7 bc 5f 25 11 bd 3f 53 0b bd
       -0.039312355 -0.022348661 -0.03543603 -0.034014937
000230 94 e0 8b bc 0b 12 c0 bc ad bc b1 bc 36 2b 8a bc
       -0.01707486 -0.023446104 -0.021696413 -0.016866308
000240 ac 2a dc bc 70 e9 cc 3c 63 35 0f 3d 4a 0e 07 3d
       -0.026875816 0.025013655 0.034963023 0.03297261
000250 85 d2 7d 3c 3c 52 4c 3b dc eb 07 bd c6 1b a3 bc
       0.015492086 0.0031176945 -0.033183917 -0.019910704
000260 e0 cf 8b ba 3a 5f ba bc 4e e8 61 bc 88 6e 51 bd
       -0.001066681 -0.022750486 -0.013788296 -0.0511308
000270 e8 85 2a bd 04 49 44 bd b6 1f 30 bd e7 64 2c bd
       -0.04163161 -0.047921196 -0.042998992 -0.042088415
000280 60 bf 3c bd 68 eb e8 bc 28 8a d2 bc 0d b6 45 bd
       -0.046080947 -0.028432563 -0.025700644 -0.04826932
000290 26 fe 1f bd 02 93 78 3d b4 29 9b 3d a4 cd 6f 3d
       -0.039060734 0.060687073 0.075763136 0.058545724
0002a0 91 f2 0b 3d ba b9 96 3c b4 a8 d3 3d 39 a1 e3 3d
       0.034166876 0.018399108 0.10334912 0.11114735
0002b0 75 65 bb 3d a4 af 42 3d 40 5d 5e 3d a5 bb 1c bd
       0.09150211 0.047530785 0.05428815 -0.03826489
0002c0 fb 07 55 bc b0 94 4f 3c dd 7a 44 bc 6a 87 ce bb
       -0.013002391 0.012669727 -0.0119921835 -0.0063027637
0002d0 26 a9 02 bd 68 4d 02 bc be 9f 3c 3c e4 0c bf bb
       -0.031899594 -0.007953025 0.011512695 -0.005830394
0002e0 74 98 c9 3a c8 8f d9 bb b2 a0 4b 3c 2e 06 11 3d
       0.0015380518 -0.0066394545 0.0124284495 0.035406284
0002f0 f4 fb 00 bb 20 54 7f 3a f2 c6 7c 3c 6f 1e c7 3c
       -0.0019681426 0.00097400136 0.015428292 0.024306504
000300 be fc d1 3c 61 1d 01 bb 3d 37 bc bb 58 d5 03 bb
       0.025633212 -0.001970135 -0.0057438896 -0.0020116176
000310 12 be b1 3c db 6f e5 3b b2 c9 05 bc a9 9b b7 bb
       0.021697078 0.0070018596 -0.008165764 -0.005603273
000320 e5 9c 89 bb 5a cf 2c 3c fc 8c ee 3b 89 34 19 3b
       -0.0041996115 0.010547483 0.0072799902 0.002337726
000330 a0 fc 94 3b 78 2b bc 3b 6a de 55 3c 5c 4a 53 3c
       0.004546717 0.0057424866 0.013053516 0.012896147
000340 f4 f1 a8 3b 25 28 fb 3b 0e 88 76 3c 82 55 b4 3c
       0.005155796 0.0076646977 0.015047086 0.02201343
000350 9a b6 0c 3c 70 3f 3b 3b 54 9a 13 3b 74 90 36 3c
       0.0085884575 0.0028571747 0.0022522407 0.011142839
000360 6c 8f 15 3c 0a 2d 8b 3a 84 77 0a bc da c2 bb 39
       0.009128433 0.0010618281 -0.008451346 0.00035812595
000370 e7 30 08 bb f6 7c ca bb 04 bd a0 bc c2 ca 60 bc
       -0.0020781101 -0.0061794473 -0.01962138 -0.013720216
000380 4c 0c 50 bb ab eb c2 bc 67 05 ac 3c 40 ca 1e ba
       -0.003174561 -0.023794016 0.02099867 -0.0006057359
000390 97 24 b7 bc f0 a6 86 3b 30 37 b0 bc 48 06 d8 3c
       -0.022356315 0.004109256 -0.02151069 0.026370183
0003a0 c9 7d 95 3b a0 33 48 bc 84 cd 27 3c 29 c5 6e 3c
       0.004562114 -0.01221934 0.01024187 0.014573374
0003b0 60 6e 72 3d b4 e1 0f 3d c0 ad e3 ba 83 0a cc 3c
       0.059187293 0.035127357 -0.0017370507 0.024907356
0003c0 12 b8 42 3d d3 fa 9e 3d 79 23 fb 3c 00 d7 c0 3b
       0.047538824 0.07762685 0.030656563 0.005885005
0003d0 b3 a6 8c 3c fc a3 b2 3c ac 57 cb 3c e2 96 04 bc
       0.017169332 0.02180671 0.024822079 -0.008092614
0003e0 6e bf af bc 62 43 05 bb b0 b2 0b 3c db 12 b4 3c
       -0.021453585 -0.0020334353 0.008526489 0.021981647
0003f0 d8 1c 93 3c b2 b3 91 3c 03 ca d0 3c ca 51 e2 3b
       0.01795809 0.01778588 0.025486952 0.0069067227

momentum_buffer f4 [20]
000000 50 61 a6 3a c2 54 b7 3c e8 c6 f6 bb e3 b1 62 bb
       0.0012693796 0.022379283 -0.0075310357 -0.0034590892
000010 85 3c 2c 3c 94 e7 0d 3a 25 68 99 bb c9 4a 51 3b
       0.010512476 0.0005413231 -0.0046816044 0.0031935445
000020 32 eb d6 3a 26 97 0f 3c a3 b6 a5 3b 3d 35 95 3c
       0.0016396998 0.008764064 0.0050571724 0.018213863
000030 ae 2e 29 3c 44 d0 29 3c 61 8c 88 3b c0 b9 1a bc
       0.010326071 0.010364596 0.004167125 -0.0094437
000040 0d 76 3c 3b e1 8d 3c bb 98 36 3f 3c 51 99 4a bb
       0.0028756887 -0.002877109 0.011670731 -0.0030914138
